module attributes {torch.debug_module_name = "L"} {
  memref.global "private" constant @__constant_12x3xf32 : memref<12x3xf32> = dense<[[… >
  memref.global "private" constant @__constant_3x12xf32 : memref<3x12xf32> = dense<[[… >
  func.func @forward(%arg0: memref<4x3xf32>) -> memref<4x3xf32> {
    %cst = arith.constant 0.000000e+00 : f32
    %0 = memref.get_global @__constant_3x12xf32 : memref<3x12xf32>
    %1 = memref.get_global @__constant_12x3xf32 : memref<12x3xf32>
    %2 = memref.alloca() {alignment = 64 : i64} : memref<3x12xf32>
    FDRA.KernelCall @forward_kernel_0(%1, %2) : (memref<12x3xf32>, memref<3x12xf32>) -> ()
    %3 = memref.alloc() {alignment = 64 : i64} : memref<4x12xf32>
    FDRA.KernelCall @forward_kernel_1(%3) : (memref<4x12xf32>) -> ()
    %4 = memref.alloc() {alignment = 64 : i64} : memref<4x12xf32>
    memref.copy %3, %4 : memref<4x12xf32> to memref<4x12xf32>
    FDRA.KernelCall @forward_kernel_2(%arg0, %2, %4) : (memref<4x3xf32>, memref<3x12xf32>, memref<4x12xf32>) -> ()
    %5 = memref.alloca() {alignment = 64 : i64} : memref<12x3xf32>
    FDRA.KernelCall @forward_kernel_3(%0, %5) : (memref<3x12xf32>, memref<12x3xf32>) -> ()
    %6 = memref.alloc() {alignment = 64 : i64} : memref<4x3xf32>
    FDRA.KernelCall @forward_kernel_4(%6) : (memref<4x3xf32>) -> ()
    %7 = memref.alloc() {alignment = 64 : i64} : memref<4x3xf32>
    memref.copy %6, %7 : memref<4x3xf32> to memref<4x3xf32>
    FDRA.KernelCall @forward_kernel_5(%4, %5, %7) : (memref<4x12xf32>, memref<12x3xf32>, memref<4x3xf32>) -> ()
    return %7 : memref<4x3xf32>
  }
  func.func @forward_kernel_0(%arg0: memref<12x3xf32>, %arg1: memref<3x12xf32>) attributes {Kernel, forward_kernel_0} {
    cf.br ^bb1
  ^bb1:  // pred: ^bb0
    affine.for %arg2 = 0 to 12 {
      affine.for %arg3 = 0 to 3 {
        %0 = affine.load %arg0[%arg2, %arg3] : memref<12x3xf32>
        affine.store %0, %arg1[%arg3, %arg2] : memref<3x12xf32>
      }
    }
    return
  }
  func.func @forward_kernel_1(%arg0: memref<4x12xf32>) attributes {Kernel, forward_kernel_1} {
    cf.br ^bb1
  ^bb1:  // pred: ^bb0
    %cst = arith.constant 0.000000e+00 : f32
    affine.for %arg1 = 0 to 4 {
      affine.for %arg2 = 0 to 12 {
        affine.store %cst, %arg0[%arg1, %arg2] : memref<4x12xf32>
      }
    }
    return
  }
  func.func @forward_kernel_2(%arg0: memref<4x3xf32>, %arg1: memref<3x12xf32>, %arg2: memref<4x12xf32>) attributes {Kernel, forward_kernel_2} {
    cf.br ^bb1
  ^bb1:  // pred: ^bb0
    affine.for %arg3 = 0 to 4 {
      affine.for %arg4 = 0 to 12 {
        affine.for %arg5 = 0 to 3 {
          %0 = affine.load %arg0[%arg3, %arg5] : memref<4x3xf32>
          %1 = affine.load %arg1[%arg5, %arg4] : memref<3x12xf32>
          %2 = affine.load %arg2[%arg3, %arg4] : memref<4x12xf32>
          %3 = arith.mulf %0, %1 : f32
          %4 = arith.addf %2, %3 : f32
          affine.store %4, %arg2[%arg3, %arg4] : memref<4x12xf32>
        }
      }
    }
    return
  }
  func.func @forward_kernel_3(%arg0: memref<3x12xf32>, %arg1: memref<12x3xf32>) attributes {Kernel, forward_kernel_3} {
    cf.br ^bb1
  ^bb1:  // pred: ^bb0
    affine.for %arg2 = 0 to 3 {
      affine.for %arg3 = 0 to 12 {
        %0 = affine.load %arg0[%arg2, %arg3] : memref<3x12xf32>
        affine.store %0, %arg1[%arg3, %arg2] : memref<12x3xf32>
      }
    }
    return
  }
  func.func @forward_kernel_4(%arg0: memref<4x3xf32>) attributes {Kernel, forward_kernel_4} {
    cf.br ^bb1
  ^bb1:  // pred: ^bb0
    %cst = arith.constant 0.000000e+00 : f32
    affine.for %arg1 = 0 to 4 {
      affine.for %arg2 = 0 to 3 {
        affine.store %cst, %arg0[%arg1, %arg2] : memref<4x3xf32>
      }
    }
    return
  }
  func.func @forward_kernel_5(%arg0: memref<4x12xf32>, %arg1: memref<12x3xf32>, %arg2: memref<4x3xf32>) attributes {Kernel, forward_kernel_5} {
    cf.br ^bb1
  ^bb1:  // pred: ^bb0
    affine.for %arg3 = 0 to 4 {
      affine.for %arg4 = 0 to 3 {
        affine.for %arg5 = 0 to 12 {
          %0 = affine.load %arg0[%arg3, %arg5] : memref<4x12xf32>
          %1 = affine.load %arg1[%arg5, %arg4] : memref<12x3xf32>
          %2 = affine.load %arg2[%arg3, %arg4] : memref<4x3xf32>
          %3 = arith.mulf %0, %1 : f32
          %4 = arith.addf %2, %3 : f32
          affine.store %4, %arg2[%arg3, %arg4] : memref<4x3xf32>
        }
      }
    }
    return
  }
}

