#map = affine_map<(d0) -> (d0)>
#map1 = affine_map<(d0) -> (d0 + 5)>
#map2 = affine_map<(d0) -> (d0 + 16)>
#map3 = affine_map<(d0) -> (d0 + 8)>
#map4 = affine_map<(d0) -> (d0 + 6)>
#map5 = affine_map<(d0) -> (d0 + 28)>
#map6 = affine_map<(d0) -> (d0 + 4)>
module attributes {torch.debug_module_name = "ResNet"} {
  memref.global "private" constant @__constant_64xf32_2 : memref<64xf32> = dense<[… >
  memref.global "private" constant @__constant_64xf32_1 : memref<64xf32> = dense<[… >
  memref.global "private" constant @__constant_64xf32_0 : memref<64xf32> = dense<[… >
  memref.global "private" constant @__constant_64xf32 : memref<64xf32> = dense<[… >
  memref.global "private" constant @__constant_64x3x7x7xf32 : memref<64x3x7x7xf32> = dense<"…">
  ml_program.global private mutable @global_seed(dense<0> : tensor<i64>) : tensor<i64>
  func.func @forward(%arg0: memref<1x3x224x224xf32>) -> memref<1x64x56x56xf32> {
    %cst = arith.constant 1.000000e-05 : f64
    %cst_0 = arith.constant 0xFF800000 : f32
    %cst_1 = arith.constant 0.000000e+00 : f32
    %0 = memref.get_global @__constant_64x3x7x7xf32 : memref<64x3x7x7xf32>
    %1 = memref.get_global @__constant_64xf32 : memref<64xf32>
    %2 = memref.get_global @__constant_64xf32_0 : memref<64xf32>
    %3 = memref.get_global @__constant_64xf32_1 : memref<64xf32>
    %4 = memref.get_global @__constant_64xf32_2 : memref<64xf32>
    %alloc = memref.alloc() {alignment = 64 : i64} : memref<1x3x230x230xf32>
    affine.for %arg1 = 0 to 1 {
      affine.for %arg2 = 0 to 3 {
        affine.for %arg3 = 0 to 230 step 5 {

            affine.for %arg4 = #map(%arg3) to #map1(%arg3) {
              affine.for %arg5 = 0 to 230 {
                affine.store %cst_1, %alloc[%arg1, %arg2, %arg4, %arg5] : memref<1x3x230x230xf32>
              }
            }

        }
      }
    }
    memref.dealloc %alloc : memref<1x3x230x230xf32>
    %alloc_2 = memref.alloc() {alignment = 64 : i64} : memref<1x3x230x230xf32>
    memref.copy %alloc, %alloc_2 : memref<1x3x230x230xf32> to memref<1x3x230x230xf32>
    %subview = memref.subview %alloc_2[0, 0, 3, 3] [1, 3, 224, 224] [1, 1, 1, 1] : memref<1x3x230x230xf32> to memref<1x3x224x224xf32, strided<[158700, 52900, 230, 1], offset: 693>>
    memref.copy %arg0, %subview : memref<1x3x224x224xf32> to memref<1x3x224x224xf32, strided<[158700, 52900, 230, 1], offset: 693>>
    %alloc_3 = memref.alloc() {alignment = 64 : i64} : memref<1x64x112x112xf32>
    affine.for %arg1 = 0 to 1 {
      affine.for %arg2 = 0 to 64 {
        affine.for %arg3 = 0 to 112 step 16 {

            affine.for %arg4 = #map(%arg3) to #map2(%arg3) {
              affine.for %arg5 = 0 to 112 {
                affine.store %cst_1, %alloc_3[%arg1, %arg2, %arg4, %arg5] : memref<1x64x112x112xf32>
              }
            }

        }
      }
    }
    %alloc_4 = memref.alloc() {alignment = 64 : i64} : memref<1x64x112x112xf32>
    memref.copy %alloc_3, %alloc_4 : memref<1x64x112x112xf32> to memref<1x64x112x112xf32>
    memref.dealloc %alloc_3 : memref<1x64x112x112xf32>
    affine.for %arg1 = 0 to 1 {
      affine.for %arg2 = 0 to 64 {
        affine.for %arg3 = 0 to 112 {
          affine.for %arg4 = 0 to 112 step 8 {
            FDRA.kernel {
              affine.for %arg5 = #map(%arg4) to #map3(%arg4) {
                %5 = affine.load %alloc_4[%arg1, %arg2, %arg3, %arg5] : memref<1x64x112x112xf32>
                %6 = affine.for %arg6 = 0 to 3 iter_args(%arg7 = %5) -> (f32) {
                  %7 = affine.for %arg8 = 0 to 7 iter_args(%arg9 = %arg7) -> (f32) {
                    %8 = affine.for %arg10 = 0 to 7 iter_args(%arg11 = %arg9) -> (f32) {
                      %9 = affine.load %alloc_2[%arg1, %arg6, %arg3 * 2 + %arg8, %arg5 * 2 + %arg10] : memref<1x3x230x230xf32>
                      %10 = affine.load %0[%arg2, %arg6, %arg8, %arg10] : memref<64x3x7x7xf32>
                      %11 = arith.mulf %9, %10 : f32
                      %12 = arith.addf %arg11, %11 : f32
                      affine.yield %12 : f32
                    }
                    affine.yield %8 : f32
                  }
                  affine.yield %7 : f32
                }
                affine.store %6, %alloc_4[%arg1, %arg2, %arg3, %arg5] : memref<1x64x112x112xf32>
              }
              FDRA.terminator
            }
          }
        }
      }
    }
    %alloc_5 = memref.alloc() {alignment = 64 : i64} : memref<1x64x112x112xf32>
    affine.for %arg1 = 0 to 1 {
      affine.for %arg2 = 0 to 64 {
        affine.for %arg3 = 0 to 112 step 16 {
          FDRA.kernel {
            affine.for %arg4 = #map(%arg3) to #map2(%arg3) {
                      %5 = affine.load %3[%arg2] : memref<64xf32>
        %6 = affine.load %4[%arg2] : memref<64xf32>
        %7 = affine.load %1[%arg2] : memref<64xf32>
        %8 = affine.load %2[%arg2] : memref<64xf32>
              affine.for %arg5 = 0 to 112 {
                %9 = affine.load %alloc_4[%arg1, %arg2, %arg4, %arg5] : memref<1x64x112x112xf32>
                %10 = arith.truncf %cst : f64 to f32
                %11 = arith.addf %8, %10 : f32
                %cst_12 = arith.constant 5.000000e-01 : f32
                %12 = arith.mulf %11, %cst_12 : f32
                %13 = arith.bitcast %11 : f32 to i32
                %c1_i32 = arith.constant 1 : i32
                %14 = arith.shrui %13, %c1_i32 : i32
                %c1597463007_i32 = arith.constant 1597463007 : i32
                %15 = arith.subi %c1597463007_i32, %14 : i32
                %16 = arith.bitcast %15 : i32 to f32
                %cst_13 = arith.constant 1.500000e+00 : f32
                %17 = arith.mulf %16, %16 : f32
                %18 = arith.mulf %17, %12 : f32
                %19 = arith.subf %cst_13, %18 : f32
                %20 = arith.mulf %19, %17 : f32
                %21 = arith.subf %9, %7 : f32
                %22 = arith.mulf %21, %20 : f32
                %23 = arith.mulf %22, %5 : f32
                %24 = arith.addf %23, %6 : f32
                affine.store %24, %alloc_5[%arg1, %arg2, %arg4, %arg5] : memref<1x64x112x112xf32>
              }
            }
            FDRA.terminator
          }
        }
      }
    }
    memref.dealloc %alloc_4 : memref<1x64x112x112xf32>
    %alloc_6 = memref.alloc() {alignment = 64 : i64} : memref<1x64x112x112xf32>
    affine.for %arg1 = 0 to 1 {
      affine.for %arg2 = 0 to 64 {
        affine.for %arg3 = 0 to 112 step 16 {
          FDRA.kernel {
            affine.for %arg4 = #map(%arg3) to #map2(%arg3) {
              affine.for %arg5 = 0 to 112 {
                %5 = affine.load %alloc_5[0, %arg2, %arg4, %arg5] : memref<1x64x112x112xf32>
                %6 = arith.cmpf ugt, %5, %cst_1 : f32
                %7 = arith.select %6, %5, %cst_1 : f32
                affine.store %7, %alloc_6[%arg1, %arg2, %arg4, %arg5] : memref<1x64x112x112xf32>
              }
            }
            FDRA.terminator
          }
        }
      }
    }
    memref.dealloc %alloc_5 : memref<1x64x112x112xf32>
    memref.dealloc %alloc_6 : memref<1x64x112x112xf32>
    %alloc_7 = memref.alloc() {alignment = 64 : i64} : memref<1x64x114x114xf32>
    affine.for %arg1 = 0 to 1 {
      affine.for %arg2 = 0 to 64 {
        affine.for %arg3 = 0 to 114 step 6 {
            affine.for %arg4 = #map(%arg3) to #map4(%arg3) {
              affine.for %arg5 = 0 to 114 {
                affine.store %cst_0, %alloc_7[%arg1, %arg2, %arg4, %arg5] : memref<1x64x114x114xf32>
              }
            }
        }
      }
    }
    memref.dealloc %alloc_7 : memref<1x64x114x114xf32>
    %alloc_8 = memref.alloc() {alignment = 64 : i64} : memref<1x64x114x114xf32>
    memref.copy %alloc_7, %alloc_8 : memref<1x64x114x114xf32> to memref<1x64x114x114xf32>
    %subview_9 = memref.subview %alloc_8[0, 0, 1, 1] [1, 64, 112, 112] [1, 1, 1, 1] : memref<1x64x114x114xf32> to memref<1x64x112x112xf32, strided<[831744, 12996, 114, 1], offset: 115>>
    memref.copy %alloc_6, %subview_9 : memref<1x64x112x112xf32> to memref<1x64x112x112xf32, strided<[831744, 12996, 114, 1], offset: 115>>
    %alloc_10 = memref.alloc() {alignment = 64 : i64} : memref<1x64x56x56xf32>
    affine.for %arg1 = 0 to 1 {
      affine.for %arg2 = 0 to 64 {
        affine.for %arg3 = 0 to 56 step 28 {
            affine.for %arg4 = #map(%arg3) to #map5(%arg3) {
              affine.for %arg5 = 0 to 56 {
                affine.store %cst_0, %alloc_10[%arg1, %arg2, %arg4, %arg5] : memref<1x64x56x56xf32>
              }
            }
        }
      }
    }
    %alloc_11 = memref.alloc() {alignment = 64 : i64} : memref<1x64x56x56xf32>
    memref.copy %alloc_10, %alloc_11 : memref<1x64x56x56xf32> to memref<1x64x56x56xf32>
    memref.dealloc %alloc_10 : memref<1x64x56x56xf32>
    affine.for %arg1 = 0 to 1 {
      affine.for %arg2 = 0 to 64 {
        affine.for %arg3 = 0 to 56 step 4 {
          FDRA.kernel {
            affine.for %arg4 = #map(%arg3) to #map6(%arg3) {
              affine.for %arg5 = 0 to 56 {
                %5 = affine.load %alloc_11[%arg1, %arg2, %arg4, %arg5] : memref<1x64x56x56xf32>
                %6 = affine.for %arg6 = 0 to 3 iter_args(%arg7 = %5) -> (f32) {
                  %7 = affine.for %arg8 = 0 to 3 iter_args(%arg9 = %arg7) -> (f32) {
                    %8 = affine.load %alloc_8[%arg1, %arg2, %arg4 * 2 + %arg6, %arg5 * 2 + %arg8] : memref<1x64x114x114xf32>
                    %9 = arith.cmpf ugt, %arg9, %8 : f32
                    %10 = arith.select %9, %arg9, %8 : f32
                    affine.yield %10 : f32
                  }
                  affine.yield %7 : f32
                }
                affine.store %6, %alloc_11[%arg1, %arg2, %arg4, %arg5] : memref<1x64x56x56xf32>
              }
            }
            FDRA.terminator
          }
        }
      }
    }
    memref.dealloc %alloc_11 : memref<1x64x56x56xf32>
    return %alloc_11 : memref<1x64x56x56xf32>
  }
}

