// -----// IR Dump After PromoteBuffersToStack (promote-buffers-to-stack) //----- //
func.func @forward(%arg0: memref<1x3x224x224xf32>) -> memref<1x64x56x56xf32> {
  %cst = arith.constant 1.000000e-05 : f64
  %cst_0 = arith.constant 0xFF800000 : f32
  %cst_1 = arith.constant 0.000000e+00 : f32
  %0 = memref.get_global @__constant_64x3x7x7xf32 : memref<64x3x7x7xf32>
  %1 = memref.get_global @__constant_64xf32 : memref<64xf32>
  %2 = memref.get_global @__constant_64xf32_0 : memref<64xf32>
  %3 = memref.get_global @__constant_64xf32_1 : memref<64xf32>
  %4 = memref.get_global @__constant_64xf32_2 : memref<64xf32>
  %alloc = memref.alloc() {alignment = 64 : i64} : memref<1x3x230x230xf32>
  affine.for %arg1 = 0 to 1 {
    affine.for %arg2 = 0 to 3 {
      affine.for %arg3 = 0 to 230 step 5 {
        %5 = FDRA.BlockLoad %alloc [0, %arg2, %arg3, 0] : memref<1x3x230x230xf32> -> memref<1x3x230x230xf32> {"forward_kernel_0"}
        FDRA.KernelCall @forward_kernel_0(%5) : (memref<1x3x230x230xf32>) -> ()
        FDRA.BlockStore %5,  %alloc [0, %arg2, %arg3, 0] : memref<1x3x230x230xf32> -> memref<1x3x230x230xf32> {"forward_kernel_0"}
      }
    }
  }
  memref.dealloc %alloc : memref<1x3x230x230xf32>
  %alloc_2 = memref.alloc() {alignment = 64 : i64} : memref<1x3x230x230xf32>
  memref.copy %alloc, %alloc_2 : memref<1x3x230x230xf32> to memref<1x3x230x230xf32>
  %subview = memref.subview %alloc_2[0, 0, 3, 3] [1, 3, 224, 224] [1, 1, 1, 1] : memref<1x3x230x230xf32> to memref<1x3x224x224xf32, strided<[158700, 52900, 230, 1], offset: 693>>
  memref.copy %arg0, %subview : memref<1x3x224x224xf32> to memref<1x3x224x224xf32, strided<[158700, 52900, 230, 1], offset: 693>>
  %alloc_3 = memref.alloc() {alignment = 64 : i64} : memref<1x64x112x112xf32>
  affine.for %arg1 = 0 to 1 {
    affine.for %arg2 = 0 to 64 {
      affine.for %arg3 = 0 to 112 step 16 {
        %5 = FDRA.BlockLoad %alloc_3 [0, %arg2, %arg3, 0] : memref<1x64x112x112xf32> -> memref<1x64x112x112xf32> {"forward_kernel_1"}
        FDRA.KernelCall @forward_kernel_1(%5) : (memref<1x64x112x112xf32>) -> ()
        FDRA.BlockStore %5,  %alloc_3 [0, %arg2, %arg3, 0] : memref<1x64x112x112xf32> -> memref<1x64x112x112xf32> {"forward_kernel_1"}
      }
    }
  }
  %alloc_4 = memref.alloc() {alignment = 64 : i64} : memref<1x64x112x112xf32>
  memref.copy %alloc_3, %alloc_4 : memref<1x64x112x112xf32> to memref<1x64x112x112xf32>
  memref.dealloc %alloc_3 : memref<1x64x112x112xf32>
  affine.for %arg1 = 0 to 1 {
    affine.for %arg2 = 0 to 64 {
      affine.for %arg3 = 0 to 112 {
        affine.for %arg4 = 0 to 112 step 8 {
          %5 = FDRA.BlockLoad %alloc_2 [0, 0, %arg3 * 2, %arg4 * 2] : memref<1x3x230x230xf32> -> memref<1x3x230x230xf32> {"forward_kernel_2"}
          %6 = FDRA.BlockLoad %0 [%arg2, 0, 0, 0] : memref<64x3x7x7xf32> -> memref<64x3x7x7xf32> {"forward_kernel_2"}
          %7 = FDRA.BlockLoad %alloc_4 [0, %arg2, %arg3, %arg4] : memref<1x64x112x112xf32> -> memref<1x64x112x112xf32> {"forward_kernel_2"}
          %8 = FDRA.BlockLoad %alloc_4 [0, %arg2, %arg3, %arg4] : memref<1x64x112x112xf32> -> memref<1x64x112x112xf32> {"forward_kernel_2"}
          FDRA.KernelCall @forward_kernel_2(%5, %6, %7, %8) : (memref<1x3x230x230xf32>, memref<64x3x7x7xf32>, memref<1x64x112x112xf32>, memref<1x64x112x112xf32>) -> ()
          FDRA.BlockStore %8,  %alloc_4 [0, %arg2, %arg3, %arg4] : memref<1x64x112x112xf32> -> memref<1x64x112x112xf32> {"forward_kernel_2"}
        }
      }
    }
  }
  %alloc_5 = memref.alloc() {alignment = 64 : i64} : memref<1x64x112x112xf32>
  affine.for %arg1 = 0 to 1 {
    affine.for %arg2 = 0 to 64 {
      affine.for %arg3 = 0 to 112 step 16 {
        %5 = FDRA.BlockLoad %alloc_4 [0, %arg2, %arg3, 0] : memref<1x64x112x112xf32> -> memref<1x64x112x112xf32> {"forward_kernel_3"}
        %6 = FDRA.BlockLoad %3 [%arg2] : memref<64xf32> -> memref<64xf32> {"forward_kernel_3"}
        %7 = FDRA.BlockLoad %4 [%arg2] : memref<64xf32> -> memref<64xf32> {"forward_kernel_3"}
        %8 = FDRA.BlockLoad %1 [%arg2] : memref<64xf32> -> memref<64xf32> {"forward_kernel_3"}
        %9 = FDRA.BlockLoad %2 [%arg2] : memref<64xf32> -> memref<64xf32> {"forward_kernel_3"}
        %10 = FDRA.BlockLoad %alloc_5 [0, %arg2, %arg3, 0] : memref<1x64x112x112xf32> -> memref<1x64x112x112xf32> {"forward_kernel_3"}
        FDRA.KernelCall @forward_kernel_3(%5, %6, %7, %8, %9, %10) : (memref<1x64x112x112xf32>, memref<64xf32>, memref<64xf32>, memref<64xf32>, memref<64xf32>, memref<1x64x112x112xf32>) -> ()
        FDRA.BlockStore %10,  %alloc_5 [0, %arg2, %arg3, 0] : memref<1x64x112x112xf32> -> memref<1x64x112x112xf32> {"forward_kernel_3"}
      }
    }
  }
  memref.dealloc %alloc_4 : memref<1x64x112x112xf32>
  %alloc_6 = memref.alloc() {alignment = 64 : i64} : memref<1x64x112x112xf32>
  affine.for %arg1 = 0 to 1 {
    affine.for %arg2 = 0 to 64 {
      affine.for %arg3 = 0 to 112 step 16 {
        %5 = FDRA.BlockLoad %alloc_5 [0, %arg2, %arg3, 0] : memref<1x64x112x112xf32> -> memref<1x64x112x112xf32> {"forward_kernel_4"}
        %6 = FDRA.BlockLoad %alloc_6 [0, %arg2, %arg3, 0] : memref<1x64x112x112xf32> -> memref<1x64x112x112xf32> {"forward_kernel_4"}
        FDRA.KernelCall @forward_kernel_4(%5, %6) : (memref<1x64x112x112xf32>, memref<1x64x112x112xf32>) -> ()
        FDRA.BlockStore %6,  %alloc_6 [0, %arg2, %arg3, 0] : memref<1x64x112x112xf32> -> memref<1x64x112x112xf32> {"forward_kernel_4"}
      }
    }
  }
  memref.dealloc %alloc_5 : memref<1x64x112x112xf32>
  memref.dealloc %alloc_6 : memref<1x64x112x112xf32>
  %alloc_7 = memref.alloc() {alignment = 64 : i64} : memref<1x64x114x114xf32>
  affine.for %arg1 = 0 to 1 {
    affine.for %arg2 = 0 to 64 {
      affine.for %arg3 = 0 to 114 step 6 {
        %5 = FDRA.BlockLoad %alloc_7 [0, %arg2, %arg3, 0] : memref<1x64x114x114xf32> -> memref<1x64x114x114xf32> {"forward_kernel_5"}
        FDRA.KernelCall @forward_kernel_5(%5) : (memref<1x64x114x114xf32>) -> ()
        FDRA.BlockStore %5,  %alloc_7 [0, %arg2, %arg3, 0] : memref<1x64x114x114xf32> -> memref<1x64x114x114xf32> {"forward_kernel_5"}
      }
    }
  }
  memref.dealloc %alloc_7 : memref<1x64x114x114xf32>
  %alloc_8 = memref.alloc() {alignment = 64 : i64} : memref<1x64x114x114xf32>
  memref.copy %alloc_7, %alloc_8 : memref<1x64x114x114xf32> to memref<1x64x114x114xf32>
  %subview_9 = memref.subview %alloc_8[0, 0, 1, 1] [1, 64, 112, 112] [1, 1, 1, 1] : memref<1x64x114x114xf32> to memref<1x64x112x112xf32, strided<[831744, 12996, 114, 1], offset: 115>>
  memref.copy %alloc_6, %subview_9 : memref<1x64x112x112xf32> to memref<1x64x112x112xf32, strided<[831744, 12996, 114, 1], offset: 115>>
  %alloc_10 = memref.alloc() {alignment = 64 : i64} : memref<1x64x56x56xf32>
  affine.for %arg1 = 0 to 1 {
    affine.for %arg2 = 0 to 64 {
      affine.for %arg3 = 0 to 56 step 28 {
        %5 = FDRA.BlockLoad %alloc_10 [0, %arg2, %arg3, 0] : memref<1x64x56x56xf32> -> memref<1x64x56x56xf32> {"forward_kernel_6"}
        FDRA.KernelCall @forward_kernel_6(%5) : (memref<1x64x56x56xf32>) -> ()
        FDRA.BlockStore %5,  %alloc_10 [0, %arg2, %arg3, 0] : memref<1x64x56x56xf32> -> memref<1x64x56x56xf32> {"forward_kernel_6"}
      }
    }
  }
  %alloc_11 = memref.alloc() {alignment = 64 : i64} : memref<1x64x56x56xf32>
  memref.copy %alloc_10, %alloc_11 : memref<1x64x56x56xf32> to memref<1x64x56x56xf32>
  memref.dealloc %alloc_10 : memref<1x64x56x56xf32>
  affine.for %arg1 = 0 to 1 {
    affine.for %arg2 = 0 to 64 {
      affine.for %arg3 = 0 to 56 step 4 {
        %5 = FDRA.BlockLoad %alloc_8 [0, %arg2, %arg3 * 2, 0] : memref<1x64x114x114xf32> -> memref<1x64x114x114xf32> {"forward_kernel_7"}
        %6 = FDRA.BlockLoad %alloc_11 [0, %arg2, %arg3, 0] : memref<1x64x56x56xf32> -> memref<1x64x56x56xf32> {"forward_kernel_7"}
        %7 = FDRA.BlockLoad %alloc_11 [0, %arg2, %arg3, 0] : memref<1x64x56x56xf32> -> memref<1x64x56x56xf32> {"forward_kernel_7"}
        FDRA.KernelCall @forward_kernel_7(%5, %6, %7) : (memref<1x64x114x114xf32>, memref<1x64x56x56xf32>, memref<1x64x56x56xf32>) -> ()
        FDRA.BlockStore %7,  %alloc_11 [0, %arg2, %arg3, 0] : memref<1x64x56x56xf32> -> memref<1x64x56x56xf32> {"forward_kernel_7"}
      }
    }
  }
  memref.dealloc %alloc_11 : memref<1x64x56x56xf32>
  return %alloc_11 : memref<1x64x56x56xf32>
}

// -----// IR Dump After PromoteBuffersToStack (promote-buffers-to-stack) //----- //
func.func @forward_kernel_3(%arg0: memref<1x64x112x112xf32>, %arg1: memref<64xf32>, %arg2: memref<64xf32>, %arg3: memref<64xf32>, %arg4: memref<64xf32>, %arg5: memref<1x64x112x112xf32>) attributes {Kernel, forward_kernel_3} {
  cf.br ^bb1
^bb1:  // pred: ^bb0
  %cst = arith.constant 1.000000e-05 : f64
  affine.for %arg6 = 0 to 16 {
    affine.for %arg7 = 0 to 112 {
      %0 = affine.load %arg0[0, 0, %arg6, %arg7] : memref<1x64x112x112xf32>
      %1 = affine.load %arg1[0] : memref<64xf32>
      %2 = affine.load %arg2[0] : memref<64xf32>
      %3 = affine.load %arg3[0] : memref<64xf32>
      %4 = affine.load %arg4[0] : memref<64xf32>
      %5 = arith.truncf %cst : f64 to f32
      %6 = arith.addf %4, %5 : f32
      %cst_0 = arith.constant 5.000000e-01 : f32
      %7 = arith.mulf %6, %cst_0 : f32
      %8 = arith.bitcast %6 : f32 to i32
      %c1_i32 = arith.constant 1 : i32
      %9 = arith.shrui %8, %c1_i32 : i32
      %c1597463007_i32 = arith.constant 1597463007 : i32
      %10 = arith.subi %c1597463007_i32, %9 : i32
      %11 = arith.bitcast %10 : i32 to f32
      %cst_1 = arith.constant 1.500000e+00 : f32
      %12 = arith.mulf %11, %11 : f32
      %13 = arith.mulf %12, %7 : f32
      %14 = arith.subf %cst_1, %13 : f32
      %15 = arith.mulf %14, %12 : f32
      %16 = arith.subf %0, %3 : f32
      %17 = arith.mulf %16, %15 : f32
      %18 = arith.mulf %17, %1 : f32
      %19 = arith.addf %18, %2 : f32
      affine.store %19, %arg5[0, 0, %arg6, %arg7] : memref<1x64x112x112xf32>
    }
  }
  return
}

// -----// IR Dump After PromoteBuffersToStack (promote-buffers-to-stack) //----- //
func.func @forward_kernel_4(%arg0: memref<1x64x112x112xf32>, %arg1: memref<1x64x112x112xf32>) attributes {Kernel, forward_kernel_4} {
  cf.br ^bb1
^bb1:  // pred: ^bb0
  %cst = arith.constant 0.000000e+00 : f32
  affine.for %arg2 = 0 to 16 {
    affine.for %arg3 = 0 to 112 {
      %0 = affine.load %arg0[0, 0, %arg2, %arg3] : memref<1x64x112x112xf32>
      %1 = arith.cmpf ugt, %0, %cst : f32
      %2 = arith.select %1, %0, %cst : f32
      affine.store %2, %arg1[0, 0, %arg2, %arg3] : memref<1x64x112x112xf32>
    }
  }
  return
}

// -----// IR Dump After PromoteBuffersToStack (promote-buffers-to-stack) //----- //
func.func @forward_kernel_5(%arg0: memref<1x64x114x114xf32>) attributes {Kernel, forward_kernel_5} {
  cf.br ^bb1
^bb1:  // pred: ^bb0
  %cst = arith.constant 0xFF800000 : f32
  affine.for %arg1 = 0 to 6 {
    affine.for %arg2 = 0 to 114 {
      affine.store %cst, %arg0[0, 0, %arg1, %arg2] : memref<1x64x114x114xf32>
    }
  }
  return
}

// -----// IR Dump After PromoteBuffersToStack (promote-buffers-to-stack) //----- //
func.func @forward_kernel_6(%arg0: memref<1x64x56x56xf32>) attributes {Kernel, forward_kernel_6} {
  cf.br ^bb1
^bb1:  // pred: ^bb0
  %cst = arith.constant 0xFF800000 : f32
  affine.for %arg1 = 0 to 28 {
    affine.for %arg2 = 0 to 56 {
      affine.store %cst, %arg0[0, 0, %arg1, %arg2] : memref<1x64x56x56xf32>
    }
  }
  return
}

// -----// IR Dump After PromoteBuffersToStack (promote-buffers-to-stack) //----- //
func.func @forward_kernel_7(%arg0: memref<1x64x114x114xf32>, %arg1: memref<1x64x56x56xf32>, %arg2: memref<1x64x56x56xf32>) attributes {Kernel, forward_kernel_7} {
  cf.br ^bb1
^bb1:  // pred: ^bb0
  affine.for %arg3 = 0 to 4 {
    affine.for %arg4 = 0 to 56 {
      affine.for %arg5 = 0 to 3 {
        affine.for %arg6 = 0 to 3 {
          %0 = affine.load %arg0[0, 0, %arg3 * 2 + %arg5, %arg4 * 2 + %arg6] : memref<1x64x114x114xf32>
          %1 = affine.load %arg1[0, 0, %arg3, %arg4] : memref<1x64x56x56xf32>
          %2 = arith.cmpf ugt, %1, %0 : f32
          %3 = arith.select %2, %1, %0 : f32
          %4 = arith.cmpf uno, %0, %0 : f32
          %5 = arith.select %4, %0, %3 : f32
          affine.store %5, %arg2[0, 0, %arg3, %arg4] : memref<1x64x56x56xf32>
        }
      }
    }
  }
  return
}

// -----// IR Dump After PromoteBuffersToStack (promote-buffers-to-stack) //----- //
func.func @forward_kernel_0(%arg0: memref<1x3x230x230xf32>) attributes {Kernel, forward_kernel_0} {
  cf.br ^bb1
^bb1:  // pred: ^bb0
  %cst = arith.constant 0.000000e+00 : f32
  affine.for %arg1 = 0 to 5 {
    affine.for %arg2 = 0 to 230 {
      affine.store %cst, %arg0[0, 0, %arg1, %arg2] : memref<1x3x230x230xf32>
    }
  }
  return
}

// -----// IR Dump After PromoteBuffersToStack (promote-buffers-to-stack) //----- //
func.func @forward_kernel_2(%arg0: memref<1x3x230x230xf32>, %arg1: memref<64x3x7x7xf32>, %arg2: memref<1x64x112x112xf32>, %arg3: memref<1x64x112x112xf32>) attributes {Kernel, forward_kernel_2} {
  cf.br ^bb1
^bb1:  // pred: ^bb0
  affine.for %arg4 = 0 to 8 {
    affine.for %arg5 = 0 to 3 {
      affine.for %arg6 = 0 to 7 {
        affine.for %arg7 = 0 to 7 {
          %0 = affine.load %arg0[0, %arg5, %arg6, %arg4 * 2 + %arg7] : memref<1x3x230x230xf32>
          %1 = affine.load %arg1[0, %arg5, %arg6, %arg7] : memref<64x3x7x7xf32>
          %2 = affine.load %arg2[0, 0, 0, %arg4] : memref<1x64x112x112xf32>
          %3 = arith.mulf %0, %1 : f32
          %4 = arith.addf %2, %3 : f32
          affine.store %4, %arg3[0, 0, 0, %arg4] : memref<1x64x112x112xf32>
        }
      }
    }
  }
  return
}

// -----// IR Dump After PromoteBuffersToStack (promote-buffers-to-stack) //----- //
func.func @forward_kernel_1(%arg0: memref<1x64x112x112xf32>) attributes {Kernel, forward_kernel_1} {
  cf.br ^bb1
^bb1:  // pred: ^bb0
  %cst = arith.constant 0.000000e+00 : f32
  affine.for %arg1 = 0 to 16 {
    affine.for %arg2 = 0 to 112 {
      affine.store %cst, %arg0[0, 0, %arg1, %arg2] : memref<1x64x112x112xf32>
    }
  }
  return
}

// -----// IR Dump After ArithExpandOps (arith-expand) //----- //
module attributes {torch.debug_module_name = "ResNet"} {
  memref.global "private" constant @__constant_64xf32_2 : memref<64xf32> = dense<[… >
  memref.global "private" constant @__constant_64xf32_1 : memref<64xf32> = dense<[… >
  memref.global "private" constant @__constant_64xf32_0 : memref<64xf32> = dense<[… >
  memref.global "private" constant @__constant_64xf32 : memref<64xf32> = dense<[… >
  memref.global "private" constant @__constant_64x3x7x7xf32 : memref<64x3x7x7xf32> = dense<"…">
  ml_program.global private mutable @global_seed(dense<0> : tensor<i64>) : tensor<i64>
  func.func @forward(%arg0: memref<1x3x224x224xf32>) -> memref<1x64x56x56xf32> {
    %cst = arith.constant 1.000000e-05 : f64
    %cst_0 = arith.constant 0xFF800000 : f32
    %cst_1 = arith.constant 0.000000e+00 : f32
    %0 = memref.get_global @__constant_64x3x7x7xf32 : memref<64x3x7x7xf32>
    %1 = memref.get_global @__constant_64xf32 : memref<64xf32>
    %2 = memref.get_global @__constant_64xf32_0 : memref<64xf32>
    %3 = memref.get_global @__constant_64xf32_1 : memref<64xf32>
    %4 = memref.get_global @__constant_64xf32_2 : memref<64xf32>
    %alloc = memref.alloc() {alignment = 64 : i64} : memref<1x3x230x230xf32>
    affine.for %arg1 = 0 to 1 {
      affine.for %arg2 = 0 to 3 {
        affine.for %arg3 = 0 to 230 step 5 {
          %5 = FDRA.BlockLoad %alloc [0, %arg2, %arg3, 0] : memref<1x3x230x230xf32> -> memref<1x3x230x230xf32> {"forward_kernel_0"}
          FDRA.KernelCall @forward_kernel_0(%5) : (memref<1x3x230x230xf32>) -> ()
          FDRA.BlockStore %5,  %alloc [0, %arg2, %arg3, 0] : memref<1x3x230x230xf32> -> memref<1x3x230x230xf32> {"forward_kernel_0"}
        }
      }
    }
    memref.dealloc %alloc : memref<1x3x230x230xf32>
    %alloc_2 = memref.alloc() {alignment = 64 : i64} : memref<1x3x230x230xf32>
    memref.copy %alloc, %alloc_2 : memref<1x3x230x230xf32> to memref<1x3x230x230xf32>
    %subview = memref.subview %alloc_2[0, 0, 3, 3] [1, 3, 224, 224] [1, 1, 1, 1] : memref<1x3x230x230xf32> to memref<1x3x224x224xf32, strided<[158700, 52900, 230, 1], offset: 693>>
    memref.copy %arg0, %subview : memref<1x3x224x224xf32> to memref<1x3x224x224xf32, strided<[158700, 52900, 230, 1], offset: 693>>
    %alloc_3 = memref.alloc() {alignment = 64 : i64} : memref<1x64x112x112xf32>
    affine.for %arg1 = 0 to 1 {
      affine.for %arg2 = 0 to 64 {
        affine.for %arg3 = 0 to 112 step 16 {
          %5 = FDRA.BlockLoad %alloc_3 [0, %arg2, %arg3, 0] : memref<1x64x112x112xf32> -> memref<1x64x112x112xf32> {"forward_kernel_1"}
          FDRA.KernelCall @forward_kernel_1(%5) : (memref<1x64x112x112xf32>) -> ()
          FDRA.BlockStore %5,  %alloc_3 [0, %arg2, %arg3, 0] : memref<1x64x112x112xf32> -> memref<1x64x112x112xf32> {"forward_kernel_1"}
        }
      }
    }
    %alloc_4 = memref.alloc() {alignment = 64 : i64} : memref<1x64x112x112xf32>
    memref.copy %alloc_3, %alloc_4 : memref<1x64x112x112xf32> to memref<1x64x112x112xf32>
    memref.dealloc %alloc_3 : memref<1x64x112x112xf32>
    affine.for %arg1 = 0 to 1 {
      affine.for %arg2 = 0 to 64 {
        affine.for %arg3 = 0 to 112 {
          affine.for %arg4 = 0 to 112 step 8 {
            %5 = FDRA.BlockLoad %alloc_2 [0, 0, %arg3 * 2, %arg4 * 2] : memref<1x3x230x230xf32> -> memref<1x3x230x230xf32> {"forward_kernel_2"}
            %6 = FDRA.BlockLoad %0 [%arg2, 0, 0, 0] : memref<64x3x7x7xf32> -> memref<64x3x7x7xf32> {"forward_kernel_2"}
            %7 = FDRA.BlockLoad %alloc_4 [0, %arg2, %arg3, %arg4] : memref<1x64x112x112xf32> -> memref<1x64x112x112xf32> {"forward_kernel_2"}
            %8 = FDRA.BlockLoad %alloc_4 [0, %arg2, %arg3, %arg4] : memref<1x64x112x112xf32> -> memref<1x64x112x112xf32> {"forward_kernel_2"}
            FDRA.KernelCall @forward_kernel_2(%5, %6, %7, %8) : (memref<1x3x230x230xf32>, memref<64x3x7x7xf32>, memref<1x64x112x112xf32>, memref<1x64x112x112xf32>) -> ()
            FDRA.BlockStore %8,  %alloc_4 [0, %arg2, %arg3, %arg4] : memref<1x64x112x112xf32> -> memref<1x64x112x112xf32> {"forward_kernel_2"}
          }
        }
      }
    }
    %alloc_5 = memref.alloc() {alignment = 64 : i64} : memref<1x64x112x112xf32>
    affine.for %arg1 = 0 to 1 {
      affine.for %arg2 = 0 to 64 {
        affine.for %arg3 = 0 to 112 step 16 {
          %5 = FDRA.BlockLoad %alloc_4 [0, %arg2, %arg3, 0] : memref<1x64x112x112xf32> -> memref<1x64x112x112xf32> {"forward_kernel_3"}
          %6 = FDRA.BlockLoad %3 [%arg2] : memref<64xf32> -> memref<64xf32> {"forward_kernel_3"}
          %7 = FDRA.BlockLoad %4 [%arg2] : memref<64xf32> -> memref<64xf32> {"forward_kernel_3"}
          %8 = FDRA.BlockLoad %1 [%arg2] : memref<64xf32> -> memref<64xf32> {"forward_kernel_3"}
          %9 = FDRA.BlockLoad %2 [%arg2] : memref<64xf32> -> memref<64xf32> {"forward_kernel_3"}
          %10 = FDRA.BlockLoad %alloc_5 [0, %arg2, %arg3, 0] : memref<1x64x112x112xf32> -> memref<1x64x112x112xf32> {"forward_kernel_3"}
          FDRA.KernelCall @forward_kernel_3(%5, %6, %7, %8, %9, %10) : (memref<1x64x112x112xf32>, memref<64xf32>, memref<64xf32>, memref<64xf32>, memref<64xf32>, memref<1x64x112x112xf32>) -> ()
          FDRA.BlockStore %10,  %alloc_5 [0, %arg2, %arg3, 0] : memref<1x64x112x112xf32> -> memref<1x64x112x112xf32> {"forward_kernel_3"}
        }
      }
    }
    memref.dealloc %alloc_4 : memref<1x64x112x112xf32>
    %alloc_6 = memref.alloc() {alignment = 64 : i64} : memref<1x64x112x112xf32>
    affine.for %arg1 = 0 to 1 {
      affine.for %arg2 = 0 to 64 {
        affine.for %arg3 = 0 to 112 step 16 {
          %5 = FDRA.BlockLoad %alloc_5 [0, %arg2, %arg3, 0] : memref<1x64x112x112xf32> -> memref<1x64x112x112xf32> {"forward_kernel_4"}
          %6 = FDRA.BlockLoad %alloc_6 [0, %arg2, %arg3, 0] : memref<1x64x112x112xf32> -> memref<1x64x112x112xf32> {"forward_kernel_4"}
          FDRA.KernelCall @forward_kernel_4(%5, %6) : (memref<1x64x112x112xf32>, memref<1x64x112x112xf32>) -> ()
          FDRA.BlockStore %6,  %alloc_6 [0, %arg2, %arg3, 0] : memref<1x64x112x112xf32> -> memref<1x64x112x112xf32> {"forward_kernel_4"}
        }
      }
    }
    memref.dealloc %alloc_5 : memref<1x64x112x112xf32>
    memref.dealloc %alloc_6 : memref<1x64x112x112xf32>
    %alloc_7 = memref.alloc() {alignment = 64 : i64} : memref<1x64x114x114xf32>
    affine.for %arg1 = 0 to 1 {
      affine.for %arg2 = 0 to 64 {
        affine.for %arg3 = 0 to 114 step 6 {
          %5 = FDRA.BlockLoad %alloc_7 [0, %arg2, %arg3, 0] : memref<1x64x114x114xf32> -> memref<1x64x114x114xf32> {"forward_kernel_5"}
          FDRA.KernelCall @forward_kernel_5(%5) : (memref<1x64x114x114xf32>) -> ()
          FDRA.BlockStore %5,  %alloc_7 [0, %arg2, %arg3, 0] : memref<1x64x114x114xf32> -> memref<1x64x114x114xf32> {"forward_kernel_5"}
        }
      }
    }
    memref.dealloc %alloc_7 : memref<1x64x114x114xf32>
    %alloc_8 = memref.alloc() {alignment = 64 : i64} : memref<1x64x114x114xf32>
    memref.copy %alloc_7, %alloc_8 : memref<1x64x114x114xf32> to memref<1x64x114x114xf32>
    %subview_9 = memref.subview %alloc_8[0, 0, 1, 1] [1, 64, 112, 112] [1, 1, 1, 1] : memref<1x64x114x114xf32> to memref<1x64x112x112xf32, strided<[831744, 12996, 114, 1], offset: 115>>
    memref.copy %alloc_6, %subview_9 : memref<1x64x112x112xf32> to memref<1x64x112x112xf32, strided<[831744, 12996, 114, 1], offset: 115>>
    %alloc_10 = memref.alloc() {alignment = 64 : i64} : memref<1x64x56x56xf32>
    affine.for %arg1 = 0 to 1 {
      affine.for %arg2 = 0 to 64 {
        affine.for %arg3 = 0 to 56 step 28 {
          %5 = FDRA.BlockLoad %alloc_10 [0, %arg2, %arg3, 0] : memref<1x64x56x56xf32> -> memref<1x64x56x56xf32> {"forward_kernel_6"}
          FDRA.KernelCall @forward_kernel_6(%5) : (memref<1x64x56x56xf32>) -> ()
          FDRA.BlockStore %5,  %alloc_10 [0, %arg2, %arg3, 0] : memref<1x64x56x56xf32> -> memref<1x64x56x56xf32> {"forward_kernel_6"}
        }
      }
    }
    %alloc_11 = memref.alloc() {alignment = 64 : i64} : memref<1x64x56x56xf32>
    memref.copy %alloc_10, %alloc_11 : memref<1x64x56x56xf32> to memref<1x64x56x56xf32>
    memref.dealloc %alloc_10 : memref<1x64x56x56xf32>
    affine.for %arg1 = 0 to 1 {
      affine.for %arg2 = 0 to 64 {
        affine.for %arg3 = 0 to 56 step 4 {
          %5 = FDRA.BlockLoad %alloc_8 [0, %arg2, %arg3 * 2, 0] : memref<1x64x114x114xf32> -> memref<1x64x114x114xf32> {"forward_kernel_7"}
          %6 = FDRA.BlockLoad %alloc_11 [0, %arg2, %arg3, 0] : memref<1x64x56x56xf32> -> memref<1x64x56x56xf32> {"forward_kernel_7"}
          %7 = FDRA.BlockLoad %alloc_11 [0, %arg2, %arg3, 0] : memref<1x64x56x56xf32> -> memref<1x64x56x56xf32> {"forward_kernel_7"}
          FDRA.KernelCall @forward_kernel_7(%5, %6, %7) : (memref<1x64x114x114xf32>, memref<1x64x56x56xf32>, memref<1x64x56x56xf32>) -> ()
          FDRA.BlockStore %7,  %alloc_11 [0, %arg2, %arg3, 0] : memref<1x64x56x56xf32> -> memref<1x64x56x56xf32> {"forward_kernel_7"}
        }
      }
    }
    memref.dealloc %alloc_11 : memref<1x64x56x56xf32>
    return %alloc_11 : memref<1x64x56x56xf32>
  }
  func.func @forward_kernel_0(%arg0: memref<1x3x230x230xf32>) attributes {Kernel, forward_kernel_0} {
    cf.br ^bb1
  ^bb1:  // pred: ^bb0
    %cst = arith.constant 0.000000e+00 : f32
    affine.for %arg1 = 0 to 5 {
      affine.for %arg2 = 0 to 230 {
        affine.store %cst, %arg0[0, 0, %arg1, %arg2] : memref<1x3x230x230xf32>
      }
    }
    return
  }
  func.func @forward_kernel_1(%arg0: memref<1x64x112x112xf32>) attributes {Kernel, forward_kernel_1} {
    cf.br ^bb1
  ^bb1:  // pred: ^bb0
    %cst = arith.constant 0.000000e+00 : f32
    affine.for %arg1 = 0 to 16 {
      affine.for %arg2 = 0 to 112 {
        affine.store %cst, %arg0[0, 0, %arg1, %arg2] : memref<1x64x112x112xf32>
      }
    }
    return
  }
  func.func @forward_kernel_2(%arg0: memref<1x3x230x230xf32>, %arg1: memref<64x3x7x7xf32>, %arg2: memref<1x64x112x112xf32>, %arg3: memref<1x64x112x112xf32>) attributes {Kernel, forward_kernel_2} {
    cf.br ^bb1
  ^bb1:  // pred: ^bb0
    affine.for %arg4 = 0 to 8 {
      affine.for %arg5 = 0 to 3 {
        affine.for %arg6 = 0 to 7 {
          affine.for %arg7 = 0 to 7 {
            %0 = affine.load %arg0[0, %arg5, %arg6, %arg4 * 2 + %arg7] : memref<1x3x230x230xf32>
            %1 = affine.load %arg1[0, %arg5, %arg6, %arg7] : memref<64x3x7x7xf32>
            %2 = affine.load %arg2[0, 0, 0, %arg4] : memref<1x64x112x112xf32>
            %3 = arith.mulf %0, %1 : f32
            %4 = arith.addf %2, %3 : f32
            affine.store %4, %arg3[0, 0, 0, %arg4] : memref<1x64x112x112xf32>
          }
        }
      }
    }
    return
  }
  func.func @forward_kernel_3(%arg0: memref<1x64x112x112xf32>, %arg1: memref<64xf32>, %arg2: memref<64xf32>, %arg3: memref<64xf32>, %arg4: memref<64xf32>, %arg5: memref<1x64x112x112xf32>) attributes {Kernel, forward_kernel_3} {
    cf.br ^bb1
  ^bb1:  // pred: ^bb0
    %cst = arith.constant 1.000000e-05 : f64
    affine.for %arg6 = 0 to 16 {
      affine.for %arg7 = 0 to 112 {
        %0 = affine.load %arg0[0, 0, %arg6, %arg7] : memref<1x64x112x112xf32>
        %1 = affine.load %arg1[0] : memref<64xf32>
        %2 = affine.load %arg2[0] : memref<64xf32>
        %3 = affine.load %arg3[0] : memref<64xf32>
        %4 = affine.load %arg4[0] : memref<64xf32>
        %5 = arith.truncf %cst : f64 to f32
        %6 = arith.addf %4, %5 : f32
        %cst_0 = arith.constant 5.000000e-01 : f32
        %7 = arith.mulf %6, %cst_0 : f32
        %8 = arith.bitcast %6 : f32 to i32
        %c1_i32 = arith.constant 1 : i32
        %9 = arith.shrui %8, %c1_i32 : i32
        %c1597463007_i32 = arith.constant 1597463007 : i32
        %10 = arith.subi %c1597463007_i32, %9 : i32
        %11 = arith.bitcast %10 : i32 to f32
        %cst_1 = arith.constant 1.500000e+00 : f32
        %12 = arith.mulf %11, %11 : f32
        %13 = arith.mulf %12, %7 : f32
        %14 = arith.subf %cst_1, %13 : f32
        %15 = arith.mulf %14, %12 : f32
        %16 = arith.subf %0, %3 : f32
        %17 = arith.mulf %16, %15 : f32
        %18 = arith.mulf %17, %1 : f32
        %19 = arith.addf %18, %2 : f32
        affine.store %19, %arg5[0, 0, %arg6, %arg7] : memref<1x64x112x112xf32>
      }
    }
    return
  }
  func.func @forward_kernel_4(%arg0: memref<1x64x112x112xf32>, %arg1: memref<1x64x112x112xf32>) attributes {Kernel, forward_kernel_4} {
    cf.br ^bb1
  ^bb1:  // pred: ^bb0
    %cst = arith.constant 0.000000e+00 : f32
    affine.for %arg2 = 0 to 16 {
      affine.for %arg3 = 0 to 112 {
        %0 = affine.load %arg0[0, 0, %arg2, %arg3] : memref<1x64x112x112xf32>
        %1 = arith.cmpf ugt, %0, %cst : f32
        %2 = arith.select %1, %0, %cst : f32
        affine.store %2, %arg1[0, 0, %arg2, %arg3] : memref<1x64x112x112xf32>
      }
    }
    return
  }
  func.func @forward_kernel_5(%arg0: memref<1x64x114x114xf32>) attributes {Kernel, forward_kernel_5} {
    cf.br ^bb1
  ^bb1:  // pred: ^bb0
    %cst = arith.constant 0xFF800000 : f32
    affine.for %arg1 = 0 to 6 {
      affine.for %arg2 = 0 to 114 {
        affine.store %cst, %arg0[0, 0, %arg1, %arg2] : memref<1x64x114x114xf32>
      }
    }
    return
  }
  func.func @forward_kernel_6(%arg0: memref<1x64x56x56xf32>) attributes {Kernel, forward_kernel_6} {
    cf.br ^bb1
  ^bb1:  // pred: ^bb0
    %cst = arith.constant 0xFF800000 : f32
    affine.for %arg1 = 0 to 28 {
      affine.for %arg2 = 0 to 56 {
        affine.store %cst, %arg0[0, 0, %arg1, %arg2] : memref<1x64x56x56xf32>
      }
    }
    return
  }
  func.func @forward_kernel_7(%arg0: memref<1x64x114x114xf32>, %arg1: memref<1x64x56x56xf32>, %arg2: memref<1x64x56x56xf32>) attributes {Kernel, forward_kernel_7} {
    cf.br ^bb1
  ^bb1:  // pred: ^bb0
    affine.for %arg3 = 0 to 4 {
      affine.for %arg4 = 0 to 56 {
        affine.for %arg5 = 0 to 3 {
          affine.for %arg6 = 0 to 3 {
            %0 = affine.load %arg0[0, 0, %arg3 * 2 + %arg5, %arg4 * 2 + %arg6] : memref<1x64x114x114xf32>
            %1 = affine.load %arg1[0, 0, %arg3, %arg4] : memref<1x64x56x56xf32>
            %2 = arith.cmpf ugt, %1, %0 : f32
            %3 = arith.select %2, %1, %0 : f32
            %4 = arith.cmpf uno, %0, %0 : f32
            %5 = arith.select %4, %0, %3 : f32
            affine.store %5, %arg2[0, 0, %arg3, %arg4] : memref<1x64x56x56xf32>
          }
        }
      }
    }
    return
  }
}


// -----// IR Dump After ExpandOps (memref-expand) //----- //
module attributes {torch.debug_module_name = "ResNet"} {
  memref.global "private" constant @__constant_64xf32_2 : memref<64xf32> = dense<[… >
  memref.global "private" constant @__constant_64xf32_1 : memref<64xf32> = dense<[… >
  memref.global "private" constant @__constant_64xf32_0 : memref<64xf32> = dense<[… >
  memref.global "private" constant @__constant_64xf32 : memref<64xf32> = dense<[… >
  memref.global "private" constant @__constant_64x3x7x7xf32 : memref<64x3x7x7xf32> = dense<"…">
  ml_program.global private mutable @global_seed(dense<0> : tensor<i64>) : tensor<i64>
  func.func @forward(%arg0: memref<1x3x224x224xf32>) -> memref<1x64x56x56xf32> {
    %cst = arith.constant 1.000000e-05 : f64
    %cst_0 = arith.constant 0xFF800000 : f32
    %cst_1 = arith.constant 0.000000e+00 : f32
    %0 = memref.get_global @__constant_64x3x7x7xf32 : memref<64x3x7x7xf32>
    %1 = memref.get_global @__constant_64xf32 : memref<64xf32>
    %2 = memref.get_global @__constant_64xf32_0 : memref<64xf32>
    %3 = memref.get_global @__constant_64xf32_1 : memref<64xf32>
    %4 = memref.get_global @__constant_64xf32_2 : memref<64xf32>
    %alloc = memref.alloc() {alignment = 64 : i64} : memref<1x3x230x230xf32>
    affine.for %arg1 = 0 to 1 {
      affine.for %arg2 = 0 to 3 {
        affine.for %arg3 = 0 to 230 step 5 {
          %5 = FDRA.BlockLoad %alloc [0, %arg2, %arg3, 0] : memref<1x3x230x230xf32> -> memref<1x3x230x230xf32> {"forward_kernel_0"}
          FDRA.KernelCall @forward_kernel_0(%5) : (memref<1x3x230x230xf32>) -> ()
          FDRA.BlockStore %5,  %alloc [0, %arg2, %arg3, 0] : memref<1x3x230x230xf32> -> memref<1x3x230x230xf32> {"forward_kernel_0"}
        }
      }
    }
    memref.dealloc %alloc : memref<1x3x230x230xf32>
    %alloc_2 = memref.alloc() {alignment = 64 : i64} : memref<1x3x230x230xf32>
    memref.copy %alloc, %alloc_2 : memref<1x3x230x230xf32> to memref<1x3x230x230xf32>
    %subview = memref.subview %alloc_2[0, 0, 3, 3] [1, 3, 224, 224] [1, 1, 1, 1] : memref<1x3x230x230xf32> to memref<1x3x224x224xf32, strided<[158700, 52900, 230, 1], offset: 693>>
    memref.copy %arg0, %subview : memref<1x3x224x224xf32> to memref<1x3x224x224xf32, strided<[158700, 52900, 230, 1], offset: 693>>
    %alloc_3 = memref.alloc() {alignment = 64 : i64} : memref<1x64x112x112xf32>
    affine.for %arg1 = 0 to 1 {
      affine.for %arg2 = 0 to 64 {
        affine.for %arg3 = 0 to 112 step 16 {
          %5 = FDRA.BlockLoad %alloc_3 [0, %arg2, %arg3, 0] : memref<1x64x112x112xf32> -> memref<1x64x112x112xf32> {"forward_kernel_1"}
          FDRA.KernelCall @forward_kernel_1(%5) : (memref<1x64x112x112xf32>) -> ()
          FDRA.BlockStore %5,  %alloc_3 [0, %arg2, %arg3, 0] : memref<1x64x112x112xf32> -> memref<1x64x112x112xf32> {"forward_kernel_1"}
        }
      }
    }
    %alloc_4 = memref.alloc() {alignment = 64 : i64} : memref<1x64x112x112xf32>
    memref.copy %alloc_3, %alloc_4 : memref<1x64x112x112xf32> to memref<1x64x112x112xf32>
    memref.dealloc %alloc_3 : memref<1x64x112x112xf32>
    affine.for %arg1 = 0 to 1 {
      affine.for %arg2 = 0 to 64 {
        affine.for %arg3 = 0 to 112 {
          affine.for %arg4 = 0 to 112 step 8 {
            %5 = FDRA.BlockLoad %alloc_2 [0, 0, %arg3 * 2, %arg4 * 2] : memref<1x3x230x230xf32> -> memref<1x3x230x230xf32> {"forward_kernel_2"}
            %6 = FDRA.BlockLoad %0 [%arg2, 0, 0, 0] : memref<64x3x7x7xf32> -> memref<64x3x7x7xf32> {"forward_kernel_2"}
            %7 = FDRA.BlockLoad %alloc_4 [0, %arg2, %arg3, %arg4] : memref<1x64x112x112xf32> -> memref<1x64x112x112xf32> {"forward_kernel_2"}
            %8 = FDRA.BlockLoad %alloc_4 [0, %arg2, %arg3, %arg4] : memref<1x64x112x112xf32> -> memref<1x64x112x112xf32> {"forward_kernel_2"}
            FDRA.KernelCall @forward_kernel_2(%5, %6, %7, %8) : (memref<1x3x230x230xf32>, memref<64x3x7x7xf32>, memref<1x64x112x112xf32>, memref<1x64x112x112xf32>) -> ()
            FDRA.BlockStore %8,  %alloc_4 [0, %arg2, %arg3, %arg4] : memref<1x64x112x112xf32> -> memref<1x64x112x112xf32> {"forward_kernel_2"}
          }
        }
      }
    }
    %alloc_5 = memref.alloc() {alignment = 64 : i64} : memref<1x64x112x112xf32>
    affine.for %arg1 = 0 to 1 {
      affine.for %arg2 = 0 to 64 {
        affine.for %arg3 = 0 to 112 step 16 {
          %5 = FDRA.BlockLoad %alloc_4 [0, %arg2, %arg3, 0] : memref<1x64x112x112xf32> -> memref<1x64x112x112xf32> {"forward_kernel_3"}
          %6 = FDRA.BlockLoad %3 [%arg2] : memref<64xf32> -> memref<64xf32> {"forward_kernel_3"}
          %7 = FDRA.BlockLoad %4 [%arg2] : memref<64xf32> -> memref<64xf32> {"forward_kernel_3"}
          %8 = FDRA.BlockLoad %1 [%arg2] : memref<64xf32> -> memref<64xf32> {"forward_kernel_3"}
          %9 = FDRA.BlockLoad %2 [%arg2] : memref<64xf32> -> memref<64xf32> {"forward_kernel_3"}
          %10 = FDRA.BlockLoad %alloc_5 [0, %arg2, %arg3, 0] : memref<1x64x112x112xf32> -> memref<1x64x112x112xf32> {"forward_kernel_3"}
          FDRA.KernelCall @forward_kernel_3(%5, %6, %7, %8, %9, %10) : (memref<1x64x112x112xf32>, memref<64xf32>, memref<64xf32>, memref<64xf32>, memref<64xf32>, memref<1x64x112x112xf32>) -> ()
          FDRA.BlockStore %10,  %alloc_5 [0, %arg2, %arg3, 0] : memref<1x64x112x112xf32> -> memref<1x64x112x112xf32> {"forward_kernel_3"}
        }
      }
    }
    memref.dealloc %alloc_4 : memref<1x64x112x112xf32>
    %alloc_6 = memref.alloc() {alignment = 64 : i64} : memref<1x64x112x112xf32>
    affine.for %arg1 = 0 to 1 {
      affine.for %arg2 = 0 to 64 {
        affine.for %arg3 = 0 to 112 step 16 {
          %5 = FDRA.BlockLoad %alloc_5 [0, %arg2, %arg3, 0] : memref<1x64x112x112xf32> -> memref<1x64x112x112xf32> {"forward_kernel_4"}
          %6 = FDRA.BlockLoad %alloc_6 [0, %arg2, %arg3, 0] : memref<1x64x112x112xf32> -> memref<1x64x112x112xf32> {"forward_kernel_4"}
          FDRA.KernelCall @forward_kernel_4(%5, %6) : (memref<1x64x112x112xf32>, memref<1x64x112x112xf32>) -> ()
          FDRA.BlockStore %6,  %alloc_6 [0, %arg2, %arg3, 0] : memref<1x64x112x112xf32> -> memref<1x64x112x112xf32> {"forward_kernel_4"}
        }
      }
    }
    memref.dealloc %alloc_5 : memref<1x64x112x112xf32>
    memref.dealloc %alloc_6 : memref<1x64x112x112xf32>
    %alloc_7 = memref.alloc() {alignment = 64 : i64} : memref<1x64x114x114xf32>
    affine.for %arg1 = 0 to 1 {
      affine.for %arg2 = 0 to 64 {
        affine.for %arg3 = 0 to 114 step 6 {
          %5 = FDRA.BlockLoad %alloc_7 [0, %arg2, %arg3, 0] : memref<1x64x114x114xf32> -> memref<1x64x114x114xf32> {"forward_kernel_5"}
          FDRA.KernelCall @forward_kernel_5(%5) : (memref<1x64x114x114xf32>) -> ()
          FDRA.BlockStore %5,  %alloc_7 [0, %arg2, %arg3, 0] : memref<1x64x114x114xf32> -> memref<1x64x114x114xf32> {"forward_kernel_5"}
        }
      }
    }
    memref.dealloc %alloc_7 : memref<1x64x114x114xf32>
    %alloc_8 = memref.alloc() {alignment = 64 : i64} : memref<1x64x114x114xf32>
    memref.copy %alloc_7, %alloc_8 : memref<1x64x114x114xf32> to memref<1x64x114x114xf32>
    %subview_9 = memref.subview %alloc_8[0, 0, 1, 1] [1, 64, 112, 112] [1, 1, 1, 1] : memref<1x64x114x114xf32> to memref<1x64x112x112xf32, strided<[831744, 12996, 114, 1], offset: 115>>
    memref.copy %alloc_6, %subview_9 : memref<1x64x112x112xf32> to memref<1x64x112x112xf32, strided<[831744, 12996, 114, 1], offset: 115>>
    %alloc_10 = memref.alloc() {alignment = 64 : i64} : memref<1x64x56x56xf32>
    affine.for %arg1 = 0 to 1 {
      affine.for %arg2 = 0 to 64 {
        affine.for %arg3 = 0 to 56 step 28 {
          %5 = FDRA.BlockLoad %alloc_10 [0, %arg2, %arg3, 0] : memref<1x64x56x56xf32> -> memref<1x64x56x56xf32> {"forward_kernel_6"}
          FDRA.KernelCall @forward_kernel_6(%5) : (memref<1x64x56x56xf32>) -> ()
          FDRA.BlockStore %5,  %alloc_10 [0, %arg2, %arg3, 0] : memref<1x64x56x56xf32> -> memref<1x64x56x56xf32> {"forward_kernel_6"}
        }
      }
    }
    %alloc_11 = memref.alloc() {alignment = 64 : i64} : memref<1x64x56x56xf32>
    memref.copy %alloc_10, %alloc_11 : memref<1x64x56x56xf32> to memref<1x64x56x56xf32>
    memref.dealloc %alloc_10 : memref<1x64x56x56xf32>
    affine.for %arg1 = 0 to 1 {
      affine.for %arg2 = 0 to 64 {
        affine.for %arg3 = 0 to 56 step 4 {
          %5 = FDRA.BlockLoad %alloc_8 [0, %arg2, %arg3 * 2, 0] : memref<1x64x114x114xf32> -> memref<1x64x114x114xf32> {"forward_kernel_7"}
          %6 = FDRA.BlockLoad %alloc_11 [0, %arg2, %arg3, 0] : memref<1x64x56x56xf32> -> memref<1x64x56x56xf32> {"forward_kernel_7"}
          %7 = FDRA.BlockLoad %alloc_11 [0, %arg2, %arg3, 0] : memref<1x64x56x56xf32> -> memref<1x64x56x56xf32> {"forward_kernel_7"}
          FDRA.KernelCall @forward_kernel_7(%5, %6, %7) : (memref<1x64x114x114xf32>, memref<1x64x56x56xf32>, memref<1x64x56x56xf32>) -> ()
          FDRA.BlockStore %7,  %alloc_11 [0, %arg2, %arg3, 0] : memref<1x64x56x56xf32> -> memref<1x64x56x56xf32> {"forward_kernel_7"}
        }
      }
    }
    memref.dealloc %alloc_11 : memref<1x64x56x56xf32>
    return %alloc_11 : memref<1x64x56x56xf32>
  }
  func.func @forward_kernel_0(%arg0: memref<1x3x230x230xf32>) attributes {Kernel, forward_kernel_0} {
    cf.br ^bb1
  ^bb1:  // pred: ^bb0
    %cst = arith.constant 0.000000e+00 : f32
    affine.for %arg1 = 0 to 5 {
      affine.for %arg2 = 0 to 230 {
        affine.store %cst, %arg0[0, 0, %arg1, %arg2] : memref<1x3x230x230xf32>
      }
    }
    return
  }
  func.func @forward_kernel_1(%arg0: memref<1x64x112x112xf32>) attributes {Kernel, forward_kernel_1} {
    cf.br ^bb1
  ^bb1:  // pred: ^bb0
    %cst = arith.constant 0.000000e+00 : f32
    affine.for %arg1 = 0 to 16 {
      affine.for %arg2 = 0 to 112 {
        affine.store %cst, %arg0[0, 0, %arg1, %arg2] : memref<1x64x112x112xf32>
      }
    }
    return
  }
  func.func @forward_kernel_2(%arg0: memref<1x3x230x230xf32>, %arg1: memref<64x3x7x7xf32>, %arg2: memref<1x64x112x112xf32>, %arg3: memref<1x64x112x112xf32>) attributes {Kernel, forward_kernel_2} {
    cf.br ^bb1
  ^bb1:  // pred: ^bb0
    affine.for %arg4 = 0 to 8 {
      affine.for %arg5 = 0 to 3 {
        affine.for %arg6 = 0 to 7 {
          affine.for %arg7 = 0 to 7 {
            %0 = affine.load %arg0[0, %arg5, %arg6, %arg4 * 2 + %arg7] : memref<1x3x230x230xf32>
            %1 = affine.load %arg1[0, %arg5, %arg6, %arg7] : memref<64x3x7x7xf32>
            %2 = affine.load %arg2[0, 0, 0, %arg4] : memref<1x64x112x112xf32>
            %3 = arith.mulf %0, %1 : f32
            %4 = arith.addf %2, %3 : f32
            affine.store %4, %arg3[0, 0, 0, %arg4] : memref<1x64x112x112xf32>
          }
        }
      }
    }
    return
  }
  func.func @forward_kernel_3(%arg0: memref<1x64x112x112xf32>, %arg1: memref<64xf32>, %arg2: memref<64xf32>, %arg3: memref<64xf32>, %arg4: memref<64xf32>, %arg5: memref<1x64x112x112xf32>) attributes {Kernel, forward_kernel_3} {
    cf.br ^bb1
  ^bb1:  // pred: ^bb0
    %cst = arith.constant 1.000000e-05 : f64
    affine.for %arg6 = 0 to 16 {
      affine.for %arg7 = 0 to 112 {
        %0 = affine.load %arg0[0, 0, %arg6, %arg7] : memref<1x64x112x112xf32>
        %1 = affine.load %arg1[0] : memref<64xf32>
        %2 = affine.load %arg2[0] : memref<64xf32>
        %3 = affine.load %arg3[0] : memref<64xf32>
        %4 = affine.load %arg4[0] : memref<64xf32>
        %5 = arith.truncf %cst : f64 to f32
        %6 = arith.addf %4, %5 : f32
        %cst_0 = arith.constant 5.000000e-01 : f32
        %7 = arith.mulf %6, %cst_0 : f32
        %8 = arith.bitcast %6 : f32 to i32
        %c1_i32 = arith.constant 1 : i32
        %9 = arith.shrui %8, %c1_i32 : i32
        %c1597463007_i32 = arith.constant 1597463007 : i32
        %10 = arith.subi %c1597463007_i32, %9 : i32
        %11 = arith.bitcast %10 : i32 to f32
        %cst_1 = arith.constant 1.500000e+00 : f32
        %12 = arith.mulf %11, %11 : f32
        %13 = arith.mulf %12, %7 : f32
        %14 = arith.subf %cst_1, %13 : f32
        %15 = arith.mulf %14, %12 : f32
        %16 = arith.subf %0, %3 : f32
        %17 = arith.mulf %16, %15 : f32
        %18 = arith.mulf %17, %1 : f32
        %19 = arith.addf %18, %2 : f32
        affine.store %19, %arg5[0, 0, %arg6, %arg7] : memref<1x64x112x112xf32>
      }
    }
    return
  }
  func.func @forward_kernel_4(%arg0: memref<1x64x112x112xf32>, %arg1: memref<1x64x112x112xf32>) attributes {Kernel, forward_kernel_4} {
    cf.br ^bb1
  ^bb1:  // pred: ^bb0
    %cst = arith.constant 0.000000e+00 : f32
    affine.for %arg2 = 0 to 16 {
      affine.for %arg3 = 0 to 112 {
        %0 = affine.load %arg0[0, 0, %arg2, %arg3] : memref<1x64x112x112xf32>
        %1 = arith.cmpf ugt, %0, %cst : f32
        %2 = arith.select %1, %0, %cst : f32
        affine.store %2, %arg1[0, 0, %arg2, %arg3] : memref<1x64x112x112xf32>
      }
    }
    return
  }
  func.func @forward_kernel_5(%arg0: memref<1x64x114x114xf32>) attributes {Kernel, forward_kernel_5} {
    cf.br ^bb1
  ^bb1:  // pred: ^bb0
    %cst = arith.constant 0xFF800000 : f32
    affine.for %arg1 = 0 to 6 {
      affine.for %arg2 = 0 to 114 {
        affine.store %cst, %arg0[0, 0, %arg1, %arg2] : memref<1x64x114x114xf32>
      }
    }
    return
  }
  func.func @forward_kernel_6(%arg0: memref<1x64x56x56xf32>) attributes {Kernel, forward_kernel_6} {
    cf.br ^bb1
  ^bb1:  // pred: ^bb0
    %cst = arith.constant 0xFF800000 : f32
    affine.for %arg1 = 0 to 28 {
      affine.for %arg2 = 0 to 56 {
        affine.store %cst, %arg0[0, 0, %arg1, %arg2] : memref<1x64x56x56xf32>
      }
    }
    return
  }
  func.func @forward_kernel_7(%arg0: memref<1x64x114x114xf32>, %arg1: memref<1x64x56x56xf32>, %arg2: memref<1x64x56x56xf32>) attributes {Kernel, forward_kernel_7} {
    cf.br ^bb1
  ^bb1:  // pred: ^bb0
    affine.for %arg3 = 0 to 4 {
      affine.for %arg4 = 0 to 56 {
        affine.for %arg5 = 0 to 3 {
          affine.for %arg6 = 0 to 3 {
            %0 = affine.load %arg0[0, 0, %arg3 * 2 + %arg5, %arg4 * 2 + %arg6] : memref<1x64x114x114xf32>
            %1 = affine.load %arg1[0, 0, %arg3, %arg4] : memref<1x64x56x56xf32>
            %2 = arith.cmpf ugt, %1, %0 : f32
            %3 = arith.select %2, %1, %0 : f32
            %4 = arith.cmpf uno, %0, %0 : f32
            %5 = arith.select %4, %0, %3 : f32
            affine.store %5, %arg2[0, 0, %arg3, %arg4] : memref<1x64x56x56xf32>
          }
        }
      }
    }
    return
  }
}


// -----// IR Dump After NormalizeMemRefs (normalize-memrefs) //----- //
module attributes {torch.debug_module_name = "ResNet"} {
  memref.global "private" constant @__constant_64xf32_2 : memref<64xf32> = dense<[… >
  memref.global "private" constant @__constant_64xf32_1 : memref<64xf32> = dense<[… >
  memref.global "private" constant @__constant_64xf32_0 : memref<64xf32> = dense<[… >
  memref.global "private" constant @__constant_64xf32 : memref<64xf32> = dense<[… >
  memref.global "private" constant @__constant_64x3x7x7xf32 : memref<64x3x7x7xf32> = dense<"…">
  ml_program.global private mutable @global_seed(dense<0> : tensor<i64>) : tensor<i64>
  func.func @forward(%arg0: memref<1x3x224x224xf32>) -> memref<1x64x56x56xf32> {
    %cst = arith.constant 1.000000e-05 : f64
    %cst_0 = arith.constant 0xFF800000 : f32
    %cst_1 = arith.constant 0.000000e+00 : f32
    %0 = memref.get_global @__constant_64x3x7x7xf32 : memref<64x3x7x7xf32>
    %1 = memref.get_global @__constant_64xf32 : memref<64xf32>
    %2 = memref.get_global @__constant_64xf32_0 : memref<64xf32>
    %3 = memref.get_global @__constant_64xf32_1 : memref<64xf32>
    %4 = memref.get_global @__constant_64xf32_2 : memref<64xf32>
    %alloc = memref.alloc() {alignment = 64 : i64} : memref<1x3x230x230xf32>
    affine.for %arg1 = 0 to 1 {
      affine.for %arg2 = 0 to 3 {
        affine.for %arg3 = 0 to 230 step 5 {
          %5 = FDRA.BlockLoad %alloc [0, %arg2, %arg3, 0] : memref<1x3x230x230xf32> -> memref<1x3x230x230xf32> {"forward_kernel_0"}
          FDRA.KernelCall @forward_kernel_0(%5) : (memref<1x3x230x230xf32>) -> ()
          FDRA.BlockStore %5,  %alloc [0, %arg2, %arg3, 0] : memref<1x3x230x230xf32> -> memref<1x3x230x230xf32> {"forward_kernel_0"}
        }
      }
    }
    memref.dealloc %alloc : memref<1x3x230x230xf32>
    %alloc_2 = memref.alloc() {alignment = 64 : i64} : memref<1x3x230x230xf32>
    memref.copy %alloc, %alloc_2 : memref<1x3x230x230xf32> to memref<1x3x230x230xf32>
    %subview = memref.subview %alloc_2[0, 0, 3, 3] [1, 3, 224, 224] [1, 1, 1, 1] : memref<1x3x230x230xf32> to memref<1x3x224x224xf32, strided<[158700, 52900, 230, 1], offset: 693>>
    memref.copy %arg0, %subview : memref<1x3x224x224xf32> to memref<1x3x224x224xf32, strided<[158700, 52900, 230, 1], offset: 693>>
    %alloc_3 = memref.alloc() {alignment = 64 : i64} : memref<1x64x112x112xf32>
    affine.for %arg1 = 0 to 1 {
      affine.for %arg2 = 0 to 64 {
        affine.for %arg3 = 0 to 112 step 16 {
          %5 = FDRA.BlockLoad %alloc_3 [0, %arg2, %arg3, 0] : memref<1x64x112x112xf32> -> memref<1x64x112x112xf32> {"forward_kernel_1"}
          FDRA.KernelCall @forward_kernel_1(%5) : (memref<1x64x112x112xf32>) -> ()
          FDRA.BlockStore %5,  %alloc_3 [0, %arg2, %arg3, 0] : memref<1x64x112x112xf32> -> memref<1x64x112x112xf32> {"forward_kernel_1"}
        }
      }
    }
    %alloc_4 = memref.alloc() {alignment = 64 : i64} : memref<1x64x112x112xf32>
    memref.copy %alloc_3, %alloc_4 : memref<1x64x112x112xf32> to memref<1x64x112x112xf32>
    memref.dealloc %alloc_3 : memref<1x64x112x112xf32>
    affine.for %arg1 = 0 to 1 {
      affine.for %arg2 = 0 to 64 {
        affine.for %arg3 = 0 to 112 {
          affine.for %arg4 = 0 to 112 step 8 {
            %5 = FDRA.BlockLoad %alloc_2 [0, 0, %arg3 * 2, %arg4 * 2] : memref<1x3x230x230xf32> -> memref<1x3x230x230xf32> {"forward_kernel_2"}
            %6 = FDRA.BlockLoad %0 [%arg2, 0, 0, 0] : memref<64x3x7x7xf32> -> memref<64x3x7x7xf32> {"forward_kernel_2"}
            %7 = FDRA.BlockLoad %alloc_4 [0, %arg2, %arg3, %arg4] : memref<1x64x112x112xf32> -> memref<1x64x112x112xf32> {"forward_kernel_2"}
            %8 = FDRA.BlockLoad %alloc_4 [0, %arg2, %arg3, %arg4] : memref<1x64x112x112xf32> -> memref<1x64x112x112xf32> {"forward_kernel_2"}
            FDRA.KernelCall @forward_kernel_2(%5, %6, %7, %8) : (memref<1x3x230x230xf32>, memref<64x3x7x7xf32>, memref<1x64x112x112xf32>, memref<1x64x112x112xf32>) -> ()
            FDRA.BlockStore %8,  %alloc_4 [0, %arg2, %arg3, %arg4] : memref<1x64x112x112xf32> -> memref<1x64x112x112xf32> {"forward_kernel_2"}
          }
        }
      }
    }
    %alloc_5 = memref.alloc() {alignment = 64 : i64} : memref<1x64x112x112xf32>
    affine.for %arg1 = 0 to 1 {
      affine.for %arg2 = 0 to 64 {
        affine.for %arg3 = 0 to 112 step 16 {
          %5 = FDRA.BlockLoad %alloc_4 [0, %arg2, %arg3, 0] : memref<1x64x112x112xf32> -> memref<1x64x112x112xf32> {"forward_kernel_3"}
          %6 = FDRA.BlockLoad %3 [%arg2] : memref<64xf32> -> memref<64xf32> {"forward_kernel_3"}
          %7 = FDRA.BlockLoad %4 [%arg2] : memref<64xf32> -> memref<64xf32> {"forward_kernel_3"}
          %8 = FDRA.BlockLoad %1 [%arg2] : memref<64xf32> -> memref<64xf32> {"forward_kernel_3"}
          %9 = FDRA.BlockLoad %2 [%arg2] : memref<64xf32> -> memref<64xf32> {"forward_kernel_3"}
          %10 = FDRA.BlockLoad %alloc_5 [0, %arg2, %arg3, 0] : memref<1x64x112x112xf32> -> memref<1x64x112x112xf32> {"forward_kernel_3"}
          FDRA.KernelCall @forward_kernel_3(%5, %6, %7, %8, %9, %10) : (memref<1x64x112x112xf32>, memref<64xf32>, memref<64xf32>, memref<64xf32>, memref<64xf32>, memref<1x64x112x112xf32>) -> ()
          FDRA.BlockStore %10,  %alloc_5 [0, %arg2, %arg3, 0] : memref<1x64x112x112xf32> -> memref<1x64x112x112xf32> {"forward_kernel_3"}
        }
      }
    }
    memref.dealloc %alloc_4 : memref<1x64x112x112xf32>
    %alloc_6 = memref.alloc() {alignment = 64 : i64} : memref<1x64x112x112xf32>
    affine.for %arg1 = 0 to 1 {
      affine.for %arg2 = 0 to 64 {
        affine.for %arg3 = 0 to 112 step 16 {
          %5 = FDRA.BlockLoad %alloc_5 [0, %arg2, %arg3, 0] : memref<1x64x112x112xf32> -> memref<1x64x112x112xf32> {"forward_kernel_4"}
          %6 = FDRA.BlockLoad %alloc_6 [0, %arg2, %arg3, 0] : memref<1x64x112x112xf32> -> memref<1x64x112x112xf32> {"forward_kernel_4"}
          FDRA.KernelCall @forward_kernel_4(%5, %6) : (memref<1x64x112x112xf32>, memref<1x64x112x112xf32>) -> ()
          FDRA.BlockStore %6,  %alloc_6 [0, %arg2, %arg3, 0] : memref<1x64x112x112xf32> -> memref<1x64x112x112xf32> {"forward_kernel_4"}
        }
      }
    }
    memref.dealloc %alloc_5 : memref<1x64x112x112xf32>
    memref.dealloc %alloc_6 : memref<1x64x112x112xf32>
    %alloc_7 = memref.alloc() {alignment = 64 : i64} : memref<1x64x114x114xf32>
    affine.for %arg1 = 0 to 1 {
      affine.for %arg2 = 0 to 64 {
        affine.for %arg3 = 0 to 114 step 6 {
          %5 = FDRA.BlockLoad %alloc_7 [0, %arg2, %arg3, 0] : memref<1x64x114x114xf32> -> memref<1x64x114x114xf32> {"forward_kernel_5"}
          FDRA.KernelCall @forward_kernel_5(%5) : (memref<1x64x114x114xf32>) -> ()
          FDRA.BlockStore %5,  %alloc_7 [0, %arg2, %arg3, 0] : memref<1x64x114x114xf32> -> memref<1x64x114x114xf32> {"forward_kernel_5"}
        }
      }
    }
    memref.dealloc %alloc_7 : memref<1x64x114x114xf32>
    %alloc_8 = memref.alloc() {alignment = 64 : i64} : memref<1x64x114x114xf32>
    memref.copy %alloc_7, %alloc_8 : memref<1x64x114x114xf32> to memref<1x64x114x114xf32>
    %subview_9 = memref.subview %alloc_8[0, 0, 1, 1] [1, 64, 112, 112] [1, 1, 1, 1] : memref<1x64x114x114xf32> to memref<1x64x112x112xf32, strided<[831744, 12996, 114, 1], offset: 115>>
    memref.copy %alloc_6, %subview_9 : memref<1x64x112x112xf32> to memref<1x64x112x112xf32, strided<[831744, 12996, 114, 1], offset: 115>>
    %alloc_10 = memref.alloc() {alignment = 64 : i64} : memref<1x64x56x56xf32>
    affine.for %arg1 = 0 to 1 {
      affine.for %arg2 = 0 to 64 {
        affine.for %arg3 = 0 to 56 step 28 {
          %5 = FDRA.BlockLoad %alloc_10 [0, %arg2, %arg3, 0] : memref<1x64x56x56xf32> -> memref<1x64x56x56xf32> {"forward_kernel_6"}
          FDRA.KernelCall @forward_kernel_6(%5) : (memref<1x64x56x56xf32>) -> ()
          FDRA.BlockStore %5,  %alloc_10 [0, %arg2, %arg3, 0] : memref<1x64x56x56xf32> -> memref<1x64x56x56xf32> {"forward_kernel_6"}
        }
      }
    }
    %alloc_11 = memref.alloc() {alignment = 64 : i64} : memref<1x64x56x56xf32>
    memref.copy %alloc_10, %alloc_11 : memref<1x64x56x56xf32> to memref<1x64x56x56xf32>
    memref.dealloc %alloc_10 : memref<1x64x56x56xf32>
    affine.for %arg1 = 0 to 1 {
      affine.for %arg2 = 0 to 64 {
        affine.for %arg3 = 0 to 56 step 4 {
          %5 = FDRA.BlockLoad %alloc_8 [0, %arg2, %arg3 * 2, 0] : memref<1x64x114x114xf32> -> memref<1x64x114x114xf32> {"forward_kernel_7"}
          %6 = FDRA.BlockLoad %alloc_11 [0, %arg2, %arg3, 0] : memref<1x64x56x56xf32> -> memref<1x64x56x56xf32> {"forward_kernel_7"}
          %7 = FDRA.BlockLoad %alloc_11 [0, %arg2, %arg3, 0] : memref<1x64x56x56xf32> -> memref<1x64x56x56xf32> {"forward_kernel_7"}
          FDRA.KernelCall @forward_kernel_7(%5, %6, %7) : (memref<1x64x114x114xf32>, memref<1x64x56x56xf32>, memref<1x64x56x56xf32>) -> ()
          FDRA.BlockStore %7,  %alloc_11 [0, %arg2, %arg3, 0] : memref<1x64x56x56xf32> -> memref<1x64x56x56xf32> {"forward_kernel_7"}
        }
      }
    }
    memref.dealloc %alloc_11 : memref<1x64x56x56xf32>
    return %alloc_11 : memref<1x64x56x56xf32>
  }
  func.func @forward_kernel_0(%arg0: memref<1x3x230x230xf32>) attributes {Kernel, forward_kernel_0} {
    cf.br ^bb1
  ^bb1:  // pred: ^bb0
    %cst = arith.constant 0.000000e+00 : f32
    affine.for %arg1 = 0 to 5 {
      affine.for %arg2 = 0 to 230 {
        affine.store %cst, %arg0[0, 0, %arg1, %arg2] : memref<1x3x230x230xf32>
      }
    }
    return
  }
  func.func @forward_kernel_1(%arg0: memref<1x64x112x112xf32>) attributes {Kernel, forward_kernel_1} {
    cf.br ^bb1
  ^bb1:  // pred: ^bb0
    %cst = arith.constant 0.000000e+00 : f32
    affine.for %arg1 = 0 to 16 {
      affine.for %arg2 = 0 to 112 {
        affine.store %cst, %arg0[0, 0, %arg1, %arg2] : memref<1x64x112x112xf32>
      }
    }
    return
  }
  func.func @forward_kernel_2(%arg0: memref<1x3x230x230xf32>, %arg1: memref<64x3x7x7xf32>, %arg2: memref<1x64x112x112xf32>, %arg3: memref<1x64x112x112xf32>) attributes {Kernel, forward_kernel_2} {
    cf.br ^bb1
  ^bb1:  // pred: ^bb0
    affine.for %arg4 = 0 to 8 {
      affine.for %arg5 = 0 to 3 {
        affine.for %arg6 = 0 to 7 {
          affine.for %arg7 = 0 to 7 {
            %0 = affine.load %arg0[0, %arg5, %arg6, %arg4 * 2 + %arg7] : memref<1x3x230x230xf32>
            %1 = affine.load %arg1[0, %arg5, %arg6, %arg7] : memref<64x3x7x7xf32>
            %2 = affine.load %arg2[0, 0, 0, %arg4] : memref<1x64x112x112xf32>
            %3 = arith.mulf %0, %1 : f32
            %4 = arith.addf %2, %3 : f32
            affine.store %4, %arg3[0, 0, 0, %arg4] : memref<1x64x112x112xf32>
          }
        }
      }
    }
    return
  }
  func.func @forward_kernel_3(%arg0: memref<1x64x112x112xf32>, %arg1: memref<64xf32>, %arg2: memref<64xf32>, %arg3: memref<64xf32>, %arg4: memref<64xf32>, %arg5: memref<1x64x112x112xf32>) attributes {Kernel, forward_kernel_3} {
    cf.br ^bb1
  ^bb1:  // pred: ^bb0
    %cst = arith.constant 1.000000e-05 : f64
    affine.for %arg6 = 0 to 16 {
      affine.for %arg7 = 0 to 112 {
        %0 = affine.load %arg0[0, 0, %arg6, %arg7] : memref<1x64x112x112xf32>
        %1 = affine.load %arg1[0] : memref<64xf32>
        %2 = affine.load %arg2[0] : memref<64xf32>
        %3 = affine.load %arg3[0] : memref<64xf32>
        %4 = affine.load %arg4[0] : memref<64xf32>
        %5 = arith.truncf %cst : f64 to f32
        %6 = arith.addf %4, %5 : f32
        %cst_0 = arith.constant 5.000000e-01 : f32
        %7 = arith.mulf %6, %cst_0 : f32
        %8 = arith.bitcast %6 : f32 to i32
        %c1_i32 = arith.constant 1 : i32
        %9 = arith.shrui %8, %c1_i32 : i32
        %c1597463007_i32 = arith.constant 1597463007 : i32
        %10 = arith.subi %c1597463007_i32, %9 : i32
        %11 = arith.bitcast %10 : i32 to f32
        %cst_1 = arith.constant 1.500000e+00 : f32
        %12 = arith.mulf %11, %11 : f32
        %13 = arith.mulf %12, %7 : f32
        %14 = arith.subf %cst_1, %13 : f32
        %15 = arith.mulf %14, %12 : f32
        %16 = arith.subf %0, %3 : f32
        %17 = arith.mulf %16, %15 : f32
        %18 = arith.mulf %17, %1 : f32
        %19 = arith.addf %18, %2 : f32
        affine.store %19, %arg5[0, 0, %arg6, %arg7] : memref<1x64x112x112xf32>
      }
    }
    return
  }
  func.func @forward_kernel_4(%arg0: memref<1x64x112x112xf32>, %arg1: memref<1x64x112x112xf32>) attributes {Kernel, forward_kernel_4} {
    cf.br ^bb1
  ^bb1:  // pred: ^bb0
    %cst = arith.constant 0.000000e+00 : f32
    affine.for %arg2 = 0 to 16 {
      affine.for %arg3 = 0 to 112 {
        %0 = affine.load %arg0[0, 0, %arg2, %arg3] : memref<1x64x112x112xf32>
        %1 = arith.cmpf ugt, %0, %cst : f32
        %2 = arith.select %1, %0, %cst : f32
        affine.store %2, %arg1[0, 0, %arg2, %arg3] : memref<1x64x112x112xf32>
      }
    }
    return
  }
  func.func @forward_kernel_5(%arg0: memref<1x64x114x114xf32>) attributes {Kernel, forward_kernel_5} {
    cf.br ^bb1
  ^bb1:  // pred: ^bb0
    %cst = arith.constant 0xFF800000 : f32
    affine.for %arg1 = 0 to 6 {
      affine.for %arg2 = 0 to 114 {
        affine.store %cst, %arg0[0, 0, %arg1, %arg2] : memref<1x64x114x114xf32>
      }
    }
    return
  }
  func.func @forward_kernel_6(%arg0: memref<1x64x56x56xf32>) attributes {Kernel, forward_kernel_6} {
    cf.br ^bb1
  ^bb1:  // pred: ^bb0
    %cst = arith.constant 0xFF800000 : f32
    affine.for %arg1 = 0 to 28 {
      affine.for %arg2 = 0 to 56 {
        affine.store %cst, %arg0[0, 0, %arg1, %arg2] : memref<1x64x56x56xf32>
      }
    }
    return
  }
  func.func @forward_kernel_7(%arg0: memref<1x64x114x114xf32>, %arg1: memref<1x64x56x56xf32>, %arg2: memref<1x64x56x56xf32>) attributes {Kernel, forward_kernel_7} {
    cf.br ^bb1
  ^bb1:  // pred: ^bb0
    affine.for %arg3 = 0 to 4 {
      affine.for %arg4 = 0 to 56 {
        affine.for %arg5 = 0 to 3 {
          affine.for %arg6 = 0 to 3 {
            %0 = affine.load %arg0[0, 0, %arg3 * 2 + %arg5, %arg4 * 2 + %arg6] : memref<1x64x114x114xf32>
            %1 = affine.load %arg1[0, 0, %arg3, %arg4] : memref<1x64x56x56xf32>
            %2 = arith.cmpf ugt, %1, %0 : f32
            %3 = arith.select %2, %1, %0 : f32
            %4 = arith.cmpf uno, %0, %0 : f32
            %5 = arith.select %4, %0, %3 : f32
            affine.store %5, %arg2[0, 0, %arg3, %arg4] : memref<1x64x56x56xf32>
          }
        }
      }
    }
    return
  }
}


// -----// IR Dump After ExpandStridedMetadata (expand-strided-metadata) //----- //
module attributes {torch.debug_module_name = "ResNet"} {
  memref.global "private" constant @__constant_64xf32_2 : memref<64xf32> = dense<[… >
  memref.global "private" constant @__constant_64xf32_1 : memref<64xf32> = dense<[… >
  memref.global "private" constant @__constant_64xf32_0 : memref<64xf32> = dense<[… >
  memref.global "private" constant @__constant_64xf32 : memref<64xf32> = dense<[… >
  memref.global "private" constant @__constant_64x3x7x7xf32 : memref<64x3x7x7xf32> = dense<"…">
  ml_program.global private mutable @global_seed(dense<0> : tensor<i64>) : tensor<i64>
  func.func @forward(%arg0: memref<1x3x224x224xf32>) -> memref<1x64x56x56xf32> {
    %0 = memref.get_global @__constant_64x3x7x7xf32 : memref<64x3x7x7xf32>
    %1 = memref.get_global @__constant_64xf32 : memref<64xf32>
    %2 = memref.get_global @__constant_64xf32_0 : memref<64xf32>
    %3 = memref.get_global @__constant_64xf32_1 : memref<64xf32>
    %4 = memref.get_global @__constant_64xf32_2 : memref<64xf32>
    %alloc = memref.alloc() {alignment = 64 : i64} : memref<1x3x230x230xf32>
    affine.for %arg1 = 0 to 1 {
      affine.for %arg2 = 0 to 3 {
        affine.for %arg3 = 0 to 230 step 5 {
          %5 = FDRA.BlockLoad %alloc [0, %arg2, %arg3, 0] : memref<1x3x230x230xf32> -> memref<1x3x230x230xf32> {"forward_kernel_0"}
          FDRA.KernelCall @forward_kernel_0(%5) : (memref<1x3x230x230xf32>) -> ()
          FDRA.BlockStore %5,  %alloc [0, %arg2, %arg3, 0] : memref<1x3x230x230xf32> -> memref<1x3x230x230xf32> {"forward_kernel_0"}
        }
      }
    }
    memref.dealloc %alloc : memref<1x3x230x230xf32>
    %alloc_0 = memref.alloc() {alignment = 64 : i64} : memref<1x3x230x230xf32>
    memref.copy %alloc, %alloc_0 : memref<1x3x230x230xf32> to memref<1x3x230x230xf32>
    %reinterpret_cast = memref.reinterpret_cast %alloc_0 to offset: [693], sizes: [1, 3, 224, 224], strides: [158700, 52900, 230, 1] : memref<1x3x230x230xf32> to memref<1x3x224x224xf32, strided<[158700, 52900, 230, 1], offset: 693>>
    memref.copy %arg0, %reinterpret_cast : memref<1x3x224x224xf32> to memref<1x3x224x224xf32, strided<[158700, 52900, 230, 1], offset: 693>>
    %alloc_1 = memref.alloc() {alignment = 64 : i64} : memref<1x64x112x112xf32>
    affine.for %arg1 = 0 to 1 {
      affine.for %arg2 = 0 to 64 {
        affine.for %arg3 = 0 to 112 step 16 {
          %5 = FDRA.BlockLoad %alloc_1 [0, %arg2, %arg3, 0] : memref<1x64x112x112xf32> -> memref<1x64x112x112xf32> {"forward_kernel_1"}
          FDRA.KernelCall @forward_kernel_1(%5) : (memref<1x64x112x112xf32>) -> ()
          FDRA.BlockStore %5,  %alloc_1 [0, %arg2, %arg3, 0] : memref<1x64x112x112xf32> -> memref<1x64x112x112xf32> {"forward_kernel_1"}
        }
      }
    }
    %alloc_2 = memref.alloc() {alignment = 64 : i64} : memref<1x64x112x112xf32>
    memref.copy %alloc_1, %alloc_2 : memref<1x64x112x112xf32> to memref<1x64x112x112xf32>
    memref.dealloc %alloc_1 : memref<1x64x112x112xf32>
    affine.for %arg1 = 0 to 1 {
      affine.for %arg2 = 0 to 64 {
        affine.for %arg3 = 0 to 112 {
          affine.for %arg4 = 0 to 112 step 8 {
            %5 = FDRA.BlockLoad %alloc_0 [0, 0, %arg3 * 2, %arg4 * 2] : memref<1x3x230x230xf32> -> memref<1x3x230x230xf32> {"forward_kernel_2"}
            %6 = FDRA.BlockLoad %0 [%arg2, 0, 0, 0] : memref<64x3x7x7xf32> -> memref<64x3x7x7xf32> {"forward_kernel_2"}
            %7 = FDRA.BlockLoad %alloc_2 [0, %arg2, %arg3, %arg4] : memref<1x64x112x112xf32> -> memref<1x64x112x112xf32> {"forward_kernel_2"}
            %8 = FDRA.BlockLoad %alloc_2 [0, %arg2, %arg3, %arg4] : memref<1x64x112x112xf32> -> memref<1x64x112x112xf32> {"forward_kernel_2"}
            FDRA.KernelCall @forward_kernel_2(%5, %6, %7, %8) : (memref<1x3x230x230xf32>, memref<64x3x7x7xf32>, memref<1x64x112x112xf32>, memref<1x64x112x112xf32>) -> ()
            FDRA.BlockStore %8,  %alloc_2 [0, %arg2, %arg3, %arg4] : memref<1x64x112x112xf32> -> memref<1x64x112x112xf32> {"forward_kernel_2"}
          }
        }
      }
    }
    %alloc_3 = memref.alloc() {alignment = 64 : i64} : memref<1x64x112x112xf32>
    affine.for %arg1 = 0 to 1 {
      affine.for %arg2 = 0 to 64 {
        affine.for %arg3 = 0 to 112 step 16 {
          %5 = FDRA.BlockLoad %alloc_2 [0, %arg2, %arg3, 0] : memref<1x64x112x112xf32> -> memref<1x64x112x112xf32> {"forward_kernel_3"}
          %6 = FDRA.BlockLoad %3 [%arg2] : memref<64xf32> -> memref<64xf32> {"forward_kernel_3"}
          %7 = FDRA.BlockLoad %4 [%arg2] : memref<64xf32> -> memref<64xf32> {"forward_kernel_3"}
          %8 = FDRA.BlockLoad %1 [%arg2] : memref<64xf32> -> memref<64xf32> {"forward_kernel_3"}
          %9 = FDRA.BlockLoad %2 [%arg2] : memref<64xf32> -> memref<64xf32> {"forward_kernel_3"}
          %10 = FDRA.BlockLoad %alloc_3 [0, %arg2, %arg3, 0] : memref<1x64x112x112xf32> -> memref<1x64x112x112xf32> {"forward_kernel_3"}
          FDRA.KernelCall @forward_kernel_3(%5, %6, %7, %8, %9, %10) : (memref<1x64x112x112xf32>, memref<64xf32>, memref<64xf32>, memref<64xf32>, memref<64xf32>, memref<1x64x112x112xf32>) -> ()
          FDRA.BlockStore %10,  %alloc_3 [0, %arg2, %arg3, 0] : memref<1x64x112x112xf32> -> memref<1x64x112x112xf32> {"forward_kernel_3"}
        }
      }
    }
    memref.dealloc %alloc_2 : memref<1x64x112x112xf32>
    %alloc_4 = memref.alloc() {alignment = 64 : i64} : memref<1x64x112x112xf32>
    affine.for %arg1 = 0 to 1 {
      affine.for %arg2 = 0 to 64 {
        affine.for %arg3 = 0 to 112 step 16 {
          %5 = FDRA.BlockLoad %alloc_3 [0, %arg2, %arg3, 0] : memref<1x64x112x112xf32> -> memref<1x64x112x112xf32> {"forward_kernel_4"}
          %6 = FDRA.BlockLoad %alloc_4 [0, %arg2, %arg3, 0] : memref<1x64x112x112xf32> -> memref<1x64x112x112xf32> {"forward_kernel_4"}
          FDRA.KernelCall @forward_kernel_4(%5, %6) : (memref<1x64x112x112xf32>, memref<1x64x112x112xf32>) -> ()
          FDRA.BlockStore %6,  %alloc_4 [0, %arg2, %arg3, 0] : memref<1x64x112x112xf32> -> memref<1x64x112x112xf32> {"forward_kernel_4"}
        }
      }
    }
    memref.dealloc %alloc_3 : memref<1x64x112x112xf32>
    memref.dealloc %alloc_4 : memref<1x64x112x112xf32>
    %alloc_5 = memref.alloc() {alignment = 64 : i64} : memref<1x64x114x114xf32>
    affine.for %arg1 = 0 to 1 {
      affine.for %arg2 = 0 to 64 {
        affine.for %arg3 = 0 to 114 step 6 {
          %5 = FDRA.BlockLoad %alloc_5 [0, %arg2, %arg3, 0] : memref<1x64x114x114xf32> -> memref<1x64x114x114xf32> {"forward_kernel_5"}
          FDRA.KernelCall @forward_kernel_5(%5) : (memref<1x64x114x114xf32>) -> ()
          FDRA.BlockStore %5,  %alloc_5 [0, %arg2, %arg3, 0] : memref<1x64x114x114xf32> -> memref<1x64x114x114xf32> {"forward_kernel_5"}
        }
      }
    }
    memref.dealloc %alloc_5 : memref<1x64x114x114xf32>
    %alloc_6 = memref.alloc() {alignment = 64 : i64} : memref<1x64x114x114xf32>
    memref.copy %alloc_5, %alloc_6 : memref<1x64x114x114xf32> to memref<1x64x114x114xf32>
    %reinterpret_cast_7 = memref.reinterpret_cast %alloc_6 to offset: [115], sizes: [1, 64, 112, 112], strides: [831744, 12996, 114, 1] : memref<1x64x114x114xf32> to memref<1x64x112x112xf32, strided<[831744, 12996, 114, 1], offset: 115>>
    memref.copy %alloc_4, %reinterpret_cast_7 : memref<1x64x112x112xf32> to memref<1x64x112x112xf32, strided<[831744, 12996, 114, 1], offset: 115>>
    %alloc_8 = memref.alloc() {alignment = 64 : i64} : memref<1x64x56x56xf32>
    affine.for %arg1 = 0 to 1 {
      affine.for %arg2 = 0 to 64 {
        affine.for %arg3 = 0 to 56 step 28 {
          %5 = FDRA.BlockLoad %alloc_8 [0, %arg2, %arg3, 0] : memref<1x64x56x56xf32> -> memref<1x64x56x56xf32> {"forward_kernel_6"}
          FDRA.KernelCall @forward_kernel_6(%5) : (memref<1x64x56x56xf32>) -> ()
          FDRA.BlockStore %5,  %alloc_8 [0, %arg2, %arg3, 0] : memref<1x64x56x56xf32> -> memref<1x64x56x56xf32> {"forward_kernel_6"}
        }
      }
    }
    %alloc_9 = memref.alloc() {alignment = 64 : i64} : memref<1x64x56x56xf32>
    memref.copy %alloc_8, %alloc_9 : memref<1x64x56x56xf32> to memref<1x64x56x56xf32>
    memref.dealloc %alloc_8 : memref<1x64x56x56xf32>
    affine.for %arg1 = 0 to 1 {
      affine.for %arg2 = 0 to 64 {
        affine.for %arg3 = 0 to 56 step 4 {
          %5 = FDRA.BlockLoad %alloc_6 [0, %arg2, %arg3 * 2, 0] : memref<1x64x114x114xf32> -> memref<1x64x114x114xf32> {"forward_kernel_7"}
          %6 = FDRA.BlockLoad %alloc_9 [0, %arg2, %arg3, 0] : memref<1x64x56x56xf32> -> memref<1x64x56x56xf32> {"forward_kernel_7"}
          %7 = FDRA.BlockLoad %alloc_9 [0, %arg2, %arg3, 0] : memref<1x64x56x56xf32> -> memref<1x64x56x56xf32> {"forward_kernel_7"}
          FDRA.KernelCall @forward_kernel_7(%5, %6, %7) : (memref<1x64x114x114xf32>, memref<1x64x56x56xf32>, memref<1x64x56x56xf32>) -> ()
          FDRA.BlockStore %7,  %alloc_9 [0, %arg2, %arg3, 0] : memref<1x64x56x56xf32> -> memref<1x64x56x56xf32> {"forward_kernel_7"}
        }
      }
    }
    memref.dealloc %alloc_9 : memref<1x64x56x56xf32>
    return %alloc_9 : memref<1x64x56x56xf32>
  }
  func.func @forward_kernel_0(%arg0: memref<1x3x230x230xf32>) attributes {Kernel, forward_kernel_0} {
    %cst = arith.constant 0.000000e+00 : f32
    cf.br ^bb1
  ^bb1:  // pred: ^bb0
    affine.for %arg1 = 0 to 5 {
      affine.for %arg2 = 0 to 230 {
        affine.store %cst, %arg0[0, 0, %arg1, %arg2] : memref<1x3x230x230xf32>
      }
    }
    return
  }
  func.func @forward_kernel_1(%arg0: memref<1x64x112x112xf32>) attributes {Kernel, forward_kernel_1} {
    %cst = arith.constant 0.000000e+00 : f32
    cf.br ^bb1
  ^bb1:  // pred: ^bb0
    affine.for %arg1 = 0 to 16 {
      affine.for %arg2 = 0 to 112 {
        affine.store %cst, %arg0[0, 0, %arg1, %arg2] : memref<1x64x112x112xf32>
      }
    }
    return
  }
  func.func @forward_kernel_2(%arg0: memref<1x3x230x230xf32>, %arg1: memref<64x3x7x7xf32>, %arg2: memref<1x64x112x112xf32>, %arg3: memref<1x64x112x112xf32>) attributes {Kernel, forward_kernel_2} {
    cf.br ^bb1
  ^bb1:  // pred: ^bb0
    affine.for %arg4 = 0 to 8 {
      affine.for %arg5 = 0 to 3 {
        affine.for %arg6 = 0 to 7 {
          affine.for %arg7 = 0 to 7 {
            %0 = affine.load %arg0[0, %arg5, %arg6, %arg4 * 2 + %arg7] : memref<1x3x230x230xf32>
            %1 = affine.load %arg1[0, %arg5, %arg6, %arg7] : memref<64x3x7x7xf32>
            %2 = affine.load %arg2[0, 0, 0, %arg4] : memref<1x64x112x112xf32>
            %3 = arith.mulf %0, %1 : f32
            %4 = arith.addf %2, %3 : f32
            affine.store %4, %arg3[0, 0, 0, %arg4] : memref<1x64x112x112xf32>
          }
        }
      }
    }
    return
  }
  func.func @forward_kernel_3(%arg0: memref<1x64x112x112xf32>, %arg1: memref<64xf32>, %arg2: memref<64xf32>, %arg3: memref<64xf32>, %arg4: memref<64xf32>, %arg5: memref<1x64x112x112xf32>) attributes {Kernel, forward_kernel_3} {
    %cst = arith.constant 1.500000e+00 : f32
    %c1597463007_i32 = arith.constant 1597463007 : i32
    %c1_i32 = arith.constant 1 : i32
    %cst_0 = arith.constant 5.000000e-01 : f32
    %cst_1 = arith.constant 1.000000e-05 : f64
    cf.br ^bb1
  ^bb1:  // pred: ^bb0
    affine.for %arg6 = 0 to 16 {
      affine.for %arg7 = 0 to 112 {
        %0 = affine.load %arg0[0, 0, %arg6, %arg7] : memref<1x64x112x112xf32>
        %1 = affine.load %arg1[0] : memref<64xf32>
        %2 = affine.load %arg2[0] : memref<64xf32>
        %3 = affine.load %arg3[0] : memref<64xf32>
        %4 = affine.load %arg4[0] : memref<64xf32>
        %5 = arith.truncf %cst_1 : f64 to f32
        %6 = arith.addf %4, %5 : f32
        %7 = arith.mulf %6, %cst_0 : f32
        %8 = arith.bitcast %6 : f32 to i32
        %9 = arith.shrui %8, %c1_i32 : i32
        %10 = arith.subi %c1597463007_i32, %9 : i32
        %11 = arith.bitcast %10 : i32 to f32
        %12 = arith.mulf %11, %11 : f32
        %13 = arith.mulf %12, %7 : f32
        %14 = arith.subf %cst, %13 : f32
        %15 = arith.mulf %14, %12 : f32
        %16 = arith.subf %0, %3 : f32
        %17 = arith.mulf %16, %15 : f32
        %18 = arith.mulf %17, %1 : f32
        %19 = arith.addf %18, %2 : f32
        affine.store %19, %arg5[0, 0, %arg6, %arg7] : memref<1x64x112x112xf32>
      }
    }
    return
  }
  func.func @forward_kernel_4(%arg0: memref<1x64x112x112xf32>, %arg1: memref<1x64x112x112xf32>) attributes {Kernel, forward_kernel_4} {
    %cst = arith.constant 0.000000e+00 : f32
    cf.br ^bb1
  ^bb1:  // pred: ^bb0
    affine.for %arg2 = 0 to 16 {
      affine.for %arg3 = 0 to 112 {
        %0 = affine.load %arg0[0, 0, %arg2, %arg3] : memref<1x64x112x112xf32>
        %1 = arith.cmpf ugt, %0, %cst : f32
        %2 = arith.select %1, %0, %cst : f32
        affine.store %2, %arg1[0, 0, %arg2, %arg3] : memref<1x64x112x112xf32>
      }
    }
    return
  }
  func.func @forward_kernel_5(%arg0: memref<1x64x114x114xf32>) attributes {Kernel, forward_kernel_5} {
    %cst = arith.constant 0xFF800000 : f32
    cf.br ^bb1
  ^bb1:  // pred: ^bb0
    affine.for %arg1 = 0 to 6 {
      affine.for %arg2 = 0 to 114 {
        affine.store %cst, %arg0[0, 0, %arg1, %arg2] : memref<1x64x114x114xf32>
      }
    }
    return
  }
  func.func @forward_kernel_6(%arg0: memref<1x64x56x56xf32>) attributes {Kernel, forward_kernel_6} {
    %cst = arith.constant 0xFF800000 : f32
    cf.br ^bb1
  ^bb1:  // pred: ^bb0
    affine.for %arg1 = 0 to 28 {
      affine.for %arg2 = 0 to 56 {
        affine.store %cst, %arg0[0, 0, %arg1, %arg2] : memref<1x64x56x56xf32>
      }
    }
    return
  }
  func.func @forward_kernel_7(%arg0: memref<1x64x114x114xf32>, %arg1: memref<1x64x56x56xf32>, %arg2: memref<1x64x56x56xf32>) attributes {Kernel, forward_kernel_7} {
    cf.br ^bb1
  ^bb1:  // pred: ^bb0
    affine.for %arg3 = 0 to 4 {
      affine.for %arg4 = 0 to 56 {
        affine.for %arg5 = 0 to 3 {
          affine.for %arg6 = 0 to 3 {
            %0 = affine.load %arg0[0, 0, %arg3 * 2 + %arg5, %arg4 * 2 + %arg6] : memref<1x64x114x114xf32>
            %1 = affine.load %arg1[0, 0, %arg3, %arg4] : memref<1x64x56x56xf32>
            %2 = arith.cmpf ugt, %1, %0 : f32
            %3 = arith.select %2, %1, %0 : f32
            %4 = arith.cmpf uno, %0, %0 : f32
            %5 = arith.select %4, %0, %3 : f32
            affine.store %5, %arg2[0, 0, %arg3, %arg4] : memref<1x64x56x56xf32>
          }
        }
      }
    }
    return
  }
}


// -----// IR Dump After SimplifyAffineStructures (affine-simplify-structures) //----- //
func.func @forward_kernel_0(%arg0: memref<1x3x230x230xf32>) attributes {Kernel, forward_kernel_0} {
  %cst = arith.constant 0.000000e+00 : f32
  cf.br ^bb1
^bb1:  // pred: ^bb0
  affine.for %arg1 = 0 to 5 {
    affine.for %arg2 = 0 to 230 {
      affine.store %cst, %arg0[0, 0, %arg1, %arg2] : memref<1x3x230x230xf32>
    }
  }
  return
}

// -----// IR Dump After SimplifyAffineStructures (affine-simplify-structures) //----- //
func.func @forward_kernel_1(%arg0: memref<1x64x112x112xf32>) attributes {Kernel, forward_kernel_1} {
  %cst = arith.constant 0.000000e+00 : f32
  cf.br ^bb1
^bb1:  // pred: ^bb0
  affine.for %arg1 = 0 to 16 {
    affine.for %arg2 = 0 to 112 {
      affine.store %cst, %arg0[0, 0, %arg1, %arg2] : memref<1x64x112x112xf32>
    }
  }
  return
}

// -----// IR Dump After SimplifyAffineStructures (affine-simplify-structures) //----- //
func.func @forward_kernel_2(%arg0: memref<1x3x230x230xf32>, %arg1: memref<64x3x7x7xf32>, %arg2: memref<1x64x112x112xf32>, %arg3: memref<1x64x112x112xf32>) attributes {Kernel, forward_kernel_2} {
  cf.br ^bb1
^bb1:  // pred: ^bb0
  affine.for %arg4 = 0 to 8 {
    affine.for %arg5 = 0 to 3 {
      affine.for %arg6 = 0 to 7 {
        affine.for %arg7 = 0 to 7 {
          %0 = affine.load %arg0[0, %arg5, %arg6, %arg4 * 2 + %arg7] : memref<1x3x230x230xf32>
          %1 = affine.load %arg1[0, %arg5, %arg6, %arg7] : memref<64x3x7x7xf32>
          %2 = affine.load %arg2[0, 0, 0, %arg4] : memref<1x64x112x112xf32>
          %3 = arith.mulf %0, %1 : f32
          %4 = arith.addf %2, %3 : f32
          affine.store %4, %arg3[0, 0, 0, %arg4] : memref<1x64x112x112xf32>
        }
      }
    }
  }
  return
}

// -----// IR Dump After SimplifyAffineStructures (affine-simplify-structures) //----- //
func.func @forward_kernel_6(%arg0: memref<1x64x56x56xf32>) attributes {Kernel, forward_kernel_6} {
  %cst = arith.constant 0xFF800000 : f32
  cf.br ^bb1
^bb1:  // pred: ^bb0
  affine.for %arg1 = 0 to 28 {
    affine.for %arg2 = 0 to 56 {
      affine.store %cst, %arg0[0, 0, %arg1, %arg2] : memref<1x64x56x56xf32>
    }
  }
  return
}

// -----// IR Dump After SimplifyAffineStructures (affine-simplify-structures) //----- //
func.func @forward_kernel_7(%arg0: memref<1x64x114x114xf32>, %arg1: memref<1x64x56x56xf32>, %arg2: memref<1x64x56x56xf32>) attributes {Kernel, forward_kernel_7} {
  cf.br ^bb1
^bb1:  // pred: ^bb0
  affine.for %arg3 = 0 to 4 {
    affine.for %arg4 = 0 to 56 {
      affine.for %arg5 = 0 to 3 {
        affine.for %arg6 = 0 to 3 {
          %0 = affine.load %arg0[0, 0, %arg3 * 2 + %arg5, %arg4 * 2 + %arg6] : memref<1x64x114x114xf32>
          %1 = affine.load %arg1[0, 0, %arg3, %arg4] : memref<1x64x56x56xf32>
          %2 = arith.cmpf ugt, %1, %0 : f32
          %3 = arith.select %2, %1, %0 : f32
          %4 = arith.cmpf uno, %0, %0 : f32
          %5 = arith.select %4, %0, %3 : f32
          affine.store %5, %arg2[0, 0, %arg3, %arg4] : memref<1x64x56x56xf32>
        }
      }
    }
  }
  return
}

// -----// IR Dump After SimplifyAffineStructures (affine-simplify-structures) //----- //
func.func @forward_kernel_3(%arg0: memref<1x64x112x112xf32>, %arg1: memref<64xf32>, %arg2: memref<64xf32>, %arg3: memref<64xf32>, %arg4: memref<64xf32>, %arg5: memref<1x64x112x112xf32>) attributes {Kernel, forward_kernel_3} {
  %cst = arith.constant 1.500000e+00 : f32
  %c1597463007_i32 = arith.constant 1597463007 : i32
  %c1_i32 = arith.constant 1 : i32
  %cst_0 = arith.constant 5.000000e-01 : f32
  %cst_1 = arith.constant 1.000000e-05 : f64
  cf.br ^bb1
^bb1:  // pred: ^bb0
  affine.for %arg6 = 0 to 16 {
    affine.for %arg7 = 0 to 112 {
      %0 = affine.load %arg0[0, 0, %arg6, %arg7] : memref<1x64x112x112xf32>
      %1 = affine.load %arg1[0] : memref<64xf32>
      %2 = affine.load %arg2[0] : memref<64xf32>
      %3 = affine.load %arg3[0] : memref<64xf32>
      %4 = affine.load %arg4[0] : memref<64xf32>
      %5 = arith.truncf %cst_1 : f64 to f32
      %6 = arith.addf %4, %5 : f32
      %7 = arith.mulf %6, %cst_0 : f32
      %8 = arith.bitcast %6 : f32 to i32
      %9 = arith.shrui %8, %c1_i32 : i32
      %10 = arith.subi %c1597463007_i32, %9 : i32
      %11 = arith.bitcast %10 : i32 to f32
      %12 = arith.mulf %11, %11 : f32
      %13 = arith.mulf %12, %7 : f32
      %14 = arith.subf %cst, %13 : f32
      %15 = arith.mulf %14, %12 : f32
      %16 = arith.subf %0, %3 : f32
      %17 = arith.mulf %16, %15 : f32
      %18 = arith.mulf %17, %1 : f32
      %19 = arith.addf %18, %2 : f32
      affine.store %19, %arg5[0, 0, %arg6, %arg7] : memref<1x64x112x112xf32>
    }
  }
  return
}

// -----// IR Dump After SimplifyAffineStructures (affine-simplify-structures) //----- //
func.func @forward_kernel_5(%arg0: memref<1x64x114x114xf32>) attributes {Kernel, forward_kernel_5} {
  %cst = arith.constant 0xFF800000 : f32
  cf.br ^bb1
^bb1:  // pred: ^bb0
  affine.for %arg1 = 0 to 6 {
    affine.for %arg2 = 0 to 114 {
      affine.store %cst, %arg0[0, 0, %arg1, %arg2] : memref<1x64x114x114xf32>
    }
  }
  return
}

// -----// IR Dump After SimplifyAffineStructures (affine-simplify-structures) //----- //
func.func @forward(%arg0: memref<1x3x224x224xf32>) -> memref<1x64x56x56xf32> {
  %0 = memref.get_global @__constant_64x3x7x7xf32 : memref<64x3x7x7xf32>
  %1 = memref.get_global @__constant_64xf32 : memref<64xf32>
  %2 = memref.get_global @__constant_64xf32_0 : memref<64xf32>
  %3 = memref.get_global @__constant_64xf32_1 : memref<64xf32>
  %4 = memref.get_global @__constant_64xf32_2 : memref<64xf32>
  %alloc = memref.alloc() {alignment = 64 : i64} : memref<1x3x230x230xf32>
  affine.for %arg1 = 0 to 1 {
    affine.for %arg2 = 0 to 3 {
      affine.for %arg3 = 0 to 230 step 5 {
        %5 = FDRA.BlockLoad %alloc [0, %arg2, %arg3, 0] : memref<1x3x230x230xf32> -> memref<1x3x230x230xf32> {"forward_kernel_0"}
        FDRA.KernelCall @forward_kernel_0(%5) : (memref<1x3x230x230xf32>) -> ()
        FDRA.BlockStore %5,  %alloc [0, %arg2, %arg3, 0] : memref<1x3x230x230xf32> -> memref<1x3x230x230xf32> {"forward_kernel_0"}
      }
    }
  }
  memref.dealloc %alloc : memref<1x3x230x230xf32>
  %alloc_0 = memref.alloc() {alignment = 64 : i64} : memref<1x3x230x230xf32>
  memref.copy %alloc, %alloc_0 : memref<1x3x230x230xf32> to memref<1x3x230x230xf32>
  %reinterpret_cast = memref.reinterpret_cast %alloc_0 to offset: [693], sizes: [1, 3, 224, 224], strides: [158700, 52900, 230, 1] : memref<1x3x230x230xf32> to memref<1x3x224x224xf32, strided<[158700, 52900, 230, 1], offset: 693>>
  memref.copy %arg0, %reinterpret_cast : memref<1x3x224x224xf32> to memref<1x3x224x224xf32, strided<[158700, 52900, 230, 1], offset: 693>>
  %alloc_1 = memref.alloc() {alignment = 64 : i64} : memref<1x64x112x112xf32>
  affine.for %arg1 = 0 to 1 {
    affine.for %arg2 = 0 to 64 {
      affine.for %arg3 = 0 to 112 step 16 {
        %5 = FDRA.BlockLoad %alloc_1 [0, %arg2, %arg3, 0] : memref<1x64x112x112xf32> -> memref<1x64x112x112xf32> {"forward_kernel_1"}
        FDRA.KernelCall @forward_kernel_1(%5) : (memref<1x64x112x112xf32>) -> ()
        FDRA.BlockStore %5,  %alloc_1 [0, %arg2, %arg3, 0] : memref<1x64x112x112xf32> -> memref<1x64x112x112xf32> {"forward_kernel_1"}
      }
    }
  }
  %alloc_2 = memref.alloc() {alignment = 64 : i64} : memref<1x64x112x112xf32>
  memref.copy %alloc_1, %alloc_2 : memref<1x64x112x112xf32> to memref<1x64x112x112xf32>
  memref.dealloc %alloc_1 : memref<1x64x112x112xf32>
  affine.for %arg1 = 0 to 1 {
    affine.for %arg2 = 0 to 64 {
      affine.for %arg3 = 0 to 112 {
        affine.for %arg4 = 0 to 112 step 8 {
          %5 = FDRA.BlockLoad %alloc_0 [0, 0, %arg3 * 2, %arg4 * 2] : memref<1x3x230x230xf32> -> memref<1x3x230x230xf32> {"forward_kernel_2"}
          %6 = FDRA.BlockLoad %0 [%arg2, 0, 0, 0] : memref<64x3x7x7xf32> -> memref<64x3x7x7xf32> {"forward_kernel_2"}
          %7 = FDRA.BlockLoad %alloc_2 [0, %arg2, %arg3, %arg4] : memref<1x64x112x112xf32> -> memref<1x64x112x112xf32> {"forward_kernel_2"}
          %8 = FDRA.BlockLoad %alloc_2 [0, %arg2, %arg3, %arg4] : memref<1x64x112x112xf32> -> memref<1x64x112x112xf32> {"forward_kernel_2"}
          FDRA.KernelCall @forward_kernel_2(%5, %6, %7, %8) : (memref<1x3x230x230xf32>, memref<64x3x7x7xf32>, memref<1x64x112x112xf32>, memref<1x64x112x112xf32>) -> ()
          FDRA.BlockStore %8,  %alloc_2 [0, %arg2, %arg3, %arg4] : memref<1x64x112x112xf32> -> memref<1x64x112x112xf32> {"forward_kernel_2"}
        }
      }
    }
  }
  %alloc_3 = memref.alloc() {alignment = 64 : i64} : memref<1x64x112x112xf32>
  affine.for %arg1 = 0 to 1 {
    affine.for %arg2 = 0 to 64 {
      affine.for %arg3 = 0 to 112 step 16 {
        %5 = FDRA.BlockLoad %alloc_2 [0, %arg2, %arg3, 0] : memref<1x64x112x112xf32> -> memref<1x64x112x112xf32> {"forward_kernel_3"}
        %6 = FDRA.BlockLoad %3 [%arg2] : memref<64xf32> -> memref<64xf32> {"forward_kernel_3"}
        %7 = FDRA.BlockLoad %4 [%arg2] : memref<64xf32> -> memref<64xf32> {"forward_kernel_3"}
        %8 = FDRA.BlockLoad %1 [%arg2] : memref<64xf32> -> memref<64xf32> {"forward_kernel_3"}
        %9 = FDRA.BlockLoad %2 [%arg2] : memref<64xf32> -> memref<64xf32> {"forward_kernel_3"}
        %10 = FDRA.BlockLoad %alloc_3 [0, %arg2, %arg3, 0] : memref<1x64x112x112xf32> -> memref<1x64x112x112xf32> {"forward_kernel_3"}
        FDRA.KernelCall @forward_kernel_3(%5, %6, %7, %8, %9, %10) : (memref<1x64x112x112xf32>, memref<64xf32>, memref<64xf32>, memref<64xf32>, memref<64xf32>, memref<1x64x112x112xf32>) -> ()
        FDRA.BlockStore %10,  %alloc_3 [0, %arg2, %arg3, 0] : memref<1x64x112x112xf32> -> memref<1x64x112x112xf32> {"forward_kernel_3"}
      }
    }
  }
  memref.dealloc %alloc_2 : memref<1x64x112x112xf32>
  %alloc_4 = memref.alloc() {alignment = 64 : i64} : memref<1x64x112x112xf32>
  affine.for %arg1 = 0 to 1 {
    affine.for %arg2 = 0 to 64 {
      affine.for %arg3 = 0 to 112 step 16 {
        %5 = FDRA.BlockLoad %alloc_3 [0, %arg2, %arg3, 0] : memref<1x64x112x112xf32> -> memref<1x64x112x112xf32> {"forward_kernel_4"}
        %6 = FDRA.BlockLoad %alloc_4 [0, %arg2, %arg3, 0] : memref<1x64x112x112xf32> -> memref<1x64x112x112xf32> {"forward_kernel_4"}
        FDRA.KernelCall @forward_kernel_4(%5, %6) : (memref<1x64x112x112xf32>, memref<1x64x112x112xf32>) -> ()
        FDRA.BlockStore %6,  %alloc_4 [0, %arg2, %arg3, 0] : memref<1x64x112x112xf32> -> memref<1x64x112x112xf32> {"forward_kernel_4"}
      }
    }
  }
  memref.dealloc %alloc_3 : memref<1x64x112x112xf32>
  memref.dealloc %alloc_4 : memref<1x64x112x112xf32>
  %alloc_5 = memref.alloc() {alignment = 64 : i64} : memref<1x64x114x114xf32>
  affine.for %arg1 = 0 to 1 {
    affine.for %arg2 = 0 to 64 {
      affine.for %arg3 = 0 to 114 step 6 {
        %5 = FDRA.BlockLoad %alloc_5 [0, %arg2, %arg3, 0] : memref<1x64x114x114xf32> -> memref<1x64x114x114xf32> {"forward_kernel_5"}
        FDRA.KernelCall @forward_kernel_5(%5) : (memref<1x64x114x114xf32>) -> ()
        FDRA.BlockStore %5,  %alloc_5 [0, %arg2, %arg3, 0] : memref<1x64x114x114xf32> -> memref<1x64x114x114xf32> {"forward_kernel_5"}
      }
    }
  }
  memref.dealloc %alloc_5 : memref<1x64x114x114xf32>
  %alloc_6 = memref.alloc() {alignment = 64 : i64} : memref<1x64x114x114xf32>
  memref.copy %alloc_5, %alloc_6 : memref<1x64x114x114xf32> to memref<1x64x114x114xf32>
  %reinterpret_cast_7 = memref.reinterpret_cast %alloc_6 to offset: [115], sizes: [1, 64, 112, 112], strides: [831744, 12996, 114, 1] : memref<1x64x114x114xf32> to memref<1x64x112x112xf32, strided<[831744, 12996, 114, 1], offset: 115>>
  memref.copy %alloc_4, %reinterpret_cast_7 : memref<1x64x112x112xf32> to memref<1x64x112x112xf32, strided<[831744, 12996, 114, 1], offset: 115>>
  %alloc_8 = memref.alloc() {alignment = 64 : i64} : memref<1x64x56x56xf32>
  affine.for %arg1 = 0 to 1 {
    affine.for %arg2 = 0 to 64 {
      affine.for %arg3 = 0 to 56 step 28 {
        %5 = FDRA.BlockLoad %alloc_8 [0, %arg2, %arg3, 0] : memref<1x64x56x56xf32> -> memref<1x64x56x56xf32> {"forward_kernel_6"}
        FDRA.KernelCall @forward_kernel_6(%5) : (memref<1x64x56x56xf32>) -> ()
        FDRA.BlockStore %5,  %alloc_8 [0, %arg2, %arg3, 0] : memref<1x64x56x56xf32> -> memref<1x64x56x56xf32> {"forward_kernel_6"}
      }
    }
  }
  %alloc_9 = memref.alloc() {alignment = 64 : i64} : memref<1x64x56x56xf32>
  memref.copy %alloc_8, %alloc_9 : memref<1x64x56x56xf32> to memref<1x64x56x56xf32>
  memref.dealloc %alloc_8 : memref<1x64x56x56xf32>
  affine.for %arg1 = 0 to 1 {
    affine.for %arg2 = 0 to 64 {
      affine.for %arg3 = 0 to 56 step 4 {
        %5 = FDRA.BlockLoad %alloc_6 [0, %arg2, %arg3 * 2, 0] : memref<1x64x114x114xf32> -> memref<1x64x114x114xf32> {"forward_kernel_7"}
        %6 = FDRA.BlockLoad %alloc_9 [0, %arg2, %arg3, 0] : memref<1x64x56x56xf32> -> memref<1x64x56x56xf32> {"forward_kernel_7"}
        %7 = FDRA.BlockLoad %alloc_9 [0, %arg2, %arg3, 0] : memref<1x64x56x56xf32> -> memref<1x64x56x56xf32> {"forward_kernel_7"}
        FDRA.KernelCall @forward_kernel_7(%5, %6, %7) : (memref<1x64x114x114xf32>, memref<1x64x56x56xf32>, memref<1x64x56x56xf32>) -> ()
        FDRA.BlockStore %7,  %alloc_9 [0, %arg2, %arg3, 0] : memref<1x64x56x56xf32> -> memref<1x64x56x56xf32> {"forward_kernel_7"}
      }
    }
  }
  memref.dealloc %alloc_9 : memref<1x64x56x56xf32>
  return %alloc_9 : memref<1x64x56x56xf32>
}

// -----// IR Dump After SimplifyAffineStructures (affine-simplify-structures) //----- //
func.func @forward_kernel_4(%arg0: memref<1x64x112x112xf32>, %arg1: memref<1x64x112x112xf32>) attributes {Kernel, forward_kernel_4} {
  %cst = arith.constant 0.000000e+00 : f32
  cf.br ^bb1
^bb1:  // pred: ^bb0
  affine.for %arg2 = 0 to 16 {
    affine.for %arg3 = 0 to 112 {
      %0 = affine.load %arg0[0, 0, %arg2, %arg3] : memref<1x64x112x112xf32>
      %1 = arith.cmpf ugt, %0, %cst : f32
      %2 = arith.select %1, %0, %cst : f32
      affine.store %2, %arg1[0, 0, %arg2, %arg3] : memref<1x64x112x112xf32>
    }
  }
  return
}

// -----// IR Dump After ConvertAffineToStandard (lower-affine) //----- //
module attributes {torch.debug_module_name = "ResNet"} {
  memref.global "private" constant @__constant_64xf32_2 : memref<64xf32> = dense<[… >
  memref.global "private" constant @__constant_64xf32_1 : memref<64xf32> = dense<[… >
  memref.global "private" constant @__constant_64xf32_0 : memref<64xf32> = dense<[… >
  memref.global "private" constant @__constant_64xf32 : memref<64xf32> = dense<[… >
  memref.global "private" constant @__constant_64x3x7x7xf32 : memref<64x3x7x7xf32> = dense<"…">
  ml_program.global private mutable @global_seed(dense<0> : tensor<i64>) : tensor<i64>
  func.func @forward(%arg0: memref<1x3x224x224xf32>) -> memref<1x64x56x56xf32> {
    %0 = memref.get_global @__constant_64x3x7x7xf32 : memref<64x3x7x7xf32>
    %1 = memref.get_global @__constant_64xf32 : memref<64xf32>
    %2 = memref.get_global @__constant_64xf32_0 : memref<64xf32>
    %3 = memref.get_global @__constant_64xf32_1 : memref<64xf32>
    %4 = memref.get_global @__constant_64xf32_2 : memref<64xf32>
    %alloc = memref.alloc() {alignment = 64 : i64} : memref<1x3x230x230xf32>
    %c0 = arith.constant 0 : index
    %c1 = arith.constant 1 : index
    %c1_0 = arith.constant 1 : index
    scf.for %arg1 = %c0 to %c1 step %c1_0 {
      %c0_32 = arith.constant 0 : index
      %c3 = arith.constant 3 : index
      %c1_33 = arith.constant 1 : index
      scf.for %arg2 = %c0_32 to %c3 step %c1_33 {
        %c0_34 = arith.constant 0 : index
        %c230 = arith.constant 230 : index
        %c5 = arith.constant 5 : index
        scf.for %arg3 = %c0_34 to %c230 step %c5 {
          %5 = FDRA.BlockLoad %alloc [0, %arg2, %arg3, 0] : memref<1x3x230x230xf32> -> memref<1x3x230x230xf32> {"forward_kernel_0"}
          FDRA.KernelCall @forward_kernel_0(%5) : (memref<1x3x230x230xf32>) -> ()
          FDRA.BlockStore %5,  %alloc [0, %arg2, %arg3, 0] : memref<1x3x230x230xf32> -> memref<1x3x230x230xf32> {"forward_kernel_0"}
        }
      }
    }
    memref.dealloc %alloc : memref<1x3x230x230xf32>
    %alloc_1 = memref.alloc() {alignment = 64 : i64} : memref<1x3x230x230xf32>
    memref.copy %alloc, %alloc_1 : memref<1x3x230x230xf32> to memref<1x3x230x230xf32>
    %reinterpret_cast = memref.reinterpret_cast %alloc_1 to offset: [693], sizes: [1, 3, 224, 224], strides: [158700, 52900, 230, 1] : memref<1x3x230x230xf32> to memref<1x3x224x224xf32, strided<[158700, 52900, 230, 1], offset: 693>>
    memref.copy %arg0, %reinterpret_cast : memref<1x3x224x224xf32> to memref<1x3x224x224xf32, strided<[158700, 52900, 230, 1], offset: 693>>
    %alloc_2 = memref.alloc() {alignment = 64 : i64} : memref<1x64x112x112xf32>
    %c0_3 = arith.constant 0 : index
    %c1_4 = arith.constant 1 : index
    %c1_5 = arith.constant 1 : index
    scf.for %arg1 = %c0_3 to %c1_4 step %c1_5 {
      %c0_32 = arith.constant 0 : index
      %c64 = arith.constant 64 : index
      %c1_33 = arith.constant 1 : index
      scf.for %arg2 = %c0_32 to %c64 step %c1_33 {
        %c0_34 = arith.constant 0 : index
        %c112 = arith.constant 112 : index
        %c16 = arith.constant 16 : index
        scf.for %arg3 = %c0_34 to %c112 step %c16 {
          %5 = FDRA.BlockLoad %alloc_2 [0, %arg2, %arg3, 0] : memref<1x64x112x112xf32> -> memref<1x64x112x112xf32> {"forward_kernel_1"}
          FDRA.KernelCall @forward_kernel_1(%5) : (memref<1x64x112x112xf32>) -> ()
          FDRA.BlockStore %5,  %alloc_2 [0, %arg2, %arg3, 0] : memref<1x64x112x112xf32> -> memref<1x64x112x112xf32> {"forward_kernel_1"}
        }
      }
    }
    %alloc_6 = memref.alloc() {alignment = 64 : i64} : memref<1x64x112x112xf32>
    memref.copy %alloc_2, %alloc_6 : memref<1x64x112x112xf32> to memref<1x64x112x112xf32>
    memref.dealloc %alloc_2 : memref<1x64x112x112xf32>
    %c0_7 = arith.constant 0 : index
    %c1_8 = arith.constant 1 : index
    %c1_9 = arith.constant 1 : index
    scf.for %arg1 = %c0_7 to %c1_8 step %c1_9 {
      %c0_32 = arith.constant 0 : index
      %c64 = arith.constant 64 : index
      %c1_33 = arith.constant 1 : index
      scf.for %arg2 = %c0_32 to %c64 step %c1_33 {
        %c0_34 = arith.constant 0 : index
        %c112 = arith.constant 112 : index
        %c1_35 = arith.constant 1 : index
        scf.for %arg3 = %c0_34 to %c112 step %c1_35 {
          %c0_36 = arith.constant 0 : index
          %c112_37 = arith.constant 112 : index
          %c8 = arith.constant 8 : index
          scf.for %arg4 = %c0_36 to %c112_37 step %c8 {
            %5 = FDRA.BlockLoad %alloc_1 [0, 0, %arg3 * 2, %arg4 * 2] : memref<1x3x230x230xf32> -> memref<1x3x230x230xf32> {"forward_kernel_2"}
            %6 = FDRA.BlockLoad %0 [%arg2, 0, 0, 0] : memref<64x3x7x7xf32> -> memref<64x3x7x7xf32> {"forward_kernel_2"}
            %7 = FDRA.BlockLoad %alloc_6 [0, %arg2, %arg3, %arg4] : memref<1x64x112x112xf32> -> memref<1x64x112x112xf32> {"forward_kernel_2"}
            %8 = FDRA.BlockLoad %alloc_6 [0, %arg2, %arg3, %arg4] : memref<1x64x112x112xf32> -> memref<1x64x112x112xf32> {"forward_kernel_2"}
            FDRA.KernelCall @forward_kernel_2(%5, %6, %7, %8) : (memref<1x3x230x230xf32>, memref<64x3x7x7xf32>, memref<1x64x112x112xf32>, memref<1x64x112x112xf32>) -> ()
            FDRA.BlockStore %8,  %alloc_6 [0, %arg2, %arg3, %arg4] : memref<1x64x112x112xf32> -> memref<1x64x112x112xf32> {"forward_kernel_2"}
          }
        }
      }
    }
    %alloc_10 = memref.alloc() {alignment = 64 : i64} : memref<1x64x112x112xf32>
    %c0_11 = arith.constant 0 : index
    %c1_12 = arith.constant 1 : index
    %c1_13 = arith.constant 1 : index
    scf.for %arg1 = %c0_11 to %c1_12 step %c1_13 {
      %c0_32 = arith.constant 0 : index
      %c64 = arith.constant 64 : index
      %c1_33 = arith.constant 1 : index
      scf.for %arg2 = %c0_32 to %c64 step %c1_33 {
        %c0_34 = arith.constant 0 : index
        %c112 = arith.constant 112 : index
        %c16 = arith.constant 16 : index
        scf.for %arg3 = %c0_34 to %c112 step %c16 {
          %5 = FDRA.BlockLoad %alloc_6 [0, %arg2, %arg3, 0] : memref<1x64x112x112xf32> -> memref<1x64x112x112xf32> {"forward_kernel_3"}
          %6 = FDRA.BlockLoad %3 [%arg2] : memref<64xf32> -> memref<64xf32> {"forward_kernel_3"}
          %7 = FDRA.BlockLoad %4 [%arg2] : memref<64xf32> -> memref<64xf32> {"forward_kernel_3"}
          %8 = FDRA.BlockLoad %1 [%arg2] : memref<64xf32> -> memref<64xf32> {"forward_kernel_3"}
          %9 = FDRA.BlockLoad %2 [%arg2] : memref<64xf32> -> memref<64xf32> {"forward_kernel_3"}
          %10 = FDRA.BlockLoad %alloc_10 [0, %arg2, %arg3, 0] : memref<1x64x112x112xf32> -> memref<1x64x112x112xf32> {"forward_kernel_3"}
          FDRA.KernelCall @forward_kernel_3(%5, %6, %7, %8, %9, %10) : (memref<1x64x112x112xf32>, memref<64xf32>, memref<64xf32>, memref<64xf32>, memref<64xf32>, memref<1x64x112x112xf32>) -> ()
          FDRA.BlockStore %10,  %alloc_10 [0, %arg2, %arg3, 0] : memref<1x64x112x112xf32> -> memref<1x64x112x112xf32> {"forward_kernel_3"}
        }
      }
    }
    memref.dealloc %alloc_6 : memref<1x64x112x112xf32>
    %alloc_14 = memref.alloc() {alignment = 64 : i64} : memref<1x64x112x112xf32>
    %c0_15 = arith.constant 0 : index
    %c1_16 = arith.constant 1 : index
    %c1_17 = arith.constant 1 : index
    scf.for %arg1 = %c0_15 to %c1_16 step %c1_17 {
      %c0_32 = arith.constant 0 : index
      %c64 = arith.constant 64 : index
      %c1_33 = arith.constant 1 : index
      scf.for %arg2 = %c0_32 to %c64 step %c1_33 {
        %c0_34 = arith.constant 0 : index
        %c112 = arith.constant 112 : index
        %c16 = arith.constant 16 : index
        scf.for %arg3 = %c0_34 to %c112 step %c16 {
          %5 = FDRA.BlockLoad %alloc_10 [0, %arg2, %arg3, 0] : memref<1x64x112x112xf32> -> memref<1x64x112x112xf32> {"forward_kernel_4"}
          %6 = FDRA.BlockLoad %alloc_14 [0, %arg2, %arg3, 0] : memref<1x64x112x112xf32> -> memref<1x64x112x112xf32> {"forward_kernel_4"}
          FDRA.KernelCall @forward_kernel_4(%5, %6) : (memref<1x64x112x112xf32>, memref<1x64x112x112xf32>) -> ()
          FDRA.BlockStore %6,  %alloc_14 [0, %arg2, %arg3, 0] : memref<1x64x112x112xf32> -> memref<1x64x112x112xf32> {"forward_kernel_4"}
        }
      }
    }
    memref.dealloc %alloc_10 : memref<1x64x112x112xf32>
    memref.dealloc %alloc_14 : memref<1x64x112x112xf32>
    %alloc_18 = memref.alloc() {alignment = 64 : i64} : memref<1x64x114x114xf32>
    %c0_19 = arith.constant 0 : index
    %c1_20 = arith.constant 1 : index
    %c1_21 = arith.constant 1 : index
    scf.for %arg1 = %c0_19 to %c1_20 step %c1_21 {
      %c0_32 = arith.constant 0 : index
      %c64 = arith.constant 64 : index
      %c1_33 = arith.constant 1 : index
      scf.for %arg2 = %c0_32 to %c64 step %c1_33 {
        %c0_34 = arith.constant 0 : index
        %c114 = arith.constant 114 : index
        %c6 = arith.constant 6 : index
        scf.for %arg3 = %c0_34 to %c114 step %c6 {
          %5 = FDRA.BlockLoad %alloc_18 [0, %arg2, %arg3, 0] : memref<1x64x114x114xf32> -> memref<1x64x114x114xf32> {"forward_kernel_5"}
          FDRA.KernelCall @forward_kernel_5(%5) : (memref<1x64x114x114xf32>) -> ()
          FDRA.BlockStore %5,  %alloc_18 [0, %arg2, %arg3, 0] : memref<1x64x114x114xf32> -> memref<1x64x114x114xf32> {"forward_kernel_5"}
        }
      }
    }
    memref.dealloc %alloc_18 : memref<1x64x114x114xf32>
    %alloc_22 = memref.alloc() {alignment = 64 : i64} : memref<1x64x114x114xf32>
    memref.copy %alloc_18, %alloc_22 : memref<1x64x114x114xf32> to memref<1x64x114x114xf32>
    %reinterpret_cast_23 = memref.reinterpret_cast %alloc_22 to offset: [115], sizes: [1, 64, 112, 112], strides: [831744, 12996, 114, 1] : memref<1x64x114x114xf32> to memref<1x64x112x112xf32, strided<[831744, 12996, 114, 1], offset: 115>>
    memref.copy %alloc_14, %reinterpret_cast_23 : memref<1x64x112x112xf32> to memref<1x64x112x112xf32, strided<[831744, 12996, 114, 1], offset: 115>>
    %alloc_24 = memref.alloc() {alignment = 64 : i64} : memref<1x64x56x56xf32>
    %c0_25 = arith.constant 0 : index
    %c1_26 = arith.constant 1 : index
    %c1_27 = arith.constant 1 : index
    scf.for %arg1 = %c0_25 to %c1_26 step %c1_27 {
      %c0_32 = arith.constant 0 : index
      %c64 = arith.constant 64 : index
      %c1_33 = arith.constant 1 : index
      scf.for %arg2 = %c0_32 to %c64 step %c1_33 {
        %c0_34 = arith.constant 0 : index
        %c56 = arith.constant 56 : index
        %c28 = arith.constant 28 : index
        scf.for %arg3 = %c0_34 to %c56 step %c28 {
          %5 = FDRA.BlockLoad %alloc_24 [0, %arg2, %arg3, 0] : memref<1x64x56x56xf32> -> memref<1x64x56x56xf32> {"forward_kernel_6"}
          FDRA.KernelCall @forward_kernel_6(%5) : (memref<1x64x56x56xf32>) -> ()
          FDRA.BlockStore %5,  %alloc_24 [0, %arg2, %arg3, 0] : memref<1x64x56x56xf32> -> memref<1x64x56x56xf32> {"forward_kernel_6"}
        }
      }
    }
    %alloc_28 = memref.alloc() {alignment = 64 : i64} : memref<1x64x56x56xf32>
    memref.copy %alloc_24, %alloc_28 : memref<1x64x56x56xf32> to memref<1x64x56x56xf32>
    memref.dealloc %alloc_24 : memref<1x64x56x56xf32>
    %c0_29 = arith.constant 0 : index
    %c1_30 = arith.constant 1 : index
    %c1_31 = arith.constant 1 : index
    scf.for %arg1 = %c0_29 to %c1_30 step %c1_31 {
      %c0_32 = arith.constant 0 : index
      %c64 = arith.constant 64 : index
      %c1_33 = arith.constant 1 : index
      scf.for %arg2 = %c0_32 to %c64 step %c1_33 {
        %c0_34 = arith.constant 0 : index
        %c56 = arith.constant 56 : index
        %c4 = arith.constant 4 : index
        scf.for %arg3 = %c0_34 to %c56 step %c4 {
          %5 = FDRA.BlockLoad %alloc_22 [0, %arg2, %arg3 * 2, 0] : memref<1x64x114x114xf32> -> memref<1x64x114x114xf32> {"forward_kernel_7"}
          %6 = FDRA.BlockLoad %alloc_28 [0, %arg2, %arg3, 0] : memref<1x64x56x56xf32> -> memref<1x64x56x56xf32> {"forward_kernel_7"}
          %7 = FDRA.BlockLoad %alloc_28 [0, %arg2, %arg3, 0] : memref<1x64x56x56xf32> -> memref<1x64x56x56xf32> {"forward_kernel_7"}
          FDRA.KernelCall @forward_kernel_7(%5, %6, %7) : (memref<1x64x114x114xf32>, memref<1x64x56x56xf32>, memref<1x64x56x56xf32>) -> ()
          FDRA.BlockStore %7,  %alloc_28 [0, %arg2, %arg3, 0] : memref<1x64x56x56xf32> -> memref<1x64x56x56xf32> {"forward_kernel_7"}
        }
      }
    }
    memref.dealloc %alloc_28 : memref<1x64x56x56xf32>
    return %alloc_28 : memref<1x64x56x56xf32>
  }
  func.func @forward_kernel_0(%arg0: memref<1x3x230x230xf32>) attributes {Kernel, forward_kernel_0} {
    %cst = arith.constant 0.000000e+00 : f32
    cf.br ^bb1
  ^bb1:  // pred: ^bb0
    %c0 = arith.constant 0 : index
    %c5 = arith.constant 5 : index
    %c1 = arith.constant 1 : index
    scf.for %arg1 = %c0 to %c5 step %c1 {
      %c0_0 = arith.constant 0 : index
      %c230 = arith.constant 230 : index
      %c1_1 = arith.constant 1 : index
      scf.for %arg2 = %c0_0 to %c230 step %c1_1 {
        %c0_2 = arith.constant 0 : index
        %c0_3 = arith.constant 0 : index
        memref.store %cst, %arg0[%c0_2, %c0_3, %arg1, %arg2] : memref<1x3x230x230xf32>
      }
    }
    return
  }
  func.func @forward_kernel_1(%arg0: memref<1x64x112x112xf32>) attributes {Kernel, forward_kernel_1} {
    %cst = arith.constant 0.000000e+00 : f32
    cf.br ^bb1
  ^bb1:  // pred: ^bb0
    %c0 = arith.constant 0 : index
    %c16 = arith.constant 16 : index
    %c1 = arith.constant 1 : index
    scf.for %arg1 = %c0 to %c16 step %c1 {
      %c0_0 = arith.constant 0 : index
      %c112 = arith.constant 112 : index
      %c1_1 = arith.constant 1 : index
      scf.for %arg2 = %c0_0 to %c112 step %c1_1 {
        %c0_2 = arith.constant 0 : index
        %c0_3 = arith.constant 0 : index
        memref.store %cst, %arg0[%c0_2, %c0_3, %arg1, %arg2] : memref<1x64x112x112xf32>
      }
    }
    return
  }
  func.func @forward_kernel_2(%arg0: memref<1x3x230x230xf32>, %arg1: memref<64x3x7x7xf32>, %arg2: memref<1x64x112x112xf32>, %arg3: memref<1x64x112x112xf32>) attributes {Kernel, forward_kernel_2} {
    cf.br ^bb1
  ^bb1:  // pred: ^bb0
    %c0 = arith.constant 0 : index
    %c8 = arith.constant 8 : index
    %c1 = arith.constant 1 : index
    scf.for %arg4 = %c0 to %c8 step %c1 {
      %c0_0 = arith.constant 0 : index
      %c3 = arith.constant 3 : index
      %c1_1 = arith.constant 1 : index
      scf.for %arg5 = %c0_0 to %c3 step %c1_1 {
        %c0_2 = arith.constant 0 : index
        %c7 = arith.constant 7 : index
        %c1_3 = arith.constant 1 : index
        scf.for %arg6 = %c0_2 to %c7 step %c1_3 {
          %c0_4 = arith.constant 0 : index
          %c7_5 = arith.constant 7 : index
          %c1_6 = arith.constant 1 : index
          scf.for %arg7 = %c0_4 to %c7_5 step %c1_6 {
            %c0_7 = arith.constant 0 : index
            %c2 = arith.constant 2 : index
            %0 = arith.muli %arg4, %c2 : index
            %1 = arith.addi %0, %arg7 : index
            %2 = memref.load %arg0[%c0_7, %arg5, %arg6, %1] : memref<1x3x230x230xf32>
            %c0_8 = arith.constant 0 : index
            %3 = memref.load %arg1[%c0_8, %arg5, %arg6, %arg7] : memref<64x3x7x7xf32>
            %c0_9 = arith.constant 0 : index
            %c0_10 = arith.constant 0 : index
            %c0_11 = arith.constant 0 : index
            %4 = memref.load %arg2[%c0_9, %c0_10, %c0_11, %arg4] : memref<1x64x112x112xf32>
            %5 = arith.mulf %2, %3 : f32
            %6 = arith.addf %4, %5 : f32
            %c0_12 = arith.constant 0 : index
            %c0_13 = arith.constant 0 : index
            %c0_14 = arith.constant 0 : index
            memref.store %6, %arg3[%c0_12, %c0_13, %c0_14, %arg4] : memref<1x64x112x112xf32>
          }
        }
      }
    }
    return
  }
  func.func @forward_kernel_3(%arg0: memref<1x64x112x112xf32>, %arg1: memref<64xf32>, %arg2: memref<64xf32>, %arg3: memref<64xf32>, %arg4: memref<64xf32>, %arg5: memref<1x64x112x112xf32>) attributes {Kernel, forward_kernel_3} {
    %cst = arith.constant 1.500000e+00 : f32
    %c1597463007_i32 = arith.constant 1597463007 : i32
    %c1_i32 = arith.constant 1 : i32
    %cst_0 = arith.constant 5.000000e-01 : f32
    %cst_1 = arith.constant 1.000000e-05 : f64
    cf.br ^bb1
  ^bb1:  // pred: ^bb0
    %c0 = arith.constant 0 : index
    %c16 = arith.constant 16 : index
    %c1 = arith.constant 1 : index
    scf.for %arg6 = %c0 to %c16 step %c1 {
      %c0_2 = arith.constant 0 : index
      %c112 = arith.constant 112 : index
      %c1_3 = arith.constant 1 : index
      scf.for %arg7 = %c0_2 to %c112 step %c1_3 {
        %c0_4 = arith.constant 0 : index
        %c0_5 = arith.constant 0 : index
        %0 = memref.load %arg0[%c0_4, %c0_5, %arg6, %arg7] : memref<1x64x112x112xf32>
        %c0_6 = arith.constant 0 : index
        %1 = memref.load %arg1[%c0_6] : memref<64xf32>
        %c0_7 = arith.constant 0 : index
        %2 = memref.load %arg2[%c0_7] : memref<64xf32>
        %c0_8 = arith.constant 0 : index
        %3 = memref.load %arg3[%c0_8] : memref<64xf32>
        %c0_9 = arith.constant 0 : index
        %4 = memref.load %arg4[%c0_9] : memref<64xf32>
        %5 = arith.truncf %cst_1 : f64 to f32
        %6 = arith.addf %4, %5 : f32
        %7 = arith.mulf %6, %cst_0 : f32
        %8 = arith.bitcast %6 : f32 to i32
        %9 = arith.shrui %8, %c1_i32 : i32
        %10 = arith.subi %c1597463007_i32, %9 : i32
        %11 = arith.bitcast %10 : i32 to f32
        %12 = arith.mulf %11, %11 : f32
        %13 = arith.mulf %12, %7 : f32
        %14 = arith.subf %cst, %13 : f32
        %15 = arith.mulf %14, %12 : f32
        %16 = arith.subf %0, %3 : f32
        %17 = arith.mulf %16, %15 : f32
        %18 = arith.mulf %17, %1 : f32
        %19 = arith.addf %18, %2 : f32
        %c0_10 = arith.constant 0 : index
        %c0_11 = arith.constant 0 : index
        memref.store %19, %arg5[%c0_10, %c0_11, %arg6, %arg7] : memref<1x64x112x112xf32>
      }
    }
    return
  }
  func.func @forward_kernel_4(%arg0: memref<1x64x112x112xf32>, %arg1: memref<1x64x112x112xf32>) attributes {Kernel, forward_kernel_4} {
    %cst = arith.constant 0.000000e+00 : f32
    cf.br ^bb1
  ^bb1:  // pred: ^bb0
    %c0 = arith.constant 0 : index
    %c16 = arith.constant 16 : index
    %c1 = arith.constant 1 : index
    scf.for %arg2 = %c0 to %c16 step %c1 {
      %c0_0 = arith.constant 0 : index
      %c112 = arith.constant 112 : index
      %c1_1 = arith.constant 1 : index
      scf.for %arg3 = %c0_0 to %c112 step %c1_1 {
        %c0_2 = arith.constant 0 : index
        %c0_3 = arith.constant 0 : index
        %0 = memref.load %arg0[%c0_2, %c0_3, %arg2, %arg3] : memref<1x64x112x112xf32>
        %1 = arith.cmpf ugt, %0, %cst : f32
        %2 = arith.select %1, %0, %cst : f32
        %c0_4 = arith.constant 0 : index
        %c0_5 = arith.constant 0 : index
        memref.store %2, %arg1[%c0_4, %c0_5, %arg2, %arg3] : memref<1x64x112x112xf32>
      }
    }
    return
  }
  func.func @forward_kernel_5(%arg0: memref<1x64x114x114xf32>) attributes {Kernel, forward_kernel_5} {
    %cst = arith.constant 0xFF800000 : f32
    cf.br ^bb1
  ^bb1:  // pred: ^bb0
    %c0 = arith.constant 0 : index
    %c6 = arith.constant 6 : index
    %c1 = arith.constant 1 : index
    scf.for %arg1 = %c0 to %c6 step %c1 {
      %c0_0 = arith.constant 0 : index
      %c114 = arith.constant 114 : index
      %c1_1 = arith.constant 1 : index
      scf.for %arg2 = %c0_0 to %c114 step %c1_1 {
        %c0_2 = arith.constant 0 : index
        %c0_3 = arith.constant 0 : index
        memref.store %cst, %arg0[%c0_2, %c0_3, %arg1, %arg2] : memref<1x64x114x114xf32>
      }
    }
    return
  }
  func.func @forward_kernel_6(%arg0: memref<1x64x56x56xf32>) attributes {Kernel, forward_kernel_6} {
    %cst = arith.constant 0xFF800000 : f32
    cf.br ^bb1
  ^bb1:  // pred: ^bb0
    %c0 = arith.constant 0 : index
    %c28 = arith.constant 28 : index
    %c1 = arith.constant 1 : index
    scf.for %arg1 = %c0 to %c28 step %c1 {
      %c0_0 = arith.constant 0 : index
      %c56 = arith.constant 56 : index
      %c1_1 = arith.constant 1 : index
      scf.for %arg2 = %c0_0 to %c56 step %c1_1 {
        %c0_2 = arith.constant 0 : index
        %c0_3 = arith.constant 0 : index
        memref.store %cst, %arg0[%c0_2, %c0_3, %arg1, %arg2] : memref<1x64x56x56xf32>
      }
    }
    return
  }
  func.func @forward_kernel_7(%arg0: memref<1x64x114x114xf32>, %arg1: memref<1x64x56x56xf32>, %arg2: memref<1x64x56x56xf32>) attributes {Kernel, forward_kernel_7} {
    cf.br ^bb1
  ^bb1:  // pred: ^bb0
    %c0 = arith.constant 0 : index
    %c4 = arith.constant 4 : index
    %c1 = arith.constant 1 : index
    scf.for %arg3 = %c0 to %c4 step %c1 {
      %c0_0 = arith.constant 0 : index
      %c56 = arith.constant 56 : index
      %c1_1 = arith.constant 1 : index
      scf.for %arg4 = %c0_0 to %c56 step %c1_1 {
        %c0_2 = arith.constant 0 : index
        %c3 = arith.constant 3 : index
        %c1_3 = arith.constant 1 : index
        scf.for %arg5 = %c0_2 to %c3 step %c1_3 {
          %c0_4 = arith.constant 0 : index
          %c3_5 = arith.constant 3 : index
          %c1_6 = arith.constant 1 : index
          scf.for %arg6 = %c0_4 to %c3_5 step %c1_6 {
            %c0_7 = arith.constant 0 : index
            %c0_8 = arith.constant 0 : index
            %c2 = arith.constant 2 : index
            %0 = arith.muli %arg3, %c2 : index
            %1 = arith.addi %0, %arg5 : index
            %c2_9 = arith.constant 2 : index
            %2 = arith.muli %arg4, %c2_9 : index
            %3 = arith.addi %2, %arg6 : index
            %4 = memref.load %arg0[%c0_7, %c0_8, %1, %3] : memref<1x64x114x114xf32>
            %c0_10 = arith.constant 0 : index
            %c0_11 = arith.constant 0 : index
            %5 = memref.load %arg1[%c0_10, %c0_11, %arg3, %arg4] : memref<1x64x56x56xf32>
            %6 = arith.cmpf ugt, %5, %4 : f32
            %7 = arith.select %6, %5, %4 : f32
            %8 = arith.cmpf uno, %4, %4 : f32
            %9 = arith.select %8, %4, %7 : f32
            %c0_12 = arith.constant 0 : index
            %c0_13 = arith.constant 0 : index
            memref.store %9, %arg2[%c0_12, %c0_13, %arg3, %arg4] : memref<1x64x56x56xf32>
          }
        }
      }
    }
    return
  }
}


// -----// IR Dump After SCFForLoopCanonicalization (scf-for-loop-canonicalization) //----- //
module attributes {torch.debug_module_name = "ResNet"} {
  memref.global "private" constant @__constant_64xf32_2 : memref<64xf32> = dense<[… >
  memref.global "private" constant @__constant_64xf32_1 : memref<64xf32> = dense<[… >
  memref.global "private" constant @__constant_64xf32_0 : memref<64xf32> = dense<[… >
  memref.global "private" constant @__constant_64xf32 : memref<64xf32> = dense<[… >
  memref.global "private" constant @__constant_64x3x7x7xf32 : memref<64x3x7x7xf32> = dense<"…">
  ml_program.global private mutable @global_seed(dense<0> : tensor<i64>) : tensor<i64>
  func.func @forward(%arg0: memref<1x3x224x224xf32>) -> memref<1x64x56x56xf32> {
    %c4 = arith.constant 4 : index
    %c28 = arith.constant 28 : index
    %c56 = arith.constant 56 : index
    %c6 = arith.constant 6 : index
    %c114 = arith.constant 114 : index
    %c8 = arith.constant 8 : index
    %c16 = arith.constant 16 : index
    %c112 = arith.constant 112 : index
    %c64 = arith.constant 64 : index
    %c5 = arith.constant 5 : index
    %c230 = arith.constant 230 : index
    %c3 = arith.constant 3 : index
    %c1 = arith.constant 1 : index
    %c0 = arith.constant 0 : index
    %0 = memref.get_global @__constant_64x3x7x7xf32 : memref<64x3x7x7xf32>
    %1 = memref.get_global @__constant_64xf32 : memref<64xf32>
    %2 = memref.get_global @__constant_64xf32_0 : memref<64xf32>
    %3 = memref.get_global @__constant_64xf32_1 : memref<64xf32>
    %4 = memref.get_global @__constant_64xf32_2 : memref<64xf32>
    %alloc = memref.alloc() {alignment = 64 : i64} : memref<1x3x230x230xf32>
    scf.for %arg1 = %c0 to %c1 step %c1 {
      scf.for %arg2 = %c0 to %c3 step %c1 {
        scf.for %arg3 = %c0 to %c230 step %c5 {
          %5 = FDRA.BlockLoad %alloc [0, %arg2, %arg3, 0] : memref<1x3x230x230xf32> -> memref<1x3x230x230xf32> {"forward_kernel_0"}
          FDRA.KernelCall @forward_kernel_0(%5) : (memref<1x3x230x230xf32>) -> ()
          FDRA.BlockStore %5,  %alloc [0, %arg2, %arg3, 0] : memref<1x3x230x230xf32> -> memref<1x3x230x230xf32> {"forward_kernel_0"}
        }
      }
    }
    memref.dealloc %alloc : memref<1x3x230x230xf32>
    %alloc_0 = memref.alloc() {alignment = 64 : i64} : memref<1x3x230x230xf32>
    memref.copy %alloc, %alloc_0 : memref<1x3x230x230xf32> to memref<1x3x230x230xf32>
    %reinterpret_cast = memref.reinterpret_cast %alloc_0 to offset: [693], sizes: [1, 3, 224, 224], strides: [158700, 52900, 230, 1] : memref<1x3x230x230xf32> to memref<1x3x224x224xf32, strided<[158700, 52900, 230, 1], offset: 693>>
    memref.copy %arg0, %reinterpret_cast : memref<1x3x224x224xf32> to memref<1x3x224x224xf32, strided<[158700, 52900, 230, 1], offset: 693>>
    %alloc_1 = memref.alloc() {alignment = 64 : i64} : memref<1x64x112x112xf32>
    scf.for %arg1 = %c0 to %c1 step %c1 {
      scf.for %arg2 = %c0 to %c64 step %c1 {
        scf.for %arg3 = %c0 to %c112 step %c16 {
          %5 = FDRA.BlockLoad %alloc_1 [0, %arg2, %arg3, 0] : memref<1x64x112x112xf32> -> memref<1x64x112x112xf32> {"forward_kernel_1"}
          FDRA.KernelCall @forward_kernel_1(%5) : (memref<1x64x112x112xf32>) -> ()
          FDRA.BlockStore %5,  %alloc_1 [0, %arg2, %arg3, 0] : memref<1x64x112x112xf32> -> memref<1x64x112x112xf32> {"forward_kernel_1"}
        }
      }
    }
    %alloc_2 = memref.alloc() {alignment = 64 : i64} : memref<1x64x112x112xf32>
    memref.copy %alloc_1, %alloc_2 : memref<1x64x112x112xf32> to memref<1x64x112x112xf32>
    memref.dealloc %alloc_1 : memref<1x64x112x112xf32>
    scf.for %arg1 = %c0 to %c1 step %c1 {
      scf.for %arg2 = %c0 to %c64 step %c1 {
        scf.for %arg3 = %c0 to %c112 step %c1 {
          scf.for %arg4 = %c0 to %c112 step %c8 {
            %5 = FDRA.BlockLoad %alloc_0 [0, 0, %arg3 * 2, %arg4 * 2] : memref<1x3x230x230xf32> -> memref<1x3x230x230xf32> {"forward_kernel_2"}
            %6 = FDRA.BlockLoad %0 [%arg2, 0, 0, 0] : memref<64x3x7x7xf32> -> memref<64x3x7x7xf32> {"forward_kernel_2"}
            %7 = FDRA.BlockLoad %alloc_2 [0, %arg2, %arg3, %arg4] : memref<1x64x112x112xf32> -> memref<1x64x112x112xf32> {"forward_kernel_2"}
            %8 = FDRA.BlockLoad %alloc_2 [0, %arg2, %arg3, %arg4] : memref<1x64x112x112xf32> -> memref<1x64x112x112xf32> {"forward_kernel_2"}
            FDRA.KernelCall @forward_kernel_2(%5, %6, %7, %8) : (memref<1x3x230x230xf32>, memref<64x3x7x7xf32>, memref<1x64x112x112xf32>, memref<1x64x112x112xf32>) -> ()
            FDRA.BlockStore %8,  %alloc_2 [0, %arg2, %arg3, %arg4] : memref<1x64x112x112xf32> -> memref<1x64x112x112xf32> {"forward_kernel_2"}
          }
        }
      }
    }
    %alloc_3 = memref.alloc() {alignment = 64 : i64} : memref<1x64x112x112xf32>
    scf.for %arg1 = %c0 to %c1 step %c1 {
      scf.for %arg2 = %c0 to %c64 step %c1 {
        scf.for %arg3 = %c0 to %c112 step %c16 {
          %5 = FDRA.BlockLoad %alloc_2 [0, %arg2, %arg3, 0] : memref<1x64x112x112xf32> -> memref<1x64x112x112xf32> {"forward_kernel_3"}
          %6 = FDRA.BlockLoad %3 [%arg2] : memref<64xf32> -> memref<64xf32> {"forward_kernel_3"}
          %7 = FDRA.BlockLoad %4 [%arg2] : memref<64xf32> -> memref<64xf32> {"forward_kernel_3"}
          %8 = FDRA.BlockLoad %1 [%arg2] : memref<64xf32> -> memref<64xf32> {"forward_kernel_3"}
          %9 = FDRA.BlockLoad %2 [%arg2] : memref<64xf32> -> memref<64xf32> {"forward_kernel_3"}
          %10 = FDRA.BlockLoad %alloc_3 [0, %arg2, %arg3, 0] : memref<1x64x112x112xf32> -> memref<1x64x112x112xf32> {"forward_kernel_3"}
          FDRA.KernelCall @forward_kernel_3(%5, %6, %7, %8, %9, %10) : (memref<1x64x112x112xf32>, memref<64xf32>, memref<64xf32>, memref<64xf32>, memref<64xf32>, memref<1x64x112x112xf32>) -> ()
          FDRA.BlockStore %10,  %alloc_3 [0, %arg2, %arg3, 0] : memref<1x64x112x112xf32> -> memref<1x64x112x112xf32> {"forward_kernel_3"}
        }
      }
    }
    memref.dealloc %alloc_2 : memref<1x64x112x112xf32>
    %alloc_4 = memref.alloc() {alignment = 64 : i64} : memref<1x64x112x112xf32>
    scf.for %arg1 = %c0 to %c1 step %c1 {
      scf.for %arg2 = %c0 to %c64 step %c1 {
        scf.for %arg3 = %c0 to %c112 step %c16 {
          %5 = FDRA.BlockLoad %alloc_3 [0, %arg2, %arg3, 0] : memref<1x64x112x112xf32> -> memref<1x64x112x112xf32> {"forward_kernel_4"}
          %6 = FDRA.BlockLoad %alloc_4 [0, %arg2, %arg3, 0] : memref<1x64x112x112xf32> -> memref<1x64x112x112xf32> {"forward_kernel_4"}
          FDRA.KernelCall @forward_kernel_4(%5, %6) : (memref<1x64x112x112xf32>, memref<1x64x112x112xf32>) -> ()
          FDRA.BlockStore %6,  %alloc_4 [0, %arg2, %arg3, 0] : memref<1x64x112x112xf32> -> memref<1x64x112x112xf32> {"forward_kernel_4"}
        }
      }
    }
    memref.dealloc %alloc_3 : memref<1x64x112x112xf32>
    memref.dealloc %alloc_4 : memref<1x64x112x112xf32>
    %alloc_5 = memref.alloc() {alignment = 64 : i64} : memref<1x64x114x114xf32>
    scf.for %arg1 = %c0 to %c1 step %c1 {
      scf.for %arg2 = %c0 to %c64 step %c1 {
        scf.for %arg3 = %c0 to %c114 step %c6 {
          %5 = FDRA.BlockLoad %alloc_5 [0, %arg2, %arg3, 0] : memref<1x64x114x114xf32> -> memref<1x64x114x114xf32> {"forward_kernel_5"}
          FDRA.KernelCall @forward_kernel_5(%5) : (memref<1x64x114x114xf32>) -> ()
          FDRA.BlockStore %5,  %alloc_5 [0, %arg2, %arg3, 0] : memref<1x64x114x114xf32> -> memref<1x64x114x114xf32> {"forward_kernel_5"}
        }
      }
    }
    memref.dealloc %alloc_5 : memref<1x64x114x114xf32>
    %alloc_6 = memref.alloc() {alignment = 64 : i64} : memref<1x64x114x114xf32>
    memref.copy %alloc_5, %alloc_6 : memref<1x64x114x114xf32> to memref<1x64x114x114xf32>
    %reinterpret_cast_7 = memref.reinterpret_cast %alloc_6 to offset: [115], sizes: [1, 64, 112, 112], strides: [831744, 12996, 114, 1] : memref<1x64x114x114xf32> to memref<1x64x112x112xf32, strided<[831744, 12996, 114, 1], offset: 115>>
    memref.copy %alloc_4, %reinterpret_cast_7 : memref<1x64x112x112xf32> to memref<1x64x112x112xf32, strided<[831744, 12996, 114, 1], offset: 115>>
    %alloc_8 = memref.alloc() {alignment = 64 : i64} : memref<1x64x56x56xf32>
    scf.for %arg1 = %c0 to %c1 step %c1 {
      scf.for %arg2 = %c0 to %c64 step %c1 {
        scf.for %arg3 = %c0 to %c56 step %c28 {
          %5 = FDRA.BlockLoad %alloc_8 [0, %arg2, %arg3, 0] : memref<1x64x56x56xf32> -> memref<1x64x56x56xf32> {"forward_kernel_6"}
          FDRA.KernelCall @forward_kernel_6(%5) : (memref<1x64x56x56xf32>) -> ()
          FDRA.BlockStore %5,  %alloc_8 [0, %arg2, %arg3, 0] : memref<1x64x56x56xf32> -> memref<1x64x56x56xf32> {"forward_kernel_6"}
        }
      }
    }
    %alloc_9 = memref.alloc() {alignment = 64 : i64} : memref<1x64x56x56xf32>
    memref.copy %alloc_8, %alloc_9 : memref<1x64x56x56xf32> to memref<1x64x56x56xf32>
    memref.dealloc %alloc_8 : memref<1x64x56x56xf32>
    scf.for %arg1 = %c0 to %c1 step %c1 {
      scf.for %arg2 = %c0 to %c64 step %c1 {
        scf.for %arg3 = %c0 to %c56 step %c4 {
          %5 = FDRA.BlockLoad %alloc_6 [0, %arg2, %arg3 * 2, 0] : memref<1x64x114x114xf32> -> memref<1x64x114x114xf32> {"forward_kernel_7"}
          %6 = FDRA.BlockLoad %alloc_9 [0, %arg2, %arg3, 0] : memref<1x64x56x56xf32> -> memref<1x64x56x56xf32> {"forward_kernel_7"}
          %7 = FDRA.BlockLoad %alloc_9 [0, %arg2, %arg3, 0] : memref<1x64x56x56xf32> -> memref<1x64x56x56xf32> {"forward_kernel_7"}
          FDRA.KernelCall @forward_kernel_7(%5, %6, %7) : (memref<1x64x114x114xf32>, memref<1x64x56x56xf32>, memref<1x64x56x56xf32>) -> ()
          FDRA.BlockStore %7,  %alloc_9 [0, %arg2, %arg3, 0] : memref<1x64x56x56xf32> -> memref<1x64x56x56xf32> {"forward_kernel_7"}
        }
      }
    }
    memref.dealloc %alloc_9 : memref<1x64x56x56xf32>
    return %alloc_9 : memref<1x64x56x56xf32>
  }
  func.func @forward_kernel_0(%arg0: memref<1x3x230x230xf32>) attributes {Kernel, forward_kernel_0} {
    %c230 = arith.constant 230 : index
    %c1 = arith.constant 1 : index
    %c5 = arith.constant 5 : index
    %c0 = arith.constant 0 : index
    %cst = arith.constant 0.000000e+00 : f32
    cf.br ^bb1
  ^bb1:  // pred: ^bb0
    scf.for %arg1 = %c0 to %c5 step %c1 {
      scf.for %arg2 = %c0 to %c230 step %c1 {
        memref.store %cst, %arg0[%c0, %c0, %arg1, %arg2] : memref<1x3x230x230xf32>
      }
    }
    return
  }
  func.func @forward_kernel_1(%arg0: memref<1x64x112x112xf32>) attributes {Kernel, forward_kernel_1} {
    %c112 = arith.constant 112 : index
    %c1 = arith.constant 1 : index
    %c16 = arith.constant 16 : index
    %c0 = arith.constant 0 : index
    %cst = arith.constant 0.000000e+00 : f32
    cf.br ^bb1
  ^bb1:  // pred: ^bb0
    scf.for %arg1 = %c0 to %c16 step %c1 {
      scf.for %arg2 = %c0 to %c112 step %c1 {
        memref.store %cst, %arg0[%c0, %c0, %arg1, %arg2] : memref<1x64x112x112xf32>
      }
    }
    return
  }
  func.func @forward_kernel_2(%arg0: memref<1x3x230x230xf32>, %arg1: memref<64x3x7x7xf32>, %arg2: memref<1x64x112x112xf32>, %arg3: memref<1x64x112x112xf32>) attributes {Kernel, forward_kernel_2} {
    %c2 = arith.constant 2 : index
    %c7 = arith.constant 7 : index
    %c3 = arith.constant 3 : index
    %c1 = arith.constant 1 : index
    %c8 = arith.constant 8 : index
    %c0 = arith.constant 0 : index
    cf.br ^bb1
  ^bb1:  // pred: ^bb0
    scf.for %arg4 = %c0 to %c8 step %c1 {
      scf.for %arg5 = %c0 to %c3 step %c1 {
        scf.for %arg6 = %c0 to %c7 step %c1 {
          scf.for %arg7 = %c0 to %c7 step %c1 {
            %0 = arith.muli %arg4, %c2 : index
            %1 = arith.addi %0, %arg7 : index
            %2 = memref.load %arg0[%c0, %arg5, %arg6, %1] : memref<1x3x230x230xf32>
            %3 = memref.load %arg1[%c0, %arg5, %arg6, %arg7] : memref<64x3x7x7xf32>
            %4 = memref.load %arg2[%c0, %c0, %c0, %arg4] : memref<1x64x112x112xf32>
            %5 = arith.mulf %2, %3 : f32
            %6 = arith.addf %4, %5 : f32
            memref.store %6, %arg3[%c0, %c0, %c0, %arg4] : memref<1x64x112x112xf32>
          }
        }
      }
    }
    return
  }
  func.func @forward_kernel_3(%arg0: memref<1x64x112x112xf32>, %arg1: memref<64xf32>, %arg2: memref<64xf32>, %arg3: memref<64xf32>, %arg4: memref<64xf32>, %arg5: memref<1x64x112x112xf32>) attributes {Kernel, forward_kernel_3} {
    %c112 = arith.constant 112 : index
    %c1 = arith.constant 1 : index
    %c16 = arith.constant 16 : index
    %c0 = arith.constant 0 : index
    %cst = arith.constant 1.500000e+00 : f32
    %c1597463007_i32 = arith.constant 1597463007 : i32
    %c1_i32 = arith.constant 1 : i32
    %cst_0 = arith.constant 5.000000e-01 : f32
    %cst_1 = arith.constant 1.000000e-05 : f64
    cf.br ^bb1
  ^bb1:  // pred: ^bb0
    scf.for %arg6 = %c0 to %c16 step %c1 {
      scf.for %arg7 = %c0 to %c112 step %c1 {
        %0 = memref.load %arg0[%c0, %c0, %arg6, %arg7] : memref<1x64x112x112xf32>
        %1 = memref.load %arg1[%c0] : memref<64xf32>
        %2 = memref.load %arg2[%c0] : memref<64xf32>
        %3 = memref.load %arg3[%c0] : memref<64xf32>
        %4 = memref.load %arg4[%c0] : memref<64xf32>
        %5 = arith.truncf %cst_1 : f64 to f32
        %6 = arith.addf %4, %5 : f32
        %7 = arith.mulf %6, %cst_0 : f32
        %8 = arith.bitcast %6 : f32 to i32
        %9 = arith.shrui %8, %c1_i32 : i32
        %10 = arith.subi %c1597463007_i32, %9 : i32
        %11 = arith.bitcast %10 : i32 to f32
        %12 = arith.mulf %11, %11 : f32
        %13 = arith.mulf %12, %7 : f32
        %14 = arith.subf %cst, %13 : f32
        %15 = arith.mulf %14, %12 : f32
        %16 = arith.subf %0, %3 : f32
        %17 = arith.mulf %16, %15 : f32
        %18 = arith.mulf %17, %1 : f32
        %19 = arith.addf %18, %2 : f32
        memref.store %19, %arg5[%c0, %c0, %arg6, %arg7] : memref<1x64x112x112xf32>
      }
    }
    return
  }
  func.func @forward_kernel_4(%arg0: memref<1x64x112x112xf32>, %arg1: memref<1x64x112x112xf32>) attributes {Kernel, forward_kernel_4} {
    %c112 = arith.constant 112 : index
    %c1 = arith.constant 1 : index
    %c16 = arith.constant 16 : index
    %c0 = arith.constant 0 : index
    %cst = arith.constant 0.000000e+00 : f32
    cf.br ^bb1
  ^bb1:  // pred: ^bb0
    scf.for %arg2 = %c0 to %c16 step %c1 {
      scf.for %arg3 = %c0 to %c112 step %c1 {
        %0 = memref.load %arg0[%c0, %c0, %arg2, %arg3] : memref<1x64x112x112xf32>
        %1 = arith.cmpf ugt, %0, %cst : f32
        %2 = arith.select %1, %0, %cst : f32
        memref.store %2, %arg1[%c0, %c0, %arg2, %arg3] : memref<1x64x112x112xf32>
      }
    }
    return
  }
  func.func @forward_kernel_5(%arg0: memref<1x64x114x114xf32>) attributes {Kernel, forward_kernel_5} {
    %c114 = arith.constant 114 : index
    %c1 = arith.constant 1 : index
    %c6 = arith.constant 6 : index
    %c0 = arith.constant 0 : index
    %cst = arith.constant 0xFF800000 : f32
    cf.br ^bb1
  ^bb1:  // pred: ^bb0
    scf.for %arg1 = %c0 to %c6 step %c1 {
      scf.for %arg2 = %c0 to %c114 step %c1 {
        memref.store %cst, %arg0[%c0, %c0, %arg1, %arg2] : memref<1x64x114x114xf32>
      }
    }
    return
  }
  func.func @forward_kernel_6(%arg0: memref<1x64x56x56xf32>) attributes {Kernel, forward_kernel_6} {
    %c56 = arith.constant 56 : index
    %c1 = arith.constant 1 : index
    %c28 = arith.constant 28 : index
    %c0 = arith.constant 0 : index
    %cst = arith.constant 0xFF800000 : f32
    cf.br ^bb1
  ^bb1:  // pred: ^bb0
    scf.for %arg1 = %c0 to %c28 step %c1 {
      scf.for %arg2 = %c0 to %c56 step %c1 {
        memref.store %cst, %arg0[%c0, %c0, %arg1, %arg2] : memref<1x64x56x56xf32>
      }
    }
    return
  }
  func.func @forward_kernel_7(%arg0: memref<1x64x114x114xf32>, %arg1: memref<1x64x56x56xf32>, %arg2: memref<1x64x56x56xf32>) attributes {Kernel, forward_kernel_7} {
    %c2 = arith.constant 2 : index
    %c3 = arith.constant 3 : index
    %c56 = arith.constant 56 : index
    %c1 = arith.constant 1 : index
    %c4 = arith.constant 4 : index
    %c0 = arith.constant 0 : index
    cf.br ^bb1
  ^bb1:  // pred: ^bb0
    scf.for %arg3 = %c0 to %c4 step %c1 {
      scf.for %arg4 = %c0 to %c56 step %c1 {
        scf.for %arg5 = %c0 to %c3 step %c1 {
          scf.for %arg6 = %c0 to %c3 step %c1 {
            %0 = arith.muli %arg3, %c2 : index
            %1 = arith.addi %0, %arg5 : index
            %2 = arith.muli %arg4, %c2 : index
            %3 = arith.addi %2, %arg6 : index
            %4 = memref.load %arg0[%c0, %c0, %1, %3] : memref<1x64x114x114xf32>
            %5 = memref.load %arg1[%c0, %c0, %arg3, %arg4] : memref<1x64x56x56xf32>
            %6 = arith.cmpf ugt, %5, %4 : f32
            %7 = arith.select %6, %5, %4 : f32
            %8 = arith.cmpf uno, %4, %4 : f32
            %9 = arith.select %8, %4, %7 : f32
            memref.store %9, %arg2[%c0, %c0, %arg3, %arg4] : memref<1x64x56x56xf32>
          }
        }
      }
    }
    return
  }
}


// -----// IR Dump After SCFToControlFlow (convert-scf-to-cf) //----- //
module attributes {torch.debug_module_name = "ResNet"} {
  memref.global "private" constant @__constant_64xf32_2 : memref<64xf32> = dense<[… >
  memref.global "private" constant @__constant_64xf32_1 : memref<64xf32> = dense<[… >
  memref.global "private" constant @__constant_64xf32_0 : memref<64xf32> = dense<[… >
  memref.global "private" constant @__constant_64xf32 : memref<64xf32> = dense<[… >
  memref.global "private" constant @__constant_64x3x7x7xf32 : memref<64x3x7x7xf32> = dense<"…">
  ml_program.global private mutable @global_seed(dense<0> : tensor<i64>) : tensor<i64>
  func.func @forward(%arg0: memref<1x3x224x224xf32>) -> memref<1x64x56x56xf32> {
    %c4 = arith.constant 4 : index
    %c28 = arith.constant 28 : index
    %c56 = arith.constant 56 : index
    %c6 = arith.constant 6 : index
    %c114 = arith.constant 114 : index
    %c8 = arith.constant 8 : index
    %c16 = arith.constant 16 : index
    %c112 = arith.constant 112 : index
    %c64 = arith.constant 64 : index
    %c5 = arith.constant 5 : index
    %c230 = arith.constant 230 : index
    %c3 = arith.constant 3 : index
    %c1 = arith.constant 1 : index
    %c0 = arith.constant 0 : index
    %0 = memref.get_global @__constant_64x3x7x7xf32 : memref<64x3x7x7xf32>
    %1 = memref.get_global @__constant_64xf32 : memref<64xf32>
    %2 = memref.get_global @__constant_64xf32_0 : memref<64xf32>
    %3 = memref.get_global @__constant_64xf32_1 : memref<64xf32>
    %4 = memref.get_global @__constant_64xf32_2 : memref<64xf32>
    %alloc = memref.alloc() {alignment = 64 : i64} : memref<1x3x230x230xf32>
    cf.br ^bb1(%c0 : index)
  ^bb1(%5: index):  // 2 preds: ^bb0, ^bb8
    %6 = arith.cmpi slt, %5, %c1 : index
    cf.cond_br %6, ^bb2, ^bb9
  ^bb2:  // pred: ^bb1
    cf.br ^bb3(%c0 : index)
  ^bb3(%7: index):  // 2 preds: ^bb2, ^bb7
    %8 = arith.cmpi slt, %7, %c3 : index
    cf.cond_br %8, ^bb4, ^bb8
  ^bb4:  // pred: ^bb3
    cf.br ^bb5(%c0 : index)
  ^bb5(%9: index):  // 2 preds: ^bb4, ^bb6
    %10 = arith.cmpi slt, %9, %c230 : index
    cf.cond_br %10, ^bb6, ^bb7
  ^bb6:  // pred: ^bb5
    %11 = FDRA.BlockLoad %alloc [0, %7, %9, 0] : memref<1x3x230x230xf32> -> memref<1x3x230x230xf32> {"forward_kernel_0"}
    FDRA.KernelCall @forward_kernel_0(%11) : (memref<1x3x230x230xf32>) -> ()
    FDRA.BlockStore %11,  %alloc [0, %7, %9, 0] : memref<1x3x230x230xf32> -> memref<1x3x230x230xf32> {"forward_kernel_0"}
    %12 = arith.addi %9, %c5 : index
    cf.br ^bb5(%12 : index)
  ^bb7:  // pred: ^bb5
    %13 = arith.addi %7, %c1 : index
    cf.br ^bb3(%13 : index)
  ^bb8:  // pred: ^bb3
    %14 = arith.addi %5, %c1 : index
    cf.br ^bb1(%14 : index)
  ^bb9:  // pred: ^bb1
    memref.dealloc %alloc : memref<1x3x230x230xf32>
    %alloc_0 = memref.alloc() {alignment = 64 : i64} : memref<1x3x230x230xf32>
    memref.copy %alloc, %alloc_0 : memref<1x3x230x230xf32> to memref<1x3x230x230xf32>
    %reinterpret_cast = memref.reinterpret_cast %alloc_0 to offset: [693], sizes: [1, 3, 224, 224], strides: [158700, 52900, 230, 1] : memref<1x3x230x230xf32> to memref<1x3x224x224xf32, strided<[158700, 52900, 230, 1], offset: 693>>
    memref.copy %arg0, %reinterpret_cast : memref<1x3x224x224xf32> to memref<1x3x224x224xf32, strided<[158700, 52900, 230, 1], offset: 693>>
    %alloc_1 = memref.alloc() {alignment = 64 : i64} : memref<1x64x112x112xf32>
    cf.br ^bb10(%c0 : index)
  ^bb10(%15: index):  // 2 preds: ^bb9, ^bb17
    %16 = arith.cmpi slt, %15, %c1 : index
    cf.cond_br %16, ^bb11, ^bb18
  ^bb11:  // pred: ^bb10
    cf.br ^bb12(%c0 : index)
  ^bb12(%17: index):  // 2 preds: ^bb11, ^bb16
    %18 = arith.cmpi slt, %17, %c64 : index
    cf.cond_br %18, ^bb13, ^bb17
  ^bb13:  // pred: ^bb12
    cf.br ^bb14(%c0 : index)
  ^bb14(%19: index):  // 2 preds: ^bb13, ^bb15
    %20 = arith.cmpi slt, %19, %c112 : index
    cf.cond_br %20, ^bb15, ^bb16
  ^bb15:  // pred: ^bb14
    %21 = FDRA.BlockLoad %alloc_1 [0, %17, %19, 0] : memref<1x64x112x112xf32> -> memref<1x64x112x112xf32> {"forward_kernel_1"}
    FDRA.KernelCall @forward_kernel_1(%21) : (memref<1x64x112x112xf32>) -> ()
    FDRA.BlockStore %21,  %alloc_1 [0, %17, %19, 0] : memref<1x64x112x112xf32> -> memref<1x64x112x112xf32> {"forward_kernel_1"}
    %22 = arith.addi %19, %c16 : index
    cf.br ^bb14(%22 : index)
  ^bb16:  // pred: ^bb14
    %23 = arith.addi %17, %c1 : index
    cf.br ^bb12(%23 : index)
  ^bb17:  // pred: ^bb12
    %24 = arith.addi %15, %c1 : index
    cf.br ^bb10(%24 : index)
  ^bb18:  // pred: ^bb10
    %alloc_2 = memref.alloc() {alignment = 64 : i64} : memref<1x64x112x112xf32>
    memref.copy %alloc_1, %alloc_2 : memref<1x64x112x112xf32> to memref<1x64x112x112xf32>
    memref.dealloc %alloc_1 : memref<1x64x112x112xf32>
    cf.br ^bb19(%c0 : index)
  ^bb19(%25: index):  // 2 preds: ^bb18, ^bb29
    %26 = arith.cmpi slt, %25, %c1 : index
    cf.cond_br %26, ^bb20, ^bb30
  ^bb20:  // pred: ^bb19
    cf.br ^bb21(%c0 : index)
  ^bb21(%27: index):  // 2 preds: ^bb20, ^bb28
    %28 = arith.cmpi slt, %27, %c64 : index
    cf.cond_br %28, ^bb22, ^bb29
  ^bb22:  // pred: ^bb21
    cf.br ^bb23(%c0 : index)
  ^bb23(%29: index):  // 2 preds: ^bb22, ^bb27
    %30 = arith.cmpi slt, %29, %c112 : index
    cf.cond_br %30, ^bb24, ^bb28
  ^bb24:  // pred: ^bb23
    cf.br ^bb25(%c0 : index)
  ^bb25(%31: index):  // 2 preds: ^bb24, ^bb26
    %32 = arith.cmpi slt, %31, %c112 : index
    cf.cond_br %32, ^bb26, ^bb27
  ^bb26:  // pred: ^bb25
    %33 = FDRA.BlockLoad %alloc_0 [0, 0, %29 * 2, %31 * 2] : memref<1x3x230x230xf32> -> memref<1x3x230x230xf32> {"forward_kernel_2"}
    %34 = FDRA.BlockLoad %0 [%27, 0, 0, 0] : memref<64x3x7x7xf32> -> memref<64x3x7x7xf32> {"forward_kernel_2"}
    %35 = FDRA.BlockLoad %alloc_2 [0, %27, %29, %31] : memref<1x64x112x112xf32> -> memref<1x64x112x112xf32> {"forward_kernel_2"}
    %36 = FDRA.BlockLoad %alloc_2 [0, %27, %29, %31] : memref<1x64x112x112xf32> -> memref<1x64x112x112xf32> {"forward_kernel_2"}
    FDRA.KernelCall @forward_kernel_2(%33, %34, %35, %36) : (memref<1x3x230x230xf32>, memref<64x3x7x7xf32>, memref<1x64x112x112xf32>, memref<1x64x112x112xf32>) -> ()
    FDRA.BlockStore %36,  %alloc_2 [0, %27, %29, %31] : memref<1x64x112x112xf32> -> memref<1x64x112x112xf32> {"forward_kernel_2"}
    %37 = arith.addi %31, %c8 : index
    cf.br ^bb25(%37 : index)
  ^bb27:  // pred: ^bb25
    %38 = arith.addi %29, %c1 : index
    cf.br ^bb23(%38 : index)
  ^bb28:  // pred: ^bb23
    %39 = arith.addi %27, %c1 : index
    cf.br ^bb21(%39 : index)
  ^bb29:  // pred: ^bb21
    %40 = arith.addi %25, %c1 : index
    cf.br ^bb19(%40 : index)
  ^bb30:  // pred: ^bb19
    %alloc_3 = memref.alloc() {alignment = 64 : i64} : memref<1x64x112x112xf32>
    cf.br ^bb31(%c0 : index)
  ^bb31(%41: index):  // 2 preds: ^bb30, ^bb38
    %42 = arith.cmpi slt, %41, %c1 : index
    cf.cond_br %42, ^bb32, ^bb39
  ^bb32:  // pred: ^bb31
    cf.br ^bb33(%c0 : index)
  ^bb33(%43: index):  // 2 preds: ^bb32, ^bb37
    %44 = arith.cmpi slt, %43, %c64 : index
    cf.cond_br %44, ^bb34, ^bb38
  ^bb34:  // pred: ^bb33
    cf.br ^bb35(%c0 : index)
  ^bb35(%45: index):  // 2 preds: ^bb34, ^bb36
    %46 = arith.cmpi slt, %45, %c112 : index
    cf.cond_br %46, ^bb36, ^bb37
  ^bb36:  // pred: ^bb35
    %47 = FDRA.BlockLoad %alloc_2 [0, %43, %45, 0] : memref<1x64x112x112xf32> -> memref<1x64x112x112xf32> {"forward_kernel_3"}
    %48 = FDRA.BlockLoad %3 [%43] : memref<64xf32> -> memref<64xf32> {"forward_kernel_3"}
    %49 = FDRA.BlockLoad %4 [%43] : memref<64xf32> -> memref<64xf32> {"forward_kernel_3"}
    %50 = FDRA.BlockLoad %1 [%43] : memref<64xf32> -> memref<64xf32> {"forward_kernel_3"}
    %51 = FDRA.BlockLoad %2 [%43] : memref<64xf32> -> memref<64xf32> {"forward_kernel_3"}
    %52 = FDRA.BlockLoad %alloc_3 [0, %43, %45, 0] : memref<1x64x112x112xf32> -> memref<1x64x112x112xf32> {"forward_kernel_3"}
    FDRA.KernelCall @forward_kernel_3(%47, %48, %49, %50, %51, %52) : (memref<1x64x112x112xf32>, memref<64xf32>, memref<64xf32>, memref<64xf32>, memref<64xf32>, memref<1x64x112x112xf32>) -> ()
    FDRA.BlockStore %52,  %alloc_3 [0, %43, %45, 0] : memref<1x64x112x112xf32> -> memref<1x64x112x112xf32> {"forward_kernel_3"}
    %53 = arith.addi %45, %c16 : index
    cf.br ^bb35(%53 : index)
  ^bb37:  // pred: ^bb35
    %54 = arith.addi %43, %c1 : index
    cf.br ^bb33(%54 : index)
  ^bb38:  // pred: ^bb33
    %55 = arith.addi %41, %c1 : index
    cf.br ^bb31(%55 : index)
  ^bb39:  // pred: ^bb31
    memref.dealloc %alloc_2 : memref<1x64x112x112xf32>
    %alloc_4 = memref.alloc() {alignment = 64 : i64} : memref<1x64x112x112xf32>
    cf.br ^bb40(%c0 : index)
  ^bb40(%56: index):  // 2 preds: ^bb39, ^bb47
    %57 = arith.cmpi slt, %56, %c1 : index
    cf.cond_br %57, ^bb41, ^bb48
  ^bb41:  // pred: ^bb40
    cf.br ^bb42(%c0 : index)
  ^bb42(%58: index):  // 2 preds: ^bb41, ^bb46
    %59 = arith.cmpi slt, %58, %c64 : index
    cf.cond_br %59, ^bb43, ^bb47
  ^bb43:  // pred: ^bb42
    cf.br ^bb44(%c0 : index)
  ^bb44(%60: index):  // 2 preds: ^bb43, ^bb45
    %61 = arith.cmpi slt, %60, %c112 : index
    cf.cond_br %61, ^bb45, ^bb46
  ^bb45:  // pred: ^bb44
    %62 = FDRA.BlockLoad %alloc_3 [0, %58, %60, 0] : memref<1x64x112x112xf32> -> memref<1x64x112x112xf32> {"forward_kernel_4"}
    %63 = FDRA.BlockLoad %alloc_4 [0, %58, %60, 0] : memref<1x64x112x112xf32> -> memref<1x64x112x112xf32> {"forward_kernel_4"}
    FDRA.KernelCall @forward_kernel_4(%62, %63) : (memref<1x64x112x112xf32>, memref<1x64x112x112xf32>) -> ()
    FDRA.BlockStore %63,  %alloc_4 [0, %58, %60, 0] : memref<1x64x112x112xf32> -> memref<1x64x112x112xf32> {"forward_kernel_4"}
    %64 = arith.addi %60, %c16 : index
    cf.br ^bb44(%64 : index)
  ^bb46:  // pred: ^bb44
    %65 = arith.addi %58, %c1 : index
    cf.br ^bb42(%65 : index)
  ^bb47:  // pred: ^bb42
    %66 = arith.addi %56, %c1 : index
    cf.br ^bb40(%66 : index)
  ^bb48:  // pred: ^bb40
    memref.dealloc %alloc_3 : memref<1x64x112x112xf32>
    memref.dealloc %alloc_4 : memref<1x64x112x112xf32>
    %alloc_5 = memref.alloc() {alignment = 64 : i64} : memref<1x64x114x114xf32>
    cf.br ^bb49(%c0 : index)
  ^bb49(%67: index):  // 2 preds: ^bb48, ^bb56
    %68 = arith.cmpi slt, %67, %c1 : index
    cf.cond_br %68, ^bb50, ^bb57
  ^bb50:  // pred: ^bb49
    cf.br ^bb51(%c0 : index)
  ^bb51(%69: index):  // 2 preds: ^bb50, ^bb55
    %70 = arith.cmpi slt, %69, %c64 : index
    cf.cond_br %70, ^bb52, ^bb56
  ^bb52:  // pred: ^bb51
    cf.br ^bb53(%c0 : index)
  ^bb53(%71: index):  // 2 preds: ^bb52, ^bb54
    %72 = arith.cmpi slt, %71, %c114 : index
    cf.cond_br %72, ^bb54, ^bb55
  ^bb54:  // pred: ^bb53
    %73 = FDRA.BlockLoad %alloc_5 [0, %69, %71, 0] : memref<1x64x114x114xf32> -> memref<1x64x114x114xf32> {"forward_kernel_5"}
    FDRA.KernelCall @forward_kernel_5(%73) : (memref<1x64x114x114xf32>) -> ()
    FDRA.BlockStore %73,  %alloc_5 [0, %69, %71, 0] : memref<1x64x114x114xf32> -> memref<1x64x114x114xf32> {"forward_kernel_5"}
    %74 = arith.addi %71, %c6 : index
    cf.br ^bb53(%74 : index)
  ^bb55:  // pred: ^bb53
    %75 = arith.addi %69, %c1 : index
    cf.br ^bb51(%75 : index)
  ^bb56:  // pred: ^bb51
    %76 = arith.addi %67, %c1 : index
    cf.br ^bb49(%76 : index)
  ^bb57:  // pred: ^bb49
    memref.dealloc %alloc_5 : memref<1x64x114x114xf32>
    %alloc_6 = memref.alloc() {alignment = 64 : i64} : memref<1x64x114x114xf32>
    memref.copy %alloc_5, %alloc_6 : memref<1x64x114x114xf32> to memref<1x64x114x114xf32>
    %reinterpret_cast_7 = memref.reinterpret_cast %alloc_6 to offset: [115], sizes: [1, 64, 112, 112], strides: [831744, 12996, 114, 1] : memref<1x64x114x114xf32> to memref<1x64x112x112xf32, strided<[831744, 12996, 114, 1], offset: 115>>
    memref.copy %alloc_4, %reinterpret_cast_7 : memref<1x64x112x112xf32> to memref<1x64x112x112xf32, strided<[831744, 12996, 114, 1], offset: 115>>
    %alloc_8 = memref.alloc() {alignment = 64 : i64} : memref<1x64x56x56xf32>
    cf.br ^bb58(%c0 : index)
  ^bb58(%77: index):  // 2 preds: ^bb57, ^bb65
    %78 = arith.cmpi slt, %77, %c1 : index
    cf.cond_br %78, ^bb59, ^bb66
  ^bb59:  // pred: ^bb58
    cf.br ^bb60(%c0 : index)
  ^bb60(%79: index):  // 2 preds: ^bb59, ^bb64
    %80 = arith.cmpi slt, %79, %c64 : index
    cf.cond_br %80, ^bb61, ^bb65
  ^bb61:  // pred: ^bb60
    cf.br ^bb62(%c0 : index)
  ^bb62(%81: index):  // 2 preds: ^bb61, ^bb63
    %82 = arith.cmpi slt, %81, %c56 : index
    cf.cond_br %82, ^bb63, ^bb64
  ^bb63:  // pred: ^bb62
    %83 = FDRA.BlockLoad %alloc_8 [0, %79, %81, 0] : memref<1x64x56x56xf32> -> memref<1x64x56x56xf32> {"forward_kernel_6"}
    FDRA.KernelCall @forward_kernel_6(%83) : (memref<1x64x56x56xf32>) -> ()
    FDRA.BlockStore %83,  %alloc_8 [0, %79, %81, 0] : memref<1x64x56x56xf32> -> memref<1x64x56x56xf32> {"forward_kernel_6"}
    %84 = arith.addi %81, %c28 : index
    cf.br ^bb62(%84 : index)
  ^bb64:  // pred: ^bb62
    %85 = arith.addi %79, %c1 : index
    cf.br ^bb60(%85 : index)
  ^bb65:  // pred: ^bb60
    %86 = arith.addi %77, %c1 : index
    cf.br ^bb58(%86 : index)
  ^bb66:  // pred: ^bb58
    %alloc_9 = memref.alloc() {alignment = 64 : i64} : memref<1x64x56x56xf32>
    memref.copy %alloc_8, %alloc_9 : memref<1x64x56x56xf32> to memref<1x64x56x56xf32>
    memref.dealloc %alloc_8 : memref<1x64x56x56xf32>
    cf.br ^bb67(%c0 : index)
  ^bb67(%87: index):  // 2 preds: ^bb66, ^bb74
    %88 = arith.cmpi slt, %87, %c1 : index
    cf.cond_br %88, ^bb68, ^bb75
  ^bb68:  // pred: ^bb67
    cf.br ^bb69(%c0 : index)
  ^bb69(%89: index):  // 2 preds: ^bb68, ^bb73
    %90 = arith.cmpi slt, %89, %c64 : index
    cf.cond_br %90, ^bb70, ^bb74
  ^bb70:  // pred: ^bb69
    cf.br ^bb71(%c0 : index)
  ^bb71(%91: index):  // 2 preds: ^bb70, ^bb72
    %92 = arith.cmpi slt, %91, %c56 : index
    cf.cond_br %92, ^bb72, ^bb73
  ^bb72:  // pred: ^bb71
    %93 = FDRA.BlockLoad %alloc_6 [0, %89, %91 * 2, 0] : memref<1x64x114x114xf32> -> memref<1x64x114x114xf32> {"forward_kernel_7"}
    %94 = FDRA.BlockLoad %alloc_9 [0, %89, %91, 0] : memref<1x64x56x56xf32> -> memref<1x64x56x56xf32> {"forward_kernel_7"}
    %95 = FDRA.BlockLoad %alloc_9 [0, %89, %91, 0] : memref<1x64x56x56xf32> -> memref<1x64x56x56xf32> {"forward_kernel_7"}
    FDRA.KernelCall @forward_kernel_7(%93, %94, %95) : (memref<1x64x114x114xf32>, memref<1x64x56x56xf32>, memref<1x64x56x56xf32>) -> ()
    FDRA.BlockStore %95,  %alloc_9 [0, %89, %91, 0] : memref<1x64x56x56xf32> -> memref<1x64x56x56xf32> {"forward_kernel_7"}
    %96 = arith.addi %91, %c4 : index
    cf.br ^bb71(%96 : index)
  ^bb73:  // pred: ^bb71
    %97 = arith.addi %89, %c1 : index
    cf.br ^bb69(%97 : index)
  ^bb74:  // pred: ^bb69
    %98 = arith.addi %87, %c1 : index
    cf.br ^bb67(%98 : index)
  ^bb75:  // pred: ^bb67
    memref.dealloc %alloc_9 : memref<1x64x56x56xf32>
    return %alloc_9 : memref<1x64x56x56xf32>
  }
  func.func @forward_kernel_0(%arg0: memref<1x3x230x230xf32>) attributes {Kernel, forward_kernel_0} {
    %c230 = arith.constant 230 : index
    %c1 = arith.constant 1 : index
    %c5 = arith.constant 5 : index
    %c0 = arith.constant 0 : index
    %cst = arith.constant 0.000000e+00 : f32
    cf.br ^bb1
  ^bb1:  // pred: ^bb0
    cf.br ^bb2(%c0 : index)
  ^bb2(%0: index):  // 2 preds: ^bb1, ^bb6
    %1 = arith.cmpi slt, %0, %c5 : index
    cf.cond_br %1, ^bb3, ^bb7
  ^bb3:  // pred: ^bb2
    cf.br ^bb4(%c0 : index)
  ^bb4(%2: index):  // 2 preds: ^bb3, ^bb5
    %3 = arith.cmpi slt, %2, %c230 : index
    cf.cond_br %3, ^bb5, ^bb6
  ^bb5:  // pred: ^bb4
    memref.store %cst, %arg0[%c0, %c0, %0, %2] : memref<1x3x230x230xf32>
    %4 = arith.addi %2, %c1 : index
    cf.br ^bb4(%4 : index)
  ^bb6:  // pred: ^bb4
    %5 = arith.addi %0, %c1 : index
    cf.br ^bb2(%5 : index)
  ^bb7:  // pred: ^bb2
    return
  }
  func.func @forward_kernel_1(%arg0: memref<1x64x112x112xf32>) attributes {Kernel, forward_kernel_1} {
    %c112 = arith.constant 112 : index
    %c1 = arith.constant 1 : index
    %c16 = arith.constant 16 : index
    %c0 = arith.constant 0 : index
    %cst = arith.constant 0.000000e+00 : f32
    cf.br ^bb1
  ^bb1:  // pred: ^bb0
    cf.br ^bb2(%c0 : index)
  ^bb2(%0: index):  // 2 preds: ^bb1, ^bb6
    %1 = arith.cmpi slt, %0, %c16 : index
    cf.cond_br %1, ^bb3, ^bb7
  ^bb3:  // pred: ^bb2
    cf.br ^bb4(%c0 : index)
  ^bb4(%2: index):  // 2 preds: ^bb3, ^bb5
    %3 = arith.cmpi slt, %2, %c112 : index
    cf.cond_br %3, ^bb5, ^bb6
  ^bb5:  // pred: ^bb4
    memref.store %cst, %arg0[%c0, %c0, %0, %2] : memref<1x64x112x112xf32>
    %4 = arith.addi %2, %c1 : index
    cf.br ^bb4(%4 : index)
  ^bb6:  // pred: ^bb4
    %5 = arith.addi %0, %c1 : index
    cf.br ^bb2(%5 : index)
  ^bb7:  // pred: ^bb2
    return
  }
  func.func @forward_kernel_2(%arg0: memref<1x3x230x230xf32>, %arg1: memref<64x3x7x7xf32>, %arg2: memref<1x64x112x112xf32>, %arg3: memref<1x64x112x112xf32>) attributes {Kernel, forward_kernel_2} {
    %c2 = arith.constant 2 : index
    %c7 = arith.constant 7 : index
    %c3 = arith.constant 3 : index
    %c1 = arith.constant 1 : index
    %c8 = arith.constant 8 : index
    %c0 = arith.constant 0 : index
    cf.br ^bb1
  ^bb1:  // pred: ^bb0
    cf.br ^bb2(%c0 : index)
  ^bb2(%0: index):  // 2 preds: ^bb1, ^bb12
    %1 = arith.cmpi slt, %0, %c8 : index
    cf.cond_br %1, ^bb3, ^bb13
  ^bb3:  // pred: ^bb2
    cf.br ^bb4(%c0 : index)
  ^bb4(%2: index):  // 2 preds: ^bb3, ^bb11
    %3 = arith.cmpi slt, %2, %c3 : index
    cf.cond_br %3, ^bb5, ^bb12
  ^bb5:  // pred: ^bb4
    cf.br ^bb6(%c0 : index)
  ^bb6(%4: index):  // 2 preds: ^bb5, ^bb10
    %5 = arith.cmpi slt, %4, %c7 : index
    cf.cond_br %5, ^bb7, ^bb11
  ^bb7:  // pred: ^bb6
    cf.br ^bb8(%c0 : index)
  ^bb8(%6: index):  // 2 preds: ^bb7, ^bb9
    %7 = arith.cmpi slt, %6, %c7 : index
    cf.cond_br %7, ^bb9, ^bb10
  ^bb9:  // pred: ^bb8
    %8 = arith.muli %0, %c2 : index
    %9 = arith.addi %8, %6 : index
    %10 = memref.load %arg0[%c0, %2, %4, %9] : memref<1x3x230x230xf32>
    %11 = memref.load %arg1[%c0, %2, %4, %6] : memref<64x3x7x7xf32>
    %12 = memref.load %arg2[%c0, %c0, %c0, %0] : memref<1x64x112x112xf32>
    %13 = arith.mulf %10, %11 : f32
    %14 = arith.addf %12, %13 : f32
    memref.store %14, %arg3[%c0, %c0, %c0, %0] : memref<1x64x112x112xf32>
    %15 = arith.addi %6, %c1 : index
    cf.br ^bb8(%15 : index)
  ^bb10:  // pred: ^bb8
    %16 = arith.addi %4, %c1 : index
    cf.br ^bb6(%16 : index)
  ^bb11:  // pred: ^bb6
    %17 = arith.addi %2, %c1 : index
    cf.br ^bb4(%17 : index)
  ^bb12:  // pred: ^bb4
    %18 = arith.addi %0, %c1 : index
    cf.br ^bb2(%18 : index)
  ^bb13:  // pred: ^bb2
    return
  }
  func.func @forward_kernel_3(%arg0: memref<1x64x112x112xf32>, %arg1: memref<64xf32>, %arg2: memref<64xf32>, %arg3: memref<64xf32>, %arg4: memref<64xf32>, %arg5: memref<1x64x112x112xf32>) attributes {Kernel, forward_kernel_3} {
    %c112 = arith.constant 112 : index
    %c1 = arith.constant 1 : index
    %c16 = arith.constant 16 : index
    %c0 = arith.constant 0 : index
    %cst = arith.constant 1.500000e+00 : f32
    %c1597463007_i32 = arith.constant 1597463007 : i32
    %c1_i32 = arith.constant 1 : i32
    %cst_0 = arith.constant 5.000000e-01 : f32
    %cst_1 = arith.constant 1.000000e-05 : f64
    cf.br ^bb1
  ^bb1:  // pred: ^bb0
    cf.br ^bb2(%c0 : index)
  ^bb2(%0: index):  // 2 preds: ^bb1, ^bb6
    %1 = arith.cmpi slt, %0, %c16 : index
    cf.cond_br %1, ^bb3, ^bb7
  ^bb3:  // pred: ^bb2
    cf.br ^bb4(%c0 : index)
  ^bb4(%2: index):  // 2 preds: ^bb3, ^bb5
    %3 = arith.cmpi slt, %2, %c112 : index
    cf.cond_br %3, ^bb5, ^bb6
  ^bb5:  // pred: ^bb4
    %4 = memref.load %arg0[%c0, %c0, %0, %2] : memref<1x64x112x112xf32>
    %5 = memref.load %arg1[%c0] : memref<64xf32>
    %6 = memref.load %arg2[%c0] : memref<64xf32>
    %7 = memref.load %arg3[%c0] : memref<64xf32>
    %8 = memref.load %arg4[%c0] : memref<64xf32>
    %9 = arith.truncf %cst_1 : f64 to f32
    %10 = arith.addf %8, %9 : f32
    %11 = arith.mulf %10, %cst_0 : f32
    %12 = arith.bitcast %10 : f32 to i32
    %13 = arith.shrui %12, %c1_i32 : i32
    %14 = arith.subi %c1597463007_i32, %13 : i32
    %15 = arith.bitcast %14 : i32 to f32
    %16 = arith.mulf %15, %15 : f32
    %17 = arith.mulf %16, %11 : f32
    %18 = arith.subf %cst, %17 : f32
    %19 = arith.mulf %18, %16 : f32
    %20 = arith.subf %4, %7 : f32
    %21 = arith.mulf %20, %19 : f32
    %22 = arith.mulf %21, %5 : f32
    %23 = arith.addf %22, %6 : f32
    memref.store %23, %arg5[%c0, %c0, %0, %2] : memref<1x64x112x112xf32>
    %24 = arith.addi %2, %c1 : index
    cf.br ^bb4(%24 : index)
  ^bb6:  // pred: ^bb4
    %25 = arith.addi %0, %c1 : index
    cf.br ^bb2(%25 : index)
  ^bb7:  // pred: ^bb2
    return
  }
  func.func @forward_kernel_4(%arg0: memref<1x64x112x112xf32>, %arg1: memref<1x64x112x112xf32>) attributes {Kernel, forward_kernel_4} {
    %c112 = arith.constant 112 : index
    %c1 = arith.constant 1 : index
    %c16 = arith.constant 16 : index
    %c0 = arith.constant 0 : index
    %cst = arith.constant 0.000000e+00 : f32
    cf.br ^bb1
  ^bb1:  // pred: ^bb0
    cf.br ^bb2(%c0 : index)
  ^bb2(%0: index):  // 2 preds: ^bb1, ^bb6
    %1 = arith.cmpi slt, %0, %c16 : index
    cf.cond_br %1, ^bb3, ^bb7
  ^bb3:  // pred: ^bb2
    cf.br ^bb4(%c0 : index)
  ^bb4(%2: index):  // 2 preds: ^bb3, ^bb5
    %3 = arith.cmpi slt, %2, %c112 : index
    cf.cond_br %3, ^bb5, ^bb6
  ^bb5:  // pred: ^bb4
    %4 = memref.load %arg0[%c0, %c0, %0, %2] : memref<1x64x112x112xf32>
    %5 = arith.cmpf ugt, %4, %cst : f32
    %6 = arith.select %5, %4, %cst : f32
    memref.store %6, %arg1[%c0, %c0, %0, %2] : memref<1x64x112x112xf32>
    %7 = arith.addi %2, %c1 : index
    cf.br ^bb4(%7 : index)
  ^bb6:  // pred: ^bb4
    %8 = arith.addi %0, %c1 : index
    cf.br ^bb2(%8 : index)
  ^bb7:  // pred: ^bb2
    return
  }
  func.func @forward_kernel_5(%arg0: memref<1x64x114x114xf32>) attributes {Kernel, forward_kernel_5} {
    %c114 = arith.constant 114 : index
    %c1 = arith.constant 1 : index
    %c6 = arith.constant 6 : index
    %c0 = arith.constant 0 : index
    %cst = arith.constant 0xFF800000 : f32
    cf.br ^bb1
  ^bb1:  // pred: ^bb0
    cf.br ^bb2(%c0 : index)
  ^bb2(%0: index):  // 2 preds: ^bb1, ^bb6
    %1 = arith.cmpi slt, %0, %c6 : index
    cf.cond_br %1, ^bb3, ^bb7
  ^bb3:  // pred: ^bb2
    cf.br ^bb4(%c0 : index)
  ^bb4(%2: index):  // 2 preds: ^bb3, ^bb5
    %3 = arith.cmpi slt, %2, %c114 : index
    cf.cond_br %3, ^bb5, ^bb6
  ^bb5:  // pred: ^bb4
    memref.store %cst, %arg0[%c0, %c0, %0, %2] : memref<1x64x114x114xf32>
    %4 = arith.addi %2, %c1 : index
    cf.br ^bb4(%4 : index)
  ^bb6:  // pred: ^bb4
    %5 = arith.addi %0, %c1 : index
    cf.br ^bb2(%5 : index)
  ^bb7:  // pred: ^bb2
    return
  }
  func.func @forward_kernel_6(%arg0: memref<1x64x56x56xf32>) attributes {Kernel, forward_kernel_6} {
    %c56 = arith.constant 56 : index
    %c1 = arith.constant 1 : index
    %c28 = arith.constant 28 : index
    %c0 = arith.constant 0 : index
    %cst = arith.constant 0xFF800000 : f32
    cf.br ^bb1
  ^bb1:  // pred: ^bb0
    cf.br ^bb2(%c0 : index)
  ^bb2(%0: index):  // 2 preds: ^bb1, ^bb6
    %1 = arith.cmpi slt, %0, %c28 : index
    cf.cond_br %1, ^bb3, ^bb7
  ^bb3:  // pred: ^bb2
    cf.br ^bb4(%c0 : index)
  ^bb4(%2: index):  // 2 preds: ^bb3, ^bb5
    %3 = arith.cmpi slt, %2, %c56 : index
    cf.cond_br %3, ^bb5, ^bb6
  ^bb5:  // pred: ^bb4
    memref.store %cst, %arg0[%c0, %c0, %0, %2] : memref<1x64x56x56xf32>
    %4 = arith.addi %2, %c1 : index
    cf.br ^bb4(%4 : index)
  ^bb6:  // pred: ^bb4
    %5 = arith.addi %0, %c1 : index
    cf.br ^bb2(%5 : index)
  ^bb7:  // pred: ^bb2
    return
  }
  func.func @forward_kernel_7(%arg0: memref<1x64x114x114xf32>, %arg1: memref<1x64x56x56xf32>, %arg2: memref<1x64x56x56xf32>) attributes {Kernel, forward_kernel_7} {
    %c2 = arith.constant 2 : index
    %c3 = arith.constant 3 : index
    %c56 = arith.constant 56 : index
    %c1 = arith.constant 1 : index
    %c4 = arith.constant 4 : index
    %c0 = arith.constant 0 : index
    cf.br ^bb1
  ^bb1:  // pred: ^bb0
    cf.br ^bb2(%c0 : index)
  ^bb2(%0: index):  // 2 preds: ^bb1, ^bb12
    %1 = arith.cmpi slt, %0, %c4 : index
    cf.cond_br %1, ^bb3, ^bb13
  ^bb3:  // pred: ^bb2
    cf.br ^bb4(%c0 : index)
  ^bb4(%2: index):  // 2 preds: ^bb3, ^bb11
    %3 = arith.cmpi slt, %2, %c56 : index
    cf.cond_br %3, ^bb5, ^bb12
  ^bb5:  // pred: ^bb4
    cf.br ^bb6(%c0 : index)
  ^bb6(%4: index):  // 2 preds: ^bb5, ^bb10
    %5 = arith.cmpi slt, %4, %c3 : index
    cf.cond_br %5, ^bb7, ^bb11
  ^bb7:  // pred: ^bb6
    cf.br ^bb8(%c0 : index)
  ^bb8(%6: index):  // 2 preds: ^bb7, ^bb9
    %7 = arith.cmpi slt, %6, %c3 : index
    cf.cond_br %7, ^bb9, ^bb10
  ^bb9:  // pred: ^bb8
    %8 = arith.muli %0, %c2 : index
    %9 = arith.addi %8, %4 : index
    %10 = arith.muli %2, %c2 : index
    %11 = arith.addi %10, %6 : index
    %12 = memref.load %arg0[%c0, %c0, %9, %11] : memref<1x64x114x114xf32>
    %13 = memref.load %arg1[%c0, %c0, %0, %2] : memref<1x64x56x56xf32>
    %14 = arith.cmpf ugt, %13, %12 : f32
    %15 = arith.select %14, %13, %12 : f32
    %16 = arith.cmpf uno, %12, %12 : f32
    %17 = arith.select %16, %12, %15 : f32
    memref.store %17, %arg2[%c0, %c0, %0, %2] : memref<1x64x56x56xf32>
    %18 = arith.addi %6, %c1 : index
    cf.br ^bb8(%18 : index)
  ^bb10:  // pred: ^bb8
    %19 = arith.addi %4, %c1 : index
    cf.br ^bb6(%19 : index)
  ^bb11:  // pred: ^bb6
    %20 = arith.addi %2, %c1 : index
    cf.br ^bb4(%20 : index)
  ^bb12:  // pred: ^bb4
…
    %99 = llvm.ptrtoint %98 : !llvm.ptr to i64
    %100 = llvm.add %99, %60  : i64
    %101 = llvm.urem %100, %17  : i64
    %102 = llvm.sub %100, %101  : i64
    %103 = llvm.inttoptr %102 : i64 to !llvm.ptr
    %104 = llvm.mul %30, %30  : i64
    %105 = llvm.mul %104, %28  : i64
    %106 = llvm.mul %105, %15  : i64
    %107 = llvm.mul %106, %15  : i64
    %108 = llvm.getelementptr %44[1] : (!llvm.ptr) -> !llvm.ptr, f32
    %109 = llvm.ptrtoint %108 : !llvm.ptr to i64
    %110 = llvm.mul %107, %109  : i64
    "llvm.intr.memcpy"(%103, %64, %110) <{isVolatile = false}> : (!llvm.ptr, !llvm.ptr, i64) -> ()
    %111 = llvm.insertvalue %98, %32[0] : !llvm.struct<(ptr, ptr, i64, array<4 x i64>, array<4 x i64>)> 
    %112 = llvm.insertvalue %103, %111[1] : !llvm.struct<(ptr, ptr, i64, array<4 x i64>, array<4 x i64>)> 
    %113 = llvm.insertvalue %9, %112[2] : !llvm.struct<(ptr, ptr, i64, array<4 x i64>, array<4 x i64>)> 
    %114 = llvm.insertvalue %30, %113[3, 0] : !llvm.struct<(ptr, ptr, i64, array<4 x i64>, array<4 x i64>)> 
    %115 = llvm.insertvalue %10, %114[4, 0] : !llvm.struct<(ptr, ptr, i64, array<4 x i64>, array<4 x i64>)> 
    %116 = llvm.insertvalue %28, %115[3, 1] : !llvm.struct<(ptr, ptr, i64, array<4 x i64>, array<4 x i64>)> 
    %117 = llvm.insertvalue %11, %116[4, 1] : !llvm.struct<(ptr, ptr, i64, array<4 x i64>, array<4 x i64>)> 
    %118 = llvm.insertvalue %26, %117[3, 2] : !llvm.struct<(ptr, ptr, i64, array<4 x i64>, array<4 x i64>)> 
    %119 = llvm.insertvalue %15, %118[4, 2] : !llvm.struct<(ptr, ptr, i64, array<4 x i64>, array<4 x i64>)> 
    %120 = llvm.insertvalue %26, %119[3, 3] : !llvm.struct<(ptr, ptr, i64, array<4 x i64>, array<4 x i64>)> 
    %121 = llvm.insertvalue %30, %120[4, 3] : !llvm.struct<(ptr, ptr, i64, array<4 x i64>, array<4 x i64>)> 
    %122 = llvm.intr.stacksave : !llvm.ptr
    %123 = llvm.alloca %30 x !llvm.struct<(ptr, ptr, i64, array<4 x i64>, array<4 x i64>)> : (i64) -> !llvm.ptr
    llvm.store %43, %123 : !llvm.struct<(ptr, ptr, i64, array<4 x i64>, array<4 x i64>)>, !llvm.ptr
    %124 = llvm.mlir.undef : !llvm.struct<(i64, ptr)>
    %125 = llvm.insertvalue %8, %124[0] : !llvm.struct<(i64, ptr)> 
    %126 = llvm.insertvalue %123, %125[1] : !llvm.struct<(i64, ptr)> 
    %127 = llvm.alloca %30 x !llvm.struct<(ptr, ptr, i64, array<4 x i64>, array<4 x i64>)> : (i64) -> !llvm.ptr
    llvm.store %121, %127 : !llvm.struct<(ptr, ptr, i64, array<4 x i64>, array<4 x i64>)>, !llvm.ptr
    %128 = llvm.insertvalue %127, %125[1] : !llvm.struct<(i64, ptr)> 
    %129 = llvm.alloca %30 x !llvm.struct<(i64, ptr)> : (i64) -> !llvm.ptr
    llvm.store %126, %129 : !llvm.struct<(i64, ptr)>, !llvm.ptr
    %130 = llvm.alloca %30 x !llvm.struct<(i64, ptr)> : (i64) -> !llvm.ptr
    llvm.store %128, %130 : !llvm.struct<(i64, ptr)>, !llvm.ptr
    llvm.call @memrefCopy(%25, %129, %130) : (i64, !llvm.ptr, !llvm.ptr) -> ()
    llvm.intr.stackrestore %122 : !llvm.ptr
    %131 = llvm.getelementptr %44[802816] : (!llvm.ptr) -> !llvm.ptr, f32
    %132 = llvm.ptrtoint %131 : !llvm.ptr to i64
    %133 = llvm.add %132, %17  : i64
    %134 = llvm.call @malloc(%133) : (i64) -> !llvm.ptr
    %135 = llvm.ptrtoint %134 : !llvm.ptr to i64
    %136 = llvm.add %135, %60  : i64
    %137 = llvm.urem %136, %17  : i64
    %138 = llvm.sub %136, %137  : i64
    %139 = llvm.inttoptr %138 : i64 to !llvm.ptr
    %140 = llvm.insertvalue %134, %32[0] : !llvm.struct<(ptr, ptr, i64, array<4 x i64>, array<4 x i64>)> 
    %141 = llvm.insertvalue %139, %140[1] : !llvm.struct<(ptr, ptr, i64, array<4 x i64>, array<4 x i64>)> 
    %142 = llvm.insertvalue %31, %141[2] : !llvm.struct<(ptr, ptr, i64, array<4 x i64>, array<4 x i64>)> 
    %143 = llvm.insertvalue %30, %142[3, 0] : !llvm.struct<(ptr, ptr, i64, array<4 x i64>, array<4 x i64>)> 
    %144 = llvm.insertvalue %17, %143[3, 1] : !llvm.struct<(ptr, ptr, i64, array<4 x i64>, array<4 x i64>)> 
    %145 = llvm.insertvalue %18, %144[3, 2] : !llvm.struct<(ptr, ptr, i64, array<4 x i64>, array<4 x i64>)> 
    %146 = llvm.insertvalue %18, %145[3, 3] : !llvm.struct<(ptr, ptr, i64, array<4 x i64>, array<4 x i64>)> 
    %147 = llvm.insertvalue %6, %146[4, 0] : !llvm.struct<(ptr, ptr, i64, array<4 x i64>, array<4 x i64>)> 
    %148 = llvm.insertvalue %7, %147[4, 1] : !llvm.struct<(ptr, ptr, i64, array<4 x i64>, array<4 x i64>)> 
    %149 = llvm.insertvalue %18, %148[4, 2] : !llvm.struct<(ptr, ptr, i64, array<4 x i64>, array<4 x i64>)> 
    %150 = llvm.insertvalue %30, %149[4, 3] : !llvm.struct<(ptr, ptr, i64, array<4 x i64>, array<4 x i64>)> 
    %151 = builtin.unrealized_conversion_cast %150 : !llvm.struct<(ptr, ptr, i64, array<4 x i64>, array<4 x i64>)> to memref<1x64x112x112xf32>
    llvm.br ^bb10(%31 : i64)
  ^bb10(%152: i64):  // 2 preds: ^bb9, ^bb17
    %153 = llvm.icmp "slt" %152, %30 : i64
    llvm.cond_br %153, ^bb11, ^bb18
  ^bb11:  // pred: ^bb10
    llvm.br ^bb12(%31 : i64)
  ^bb12(%154: i64):  // 2 preds: ^bb11, ^bb16
    %155 = builtin.unrealized_conversion_cast %154 : i64 to index
    %156 = llvm.icmp "slt" %154, %17 : i64
    llvm.cond_br %156, ^bb13, ^bb17
  ^bb13:  // pred: ^bb12
    llvm.br ^bb14(%31 : i64)
  ^bb14(%157: i64):  // 2 preds: ^bb13, ^bb15
    %158 = builtin.unrealized_conversion_cast %157 : i64 to index
    %159 = llvm.icmp "slt" %157, %18 : i64
    llvm.cond_br %159, ^bb15, ^bb16
  ^bb15:  // pred: ^bb14
    %160 = llvm.mul %31, %6  : i64
    %161 = llvm.mul %154, %7  : i64
    %162 = llvm.add %160, %161  : i64
    %163 = llvm.mul %157, %18  : i64
    %164 = llvm.add %162, %163  : i64
    %165 = llvm.add %164, %31  : i64
    %166 = llvm.getelementptr %139[%165] : (!llvm.ptr, i64) -> !llvm.ptr, f32
    %167 = builtin.unrealized_conversion_cast %166 : !llvm.ptr to !llvm.struct<(ptr, ptr, i64, array<4 x i64>, array<4 x i64>)>
    %168 = builtin.unrealized_conversion_cast %167 : !llvm.struct<(ptr, ptr, i64, array<4 x i64>, array<4 x i64>)> to memref<1x64x112x112xf32>
    %169 = llvm.extractvalue %167[1] : !llvm.struct<(ptr, ptr, i64, array<4 x i64>, array<4 x i64>)> 
    llvm.call @forward_kernel_1(%169) : (!llvm.ptr) -> ()
    FDRA.BlockStore %168,  %151 [0, %155, %158, 0] : memref<1x64x112x112xf32> -> memref<1x64x112x112xf32> {"forward_kernel_1"}
    %170 = llvm.add %157, %19  : i64
    llvm.br ^bb14(%170 : i64)
  ^bb16:  // pred: ^bb14
    %171 = llvm.add %154, %30  : i64
    llvm.br ^bb12(%171 : i64)
  ^bb17:  // pred: ^bb12
    %172 = llvm.add %152, %30  : i64
    llvm.br ^bb10(%172 : i64)
  ^bb18:  // pred: ^bb10
    %173 = llvm.call @malloc(%133) : (i64) -> !llvm.ptr
    %174 = llvm.ptrtoint %173 : !llvm.ptr to i64
    %175 = llvm.add %174, %60  : i64
    %176 = llvm.urem %175, %17  : i64
    %177 = llvm.sub %175, %176  : i64
    %178 = llvm.inttoptr %177 : i64 to !llvm.ptr
    %179 = llvm.insertvalue %173, %32[0] : !llvm.struct<(ptr, ptr, i64, array<4 x i64>, array<4 x i64>)> 
    %180 = llvm.insertvalue %178, %179[1] : !llvm.struct<(ptr, ptr, i64, array<4 x i64>, array<4 x i64>)> 
    %181 = llvm.insertvalue %31, %180[2] : !llvm.struct<(ptr, ptr, i64, array<4 x i64>, array<4 x i64>)> 
    %182 = llvm.insertvalue %30, %181[3, 0] : !llvm.struct<(ptr, ptr, i64, array<4 x i64>, array<4 x i64>)> 
    %183 = llvm.insertvalue %17, %182[3, 1] : !llvm.struct<(ptr, ptr, i64, array<4 x i64>, array<4 x i64>)> 
    %184 = llvm.insertvalue %18, %183[3, 2] : !llvm.struct<(ptr, ptr, i64, array<4 x i64>, array<4 x i64>)> 
    %185 = llvm.insertvalue %18, %184[3, 3] : !llvm.struct<(ptr, ptr, i64, array<4 x i64>, array<4 x i64>)> 
    %186 = llvm.insertvalue %6, %185[4, 0] : !llvm.struct<(ptr, ptr, i64, array<4 x i64>, array<4 x i64>)> 
    %187 = llvm.insertvalue %7, %186[4, 1] : !llvm.struct<(ptr, ptr, i64, array<4 x i64>, array<4 x i64>)> 
    %188 = llvm.insertvalue %18, %187[4, 2] : !llvm.struct<(ptr, ptr, i64, array<4 x i64>, array<4 x i64>)> 
    %189 = llvm.insertvalue %30, %188[4, 3] : !llvm.struct<(ptr, ptr, i64, array<4 x i64>, array<4 x i64>)> 
    %190 = builtin.unrealized_conversion_cast %189 : !llvm.struct<(ptr, ptr, i64, array<4 x i64>, array<4 x i64>)> to memref<1x64x112x112xf32>
    %191 = llvm.mul %30, %30  : i64
    %192 = llvm.mul %191, %17  : i64
    %193 = llvm.mul %192, %18  : i64
    %194 = llvm.mul %193, %18  : i64
    %195 = llvm.mul %194, %109  : i64
    "llvm.intr.memcpy"(%178, %139, %195) <{isVolatile = false}> : (!llvm.ptr, !llvm.ptr, i64) -> ()
    llvm.call @free(%134) : (!llvm.ptr) -> ()
    llvm.br ^bb19(%31 : i64)
  ^bb19(%196: i64):  // 2 preds: ^bb18, ^bb29
    %197 = llvm.icmp "slt" %196, %30 : i64
    llvm.cond_br %197, ^bb20, ^bb30
  ^bb20:  // pred: ^bb19
    llvm.br ^bb21(%31 : i64)
  ^bb21(%198: i64):  // 2 preds: ^bb20, ^bb28
    %199 = builtin.unrealized_conversion_cast %198 : i64 to index
    %200 = llvm.icmp "slt" %198, %17 : i64
    llvm.cond_br %200, ^bb22, ^bb29
  ^bb22:  // pred: ^bb21
    llvm.br ^bb23(%31 : i64)
  ^bb23(%201: i64):  // 2 preds: ^bb22, ^bb27
    %202 = builtin.unrealized_conversion_cast %201 : i64 to index
    %203 = llvm.icmp "slt" %201, %18 : i64
    llvm.cond_br %203, ^bb24, ^bb28
  ^bb24:  // pred: ^bb23
    llvm.br ^bb25(%31 : i64)
  ^bb25(%204: i64):  // 2 preds: ^bb24, ^bb26
    %205 = builtin.unrealized_conversion_cast %204 : i64 to index
    %206 = llvm.icmp "slt" %204, %18 : i64
    llvm.cond_br %206, ^bb26, ^bb27
  ^bb26:  // pred: ^bb25
    %207 = llvm.mul %201, %5  : i64
    %208 = llvm.mul %204, %5  : i64
    %209 = llvm.mul %31, %10  : i64
    %210 = llvm.mul %31, %11  : i64
    %211 = llvm.add %209, %210  : i64
    %212 = llvm.mul %207, %15  : i64
    %213 = llvm.add %211, %212  : i64
    %214 = llvm.add %213, %208  : i64
    %215 = llvm.getelementptr %103[%214] : (!llvm.ptr, i64) -> !llvm.ptr, f32
    %216 = builtin.unrealized_conversion_cast %215 : !llvm.ptr to !llvm.struct<(ptr, ptr, i64, array<4 x i64>, array<4 x i64>)>
    %217 = llvm.mul %198, %12  : i64
    %218 = llvm.mul %31, %13  : i64
    %219 = llvm.add %217, %218  : i64
    %220 = llvm.mul %31, %14  : i64
    %221 = llvm.add %219, %220  : i64
    %222 = llvm.add %221, %31  : i64
    %223 = llvm.getelementptr %46[%222] : (!llvm.ptr, i64) -> !llvm.ptr, f32
    %224 = builtin.unrealized_conversion_cast %223 : !llvm.ptr to !llvm.struct<(ptr, ptr, i64, array<4 x i64>, array<4 x i64>)>
    %225 = llvm.mul %31, %6  : i64
    %226 = llvm.mul %198, %7  : i64
    %227 = llvm.add %225, %226  : i64
    %228 = llvm.mul %201, %18  : i64
    %229 = llvm.add %227, %228  : i64
    %230 = llvm.add %229, %204  : i64
    %231 = llvm.getelementptr %178[%230] : (!llvm.ptr, i64) -> !llvm.ptr, f32
    %232 = builtin.unrealized_conversion_cast %231 : !llvm.ptr to !llvm.struct<(ptr, ptr, i64, array<4 x i64>, array<4 x i64>)>
    %233 = builtin.unrealized_conversion_cast %232 : !llvm.struct<(ptr, ptr, i64, array<4 x i64>, array<4 x i64>)> to memref<1x64x112x112xf32>
    %234 = llvm.extractvalue %216[1] : !llvm.struct<(ptr, ptr, i64, array<4 x i64>, array<4 x i64>)> 
    %235 = llvm.extractvalue %224[1] : !llvm.struct<(ptr, ptr, i64, array<4 x i64>, array<4 x i64>)> 
    %236 = llvm.extractvalue %232[1] : !llvm.struct<(ptr, ptr, i64, array<4 x i64>, array<4 x i64>)> 
    llvm.call @forward_kernel_2(%234, %235, %236, %236) : (!llvm.ptr, !llvm.ptr, !llvm.ptr, !llvm.ptr) -> ()
    FDRA.BlockStore %233,  %190 [0, %199, %202, %205] : memref<1x64x112x112xf32> -> memref<1x64x112x112xf32> {"forward_kernel_2"}
    %237 = llvm.add %204, %20  : i64
    llvm.br ^bb25(%237 : i64)
  ^bb27:  // pred: ^bb25
    %238 = llvm.add %201, %30  : i64
    llvm.br ^bb23(%238 : i64)
  ^bb28:  // pred: ^bb23
    %239 = llvm.add %198, %30  : i64
    llvm.br ^bb21(%239 : i64)
  ^bb29:  // pred: ^bb21
    %240 = llvm.add %196, %30  : i64
    llvm.br ^bb19(%240 : i64)
  ^bb30:  // pred: ^bb19
    %241 = llvm.call @malloc(%133) : (i64) -> !llvm.ptr
    %242 = llvm.ptrtoint %241 : !llvm.ptr to i64
    %243 = llvm.add %242, %60  : i64
    %244 = llvm.urem %243, %17  : i64
    %245 = llvm.sub %243, %244  : i64
    %246 = llvm.inttoptr %245 : i64 to !llvm.ptr
    %247 = llvm.insertvalue %241, %32[0] : !llvm.struct<(ptr, ptr, i64, array<4 x i64>, array<4 x i64>)> 
    %248 = llvm.insertvalue %246, %247[1] : !llvm.struct<(ptr, ptr, i64, array<4 x i64>, array<4 x i64>)> 
    %249 = llvm.insertvalue %31, %248[2] : !llvm.struct<(ptr, ptr, i64, array<4 x i64>, array<4 x i64>)> 
    %250 = llvm.insertvalue %30, %249[3, 0] : !llvm.struct<(ptr, ptr, i64, array<4 x i64>, array<4 x i64>)> 
    %251 = llvm.insertvalue %17, %250[3, 1] : !llvm.struct<(ptr, ptr, i64, array<4 x i64>, array<4 x i64>)> 
    %252 = llvm.insertvalue %18, %251[3, 2] : !llvm.struct<(ptr, ptr, i64, array<4 x i64>, array<4 x i64>)> 
    %253 = llvm.insertvalue %18, %252[3, 3] : !llvm.struct<(ptr, ptr, i64, array<4 x i64>, array<4 x i64>)> 
    %254 = llvm.insertvalue %6, %253[4, 0] : !llvm.struct<(ptr, ptr, i64, array<4 x i64>, array<4 x i64>)> 
    %255 = llvm.insertvalue %7, %254[4, 1] : !llvm.struct<(ptr, ptr, i64, array<4 x i64>, array<4 x i64>)> 
    %256 = llvm.insertvalue %18, %255[4, 2] : !llvm.struct<(ptr, ptr, i64, array<4 x i64>, array<4 x i64>)> 
    %257 = llvm.insertvalue %30, %256[4, 3] : !llvm.struct<(ptr, ptr, i64, array<4 x i64>, array<4 x i64>)> 
    %258 = builtin.unrealized_conversion_cast %257 : !llvm.struct<(ptr, ptr, i64, array<4 x i64>, array<4 x i64>)> to memref<1x64x112x112xf32>
    llvm.br ^bb31(%31 : i64)
  ^bb31(%259: i64):  // 2 preds: ^bb30, ^bb38
    %260 = llvm.icmp "slt" %259, %30 : i64
    llvm.cond_br %260, ^bb32, ^bb39
  ^bb32:  // pred: ^bb31
    llvm.br ^bb33(%31 : i64)
  ^bb33(%261: i64):  // 2 preds: ^bb32, ^bb37
    %262 = builtin.unrealized_conversion_cast %261 : i64 to index
    %263 = llvm.icmp "slt" %261, %17 : i64
    llvm.cond_br %263, ^bb34, ^bb38
  ^bb34:  // pred: ^bb33
    llvm.br ^bb35(%31 : i64)
  ^bb35(%264: i64):  // 2 preds: ^bb34, ^bb36
    %265 = builtin.unrealized_conversion_cast %264 : i64 to index
    %266 = llvm.icmp "slt" %264, %18 : i64
    llvm.cond_br %266, ^bb36, ^bb37
  ^bb36:  // pred: ^bb35
    %267 = llvm.mul %31, %6  : i64
    %268 = llvm.mul %261, %7  : i64
    %269 = llvm.add %267, %268  : i64
    %270 = llvm.mul %264, %18  : i64
    %271 = llvm.add %269, %270  : i64
    %272 = llvm.add %271, %31  : i64
    %273 = llvm.getelementptr %178[%272] : (!llvm.ptr, i64) -> !llvm.ptr, f32
    %274 = builtin.unrealized_conversion_cast %273 : !llvm.ptr to !llvm.struct<(ptr, ptr, i64, array<4 x i64>, array<4 x i64>)>
    %275 = llvm.getelementptr %52[%261] : (!llvm.ptr, i64) -> !llvm.ptr, f32
    %276 = builtin.unrealized_conversion_cast %275 : !llvm.ptr to !llvm.struct<(ptr, ptr, i64, array<1 x i64>, array<1 x i64>)>
    %277 = llvm.getelementptr %54[%261] : (!llvm.ptr, i64) -> !llvm.ptr, f32
    %278 = builtin.unrealized_conversion_cast %277 : !llvm.ptr to !llvm.struct<(ptr, ptr, i64, array<1 x i64>, array<1 x i64>)>
    %279 = llvm.getelementptr %48[%261] : (!llvm.ptr, i64) -> !llvm.ptr, f32
    %280 = builtin.unrealized_conversion_cast %279 : !llvm.ptr to !llvm.struct<(ptr, ptr, i64, array<1 x i64>, array<1 x i64>)>
    %281 = llvm.getelementptr %50[%261] : (!llvm.ptr, i64) -> !llvm.ptr, f32
    %282 = builtin.unrealized_conversion_cast %281 : !llvm.ptr to !llvm.struct<(ptr, ptr, i64, array<1 x i64>, array<1 x i64>)>
    %283 = llvm.getelementptr %246[%272] : (!llvm.ptr, i64) -> !llvm.ptr, f32
    %284 = builtin.unrealized_conversion_cast %283 : !llvm.ptr to !llvm.struct<(ptr, ptr, i64, array<4 x i64>, array<4 x i64>)>
    %285 = builtin.unrealized_conversion_cast %284 : !llvm.struct<(ptr, ptr, i64, array<4 x i64>, array<4 x i64>)> to memref<1x64x112x112xf32>
    %286 = llvm.extractvalue %274[1] : !llvm.struct<(ptr, ptr, i64, array<4 x i64>, array<4 x i64>)> 
    %287 = llvm.extractvalue %276[1] : !llvm.struct<(ptr, ptr, i64, array<1 x i64>, array<1 x i64>)> 
    %288 = llvm.extractvalue %278[1] : !llvm.struct<(ptr, ptr, i64, array<1 x i64>, array<1 x i64>)> 
    %289 = llvm.extractvalue %280[1] : !llvm.struct<(ptr, ptr, i64, array<1 x i64>, array<1 x i64>)> 
    %290 = llvm.extractvalue %282[1] : !llvm.struct<(ptr, ptr, i64, array<1 x i64>, array<1 x i64>)> 
    %291 = llvm.extractvalue %284[1] : !llvm.struct<(ptr, ptr, i64, array<4 x i64>, array<4 x i64>)> 
    llvm.call @forward_kernel_3(%286, %287, %288, %289, %290, %291) : (!llvm.ptr, !llvm.ptr, !llvm.ptr, !llvm.ptr, !llvm.ptr, !llvm.ptr) -> ()
    FDRA.BlockStore %285,  %258 [0, %262, %265, 0] : memref<1x64x112x112xf32> -> memref<1x64x112x112xf32> {"forward_kernel_3"}
    %292 = llvm.add %264, %19  : i64
    llvm.br ^bb35(%292 : i64)
  ^bb37:  // pred: ^bb35
    %293 = llvm.add %261, %30  : i64
    llvm.br ^bb33(%293 : i64)
  ^bb38:  // pred: ^bb33
    %294 = llvm.add %259, %30  : i64
    llvm.br ^bb31(%294 : i64)
  ^bb39:  // pred: ^bb31
    llvm.call @free(%173) : (!llvm.ptr) -> ()
    %295 = llvm.call @malloc(%133) : (i64) -> !llvm.ptr
    %296 = llvm.ptrtoint %295 : !llvm.ptr to i64
    %297 = llvm.add %296, %60  : i64
    %298 = llvm.urem %297, %17  : i64
    %299 = llvm.sub %297, %298  : i64
    %300 = llvm.inttoptr %299 : i64 to !llvm.ptr
    %301 = llvm.insertvalue %295, %32[0] : !llvm.struct<(ptr, ptr, i64, array<4 x i64>, array<4 x i64>)> 
    %302 = llvm.insertvalue %300, %301[1] : !llvm.struct<(ptr, ptr, i64, array<4 x i64>, array<4 x i64>)> 
    %303 = llvm.insertvalue %31, %302[2] : !llvm.struct<(ptr, ptr, i64, array<4 x i64>, array<4 x i64>)> 
    %304 = llvm.insertvalue %30, %303[3, 0] : !llvm.struct<(ptr, ptr, i64, array<4 x i64>, array<4 x i64>)> 
    %305 = llvm.insertvalue %17, %304[3, 1] : !llvm.struct<(ptr, ptr, i64, array<4 x i64>, array<4 x i64>)> 
    %306 = llvm.insertvalue %18, %305[3, 2] : !llvm.struct<(ptr, ptr, i64, array<4 x i64>, array<4 x i64>)> 
    %307 = llvm.insertvalue %18, %306[3, 3] : !llvm.struct<(ptr, ptr, i64, array<4 x i64>, array<4 x i64>)> 
    %308 = llvm.insertvalue %6, %307[4, 0] : !llvm.struct<(ptr, ptr, i64, array<4 x i64>, array<4 x i64>)> 
    %309 = llvm.insertvalue %7, %308[4, 1] : !llvm.struct<(ptr, ptr, i64, array<4 x i64>, array<4 x i64>)> 
    %310 = llvm.insertvalue %18, %309[4, 2] : !llvm.struct<(ptr, ptr, i64, array<4 x i64>, array<4 x i64>)> 
    %311 = llvm.insertvalue %30, %310[4, 3] : !llvm.struct<(ptr, ptr, i64, array<4 x i64>, array<4 x i64>)> 
    %312 = builtin.unrealized_conversion_cast %311 : !llvm.struct<(ptr, ptr, i64, array<4 x i64>, array<4 x i64>)> to memref<1x64x112x112xf32>
    llvm.br ^bb40(%31 : i64)
  ^bb40(%313: i64):  // 2 preds: ^bb39, ^bb47
    %314 = llvm.icmp "slt" %313, %30 : i64
    llvm.cond_br %314, ^bb41, ^bb48
  ^bb41:  // pred: ^bb40
    llvm.br ^bb42(%31 : i64)
  ^bb42(%315: i64):  // 2 preds: ^bb41, ^bb46
    %316 = builtin.unrealized_conversion_cast %315 : i64 to index
    %317 = llvm.icmp "slt" %315, %17 : i64
    llvm.cond_br %317, ^bb43, ^bb47
  ^bb43:  // pred: ^bb42
    llvm.br ^bb44(%31 : i64)
  ^bb44(%318: i64):  // 2 preds: ^bb43, ^bb45
    %319 = builtin.unrealized_conversion_cast %318 : i64 to index
    %320 = llvm.icmp "slt" %318, %18 : i64
    llvm.cond_br %320, ^bb45, ^bb46
  ^bb45:  // pred: ^bb44
    %321 = llvm.mul %31, %6  : i64
    %322 = llvm.mul %315, %7  : i64
    %323 = llvm.add %321, %322  : i64
    %324 = llvm.mul %318, %18  : i64
    %325 = llvm.add %323, %324  : i64
    %326 = llvm.add %325, %31  : i64
    %327 = llvm.getelementptr %246[%326] : (!llvm.ptr, i64) -> !llvm.ptr, f32
    %328 = builtin.unrealized_conversion_cast %327 : !llvm.ptr to !llvm.struct<(ptr, ptr, i64, array<4 x i64>, array<4 x i64>)>
    %329 = llvm.getelementptr %300[%326] : (!llvm.ptr, i64) -> !llvm.ptr, f32
    %330 = builtin.unrealized_conversion_cast %329 : !llvm.ptr to !llvm.struct<(ptr, ptr, i64, array<4 x i64>, array<4 x i64>)>
    %331 = builtin.unrealized_conversion_cast %330 : !llvm.struct<(ptr, ptr, i64, array<4 x i64>, array<4 x i64>)> to memref<1x64x112x112xf32>
    %332 = llvm.extractvalue %328[1] : !llvm.struct<(ptr, ptr, i64, array<4 x i64>, array<4 x i64>)> 
    %333 = llvm.extractvalue %330[1] : !llvm.struct<(ptr, ptr, i64, array<4 x i64>, array<4 x i64>)> 
    llvm.call @forward_kernel_4(%332, %333) : (!llvm.ptr, !llvm.ptr) -> ()
    FDRA.BlockStore %331,  %312 [0, %316, %319, 0] : memref<1x64x112x112xf32> -> memref<1x64x112x112xf32> {"forward_kernel_4"}
    %334 = llvm.add %318, %19  : i64
    llvm.br ^bb44(%334 : i64)
  ^bb46:  // pred: ^bb44
    %335 = llvm.add %315, %30  : i64
    llvm.br ^bb42(%335 : i64)
  ^bb47:  // pred: ^bb42
    %336 = llvm.add %313, %30  : i64
    llvm.br ^bb40(%336 : i64)
  ^bb48:  // pred: ^bb40
    llvm.call @free(%241) : (!llvm.ptr) -> ()
    llvm.call @free(%295) : (!llvm.ptr) -> ()
    %337 = llvm.getelementptr %44[831744] : (!llvm.ptr) -> !llvm.ptr, f32
    %338 = llvm.ptrtoint %337 : !llvm.ptr to i64
    %339 = llvm.add %338, %17  : i64
    %340 = llvm.call @malloc(%339) : (i64) -> !llvm.ptr
    %341 = llvm.ptrtoint %340 : !llvm.ptr to i64
    %342 = llvm.add %341, %60  : i64
    %343 = llvm.urem %342, %17  : i64
    %344 = llvm.sub %342, %343  : i64
    %345 = llvm.inttoptr %344 : i64 to !llvm.ptr
    %346 = llvm.insertvalue %340, %32[0] : !llvm.struct<(ptr, ptr, i64, array<4 x i64>, array<4 x i64>)> 
    %347 = llvm.insertvalue %345, %346[1] : !llvm.struct<(ptr, ptr, i64, array<4 x i64>, array<4 x i64>)> 
    %348 = llvm.insertvalue %31, %347[2] : !llvm.struct<(ptr, ptr, i64, array<4 x i64>, array<4 x i64>)> 
    %349 = llvm.insertvalue %30, %348[3, 0] : !llvm.struct<(ptr, ptr, i64, array<4 x i64>, array<4 x i64>)> 
    %350 = llvm.insertvalue %17, %349[3, 1] : !llvm.struct<(ptr, ptr, i64, array<4 x i64>, array<4 x i64>)> 
    %351 = llvm.insertvalue %21, %350[3, 2] : !llvm.struct<(ptr, ptr, i64, array<4 x i64>, array<4 x i64>)> 
    %352 = llvm.insertvalue %21, %351[3, 3] : !llvm.struct<(ptr, ptr, i64, array<4 x i64>, array<4 x i64>)> 
    %353 = llvm.insertvalue %3, %352[4, 0] : !llvm.struct<(ptr, ptr, i64, array<4 x i64>, array<4 x i64>)> 
    %354 = llvm.insertvalue %4, %353[4, 1] : !llvm.struct<(ptr, ptr, i64, array<4 x i64>, array<4 x i64>)> 
    %355 = llvm.insertvalue %21, %354[4, 2] : !llvm.struct<(ptr, ptr, i64, array<4 x i64>, array<4 x i64>)> 
    %356 = llvm.insertvalue %30, %355[4, 3] : !llvm.struct<(ptr, ptr, i64, array<4 x i64>, array<4 x i64>)> 
    %357 = builtin.unrealized_conversion_cast %356 : !llvm.struct<(ptr, ptr, i64, array<4 x i64>, array<4 x i64>)> to memref<1x64x114x114xf32>
    llvm.br ^bb49(%31 : i64)
  ^bb49(%358: i64):  // 2 preds: ^bb48, ^bb56
    %359 = llvm.icmp "slt" %358, %30 : i64
    llvm.cond_br %359, ^bb50, ^bb57
  ^bb50:  // pred: ^bb49
    llvm.br ^bb51(%31 : i64)
  ^bb51(%360: i64):  // 2 preds: ^bb50, ^bb55
    %361 = builtin.unrealized_conversion_cast %360 : i64 to index
    %362 = llvm.icmp "slt" %360, %17 : i64
    llvm.cond_br %362, ^bb52, ^bb56
  ^bb52:  // pred: ^bb51
    llvm.br ^bb53(%31 : i64)
  ^bb53(%363: i64):  // 2 preds: ^bb52, ^bb54
    %364 = builtin.unrealized_conversion_cast %363 : i64 to index
    %365 = llvm.icmp "slt" %363, %21 : i64
    llvm.cond_br %365, ^bb54, ^bb55
  ^bb54:  // pred: ^bb53
    %366 = llvm.mul %31, %3  : i64
    %367 = llvm.mul %360, %4  : i64
    %368 = llvm.add %366, %367  : i64
    %369 = llvm.mul %363, %21  : i64
    %370 = llvm.add %368, %369  : i64
    %371 = llvm.add %370, %31  : i64
    %372 = llvm.getelementptr %345[%371] : (!llvm.ptr, i64) -> !llvm.ptr, f32
    %373 = builtin.unrealized_conversion_cast %372 : !llvm.ptr to !llvm.struct<(ptr, ptr, i64, array<4 x i64>, array<4 x i64>)>
    %374 = builtin.unrealized_conversion_cast %373 : !llvm.struct<(ptr, ptr, i64, array<4 x i64>, array<4 x i64>)> to memref<1x64x114x114xf32>
    %375 = llvm.extractvalue %373[1] : !llvm.struct<(ptr, ptr, i64, array<4 x i64>, array<4 x i64>)> 
    llvm.call @forward_kernel_5(%375) : (!llvm.ptr) -> ()
    FDRA.BlockStore %374,  %357 [0, %361, %364, 0] : memref<1x64x114x114xf32> -> memref<1x64x114x114xf32> {"forward_kernel_5"}
    %376 = llvm.add %363, %22  : i64
    llvm.br ^bb53(%376 : i64)
  ^bb55:  // pred: ^bb53
    %377 = llvm.add %360, %30  : i64
    llvm.br ^bb51(%377 : i64)
  ^bb56:  // pred: ^bb51
    %378 = llvm.add %358, %30  : i64
    llvm.br ^bb49(%378 : i64)
  ^bb57:  // pred: ^bb49
    llvm.call @free(%340) : (!llvm.ptr) -> ()
    %379 = llvm.call @malloc(%339) : (i64) -> !llvm.ptr
    %380 = llvm.ptrtoint %379 : !llvm.ptr to i64
    %381 = llvm.add %380, %60  : i64
    %382 = llvm.urem %381, %17  : i64
    %383 = llvm.sub %381, %382  : i64
    %384 = llvm.inttoptr %383 : i64 to !llvm.ptr
    %385 = llvm.mul %30, %30  : i64
    %386 = llvm.mul %385, %17  : i64
    %387 = llvm.mul %386, %21  : i64
    %388 = llvm.mul %387, %21  : i64
    %389 = llvm.mul %388, %109  : i64
    "llvm.intr.memcpy"(%384, %345, %389) <{isVolatile = false}> : (!llvm.ptr, !llvm.ptr, i64) -> ()
    %390 = llvm.insertvalue %379, %32[0] : !llvm.struct<(ptr, ptr, i64, array<4 x i64>, array<4 x i64>)> 
    %391 = llvm.insertvalue %384, %390[1] : !llvm.struct<(ptr, ptr, i64, array<4 x i64>, array<4 x i64>)> 
    %392 = llvm.insertvalue %2, %391[2] : !llvm.struct<(ptr, ptr, i64, array<4 x i64>, array<4 x i64>)> 
    %393 = llvm.insertvalue %30, %392[3, 0] : !llvm.struct<(ptr, ptr, i64, array<4 x i64>, array<4 x i64>)> 
    %394 = llvm.insertvalue %3, %393[4, 0] : !llvm.struct<(ptr, ptr, i64, array<4 x i64>, array<4 x i64>)> 
    %395 = llvm.insertvalue %17, %394[3, 1] : !llvm.struct<(ptr, ptr, i64, array<4 x i64>, array<4 x i64>)> 
    %396 = llvm.insertvalue %4, %395[4, 1] : !llvm.struct<(ptr, ptr, i64, array<4 x i64>, array<4 x i64>)> 
    %397 = llvm.insertvalue %18, %396[3, 2] : !llvm.struct<(ptr, ptr, i64, array<4 x i64>, array<4 x i64>)> 
    %398 = llvm.insertvalue %21, %397[4, 2] : !llvm.struct<(ptr, ptr, i64, array<4 x i64>, array<4 x i64>)> 
    %399 = llvm.insertvalue %18, %398[3, 3] : !llvm.struct<(ptr, ptr, i64, array<4 x i64>, array<4 x i64>)> 
    %400 = llvm.insertvalue %30, %399[4, 3] : !llvm.struct<(ptr, ptr, i64, array<4 x i64>, array<4 x i64>)> 
    %401 = llvm.intr.stacksave : !llvm.ptr
    %402 = llvm.alloca %30 x !llvm.struct<(ptr, ptr, i64, array<4 x i64>, array<4 x i64>)> : (i64) -> !llvm.ptr
    llvm.store %311, %402 : !llvm.struct<(ptr, ptr, i64, array<4 x i64>, array<4 x i64>)>, !llvm.ptr
    %403 = llvm.insertvalue %402, %125[1] : !llvm.struct<(i64, ptr)> 
    %404 = llvm.alloca %30 x !llvm.struct<(ptr, ptr, i64, array<4 x i64>, array<4 x i64>)> : (i64) -> !llvm.ptr
    llvm.store %400, %404 : !llvm.struct<(ptr, ptr, i64, array<4 x i64>, array<4 x i64>)>, !llvm.ptr
    %405 = llvm.insertvalue %404, %125[1] : !llvm.struct<(i64, ptr)> 
    %406 = llvm.alloca %30 x !llvm.struct<(i64, ptr)> : (i64) -> !llvm.ptr
    llvm.store %403, %406 : !llvm.struct<(i64, ptr)>, !llvm.ptr
    %407 = llvm.alloca %30 x !llvm.struct<(i64, ptr)> : (i64) -> !llvm.ptr
    llvm.store %405, %407 : !llvm.struct<(i64, ptr)>, !llvm.ptr
    llvm.call @memrefCopy(%25, %406, %407) : (i64, !llvm.ptr, !llvm.ptr) -> ()
    llvm.intr.stackrestore %401 : !llvm.ptr
    %408 = llvm.getelementptr %44[200704] : (!llvm.ptr) -> !llvm.ptr, f32
    %409 = llvm.ptrtoint %408 : !llvm.ptr to i64
    %410 = llvm.add %409, %17  : i64
    %411 = llvm.call @malloc(%410) : (i64) -> !llvm.ptr
    %412 = llvm.ptrtoint %411 : !llvm.ptr to i64
    %413 = llvm.add %412, %60  : i64
    %414 = llvm.urem %413, %17  : i64
    %415 = llvm.sub %413, %414  : i64
    %416 = llvm.inttoptr %415 : i64 to !llvm.ptr
    %417 = llvm.insertvalue %411, %32[0] : !llvm.struct<(ptr, ptr, i64, array<4 x i64>, array<4 x i64>)> 
    %418 = llvm.insertvalue %416, %417[1] : !llvm.struct<(ptr, ptr, i64, array<4 x i64>, array<4 x i64>)> 
    %419 = llvm.insertvalue %31, %418[2] : !llvm.struct<(ptr, ptr, i64, array<4 x i64>, array<4 x i64>)> 
    %420 = llvm.insertvalue %30, %419[3, 0] : !llvm.struct<(ptr, ptr, i64, array<4 x i64>, array<4 x i64>)> 
    %421 = llvm.insertvalue %17, %420[3, 1] : !llvm.struct<(ptr, ptr, i64, array<4 x i64>, array<4 x i64>)> 
    %422 = llvm.insertvalue %23, %421[3, 2] : !llvm.struct<(ptr, ptr, i64, array<4 x i64>, array<4 x i64>)> 
    %423 = llvm.insertvalue %23, %422[3, 3] : !llvm.struct<(ptr, ptr, i64, array<4 x i64>, array<4 x i64>)> 
    %424 = llvm.insertvalue %0, %423[4, 0] : !llvm.struct<(ptr, ptr, i64, array<4 x i64>, array<4 x i64>)> 
    %425 = llvm.insertvalue %1, %424[4, 1] : !llvm.struct<(ptr, ptr, i64, array<4 x i64>, array<4 x i64>)> 
    %426 = llvm.insertvalue %23, %425[4, 2] : !llvm.struct<(ptr, ptr, i64, array<4 x i64>, array<4 x i64>)> 
    %427 = llvm.insertvalue %30, %426[4, 3] : !llvm.struct<(ptr, ptr, i64, array<4 x i64>, array<4 x i64>)> 
    %428 = builtin.unrealized_conversion_cast %427 : !llvm.struct<(ptr, ptr, i64, array<4 x i64>, array<4 x i64>)> to memref<1x64x56x56xf32>
    llvm.br ^bb58(%31 : i64)
  ^bb58(%429: i64):  // 2 preds: ^bb57, ^bb65
    %430 = llvm.icmp "slt" %429, %30 : i64
    llvm.cond_br %430, ^bb59, ^bb66
  ^bb59:  // pred: ^bb58
    llvm.br ^bb60(%31 : i64)
  ^bb60(%431: i64):  // 2 preds: ^bb59, ^bb64
    %432 = builtin.unrealized_conversion_cast %431 : i64 to index
    %433 = llvm.icmp "slt" %431, %17 : i64
    llvm.cond_br %433, ^bb61, ^bb65
  ^bb61:  // pred: ^bb60
    llvm.br ^bb62(%31 : i64)
  ^bb62(%434: i64):  // 2 preds: ^bb61, ^bb63
    %435 = builtin.unrealized_conversion_cast %434 : i64 to index
    %436 = llvm.icmp "slt" %434, %23 : i64
    llvm.cond_br %436, ^bb63, ^bb64
  ^bb63:  // pred: ^bb62
    %437 = llvm.mul %31, %0  : i64
    %438 = llvm.mul %431, %1  : i64
    %439 = llvm.add %437, %438  : i64
    %440 = llvm.mul %434, %23  : i64
    %441 = llvm.add %439, %440  : i64
    %442 = llvm.add %441, %31  : i64
    %443 = llvm.getelementptr %416[%442] : (!llvm.ptr, i64) -> !llvm.ptr, f32
    %444 = builtin.unrealized_conversion_cast %443 : !llvm.ptr to !llvm.struct<(ptr, ptr, i64, array<4 x i64>, array<4 x i64>)>
    %445 = builtin.unrealized_conversion_cast %444 : !llvm.struct<(ptr, ptr, i64, array<4 x i64>, array<4 x i64>)> to memref<1x64x56x56xf32>
    %446 = llvm.extractvalue %444[1] : !llvm.struct<(ptr, ptr, i64, array<4 x i64>, array<4 x i64>)> 
    llvm.call @forward_kernel_6(%446) : (!llvm.ptr) -> ()
    FDRA.BlockStore %445,  %428 [0, %432, %435, 0] : memref<1x64x56x56xf32> -> memref<1x64x56x56xf32> {"forward_kernel_6"}
    %447 = llvm.add %434, %24  : i64
    llvm.br ^bb62(%447 : i64)
  ^bb64:  // pred: ^bb62
    %448 = llvm.add %431, %30  : i64
    llvm.br ^bb60(%448 : i64)
  ^bb65:  // pred: ^bb60
    %449 = llvm.add %429, %30  : i64
    llvm.br ^bb58(%449 : i64)
  ^bb66:  // pred: ^bb58
    %450 = llvm.call @malloc(%410) : (i64) -> !llvm.ptr
    %451 = llvm.ptrtoint %450 : !llvm.ptr to i64
    %452 = llvm.add %451, %60  : i64
    %453 = llvm.urem %452, %17  : i64
    %454 = llvm.sub %452, %453  : i64
    %455 = llvm.inttoptr %454 : i64 to !llvm.ptr
    %456 = llvm.insertvalue %450, %32[0] : !llvm.struct<(ptr, ptr, i64, array<4 x i64>, array<4 x i64>)> 
    %457 = llvm.insertvalue %455, %456[1] : !llvm.struct<(ptr, ptr, i64, array<4 x i64>, array<4 x i64>)> 
    %458 = llvm.insertvalue %31, %457[2] : !llvm.struct<(ptr, ptr, i64, array<4 x i64>, array<4 x i64>)> 
    %459 = llvm.insertvalue %30, %458[3, 0] : !llvm.struct<(ptr, ptr, i64, array<4 x i64>, array<4 x i64>)> 
    %460 = llvm.insertvalue %17, %459[3, 1] : !llvm.struct<(ptr, ptr, i64, array<4 x i64>, array<4 x i64>)> 
    %461 = llvm.insertvalue %23, %460[3, 2] : !llvm.struct<(ptr, ptr, i64, array<4 x i64>, array<4 x i64>)> 
    %462 = llvm.insertvalue %23, %461[3, 3] : !llvm.struct<(ptr, ptr, i64, array<4 x i64>, array<4 x i64>)> 
    %463 = llvm.insertvalue %0, %462[4, 0] : !llvm.struct<(ptr, ptr, i64, array<4 x i64>, array<4 x i64>)> 
    %464 = llvm.insertvalue %1, %463[4, 1] : !llvm.struct<(ptr, ptr, i64, array<4 x i64>, array<4 x i64>)> 
    %465 = llvm.insertvalue %23, %464[4, 2] : !llvm.struct<(ptr, ptr, i64, array<4 x i64>, array<4 x i64>)> 
    %466 = llvm.insertvalue %30, %465[4, 3] : !llvm.struct<(ptr, ptr, i64, array<4 x i64>, array<4 x i64>)> 
    %467 = builtin.unrealized_conversion_cast %466 : !llvm.struct<(ptr, ptr, i64, array<4 x i64>, array<4 x i64>)> to memref<1x64x56x56xf32>
    %468 = llvm.mul %30, %30  : i64
    %469 = llvm.mul %468, %17  : i64
    %470 = llvm.mul %469, %23  : i64
    %471 = llvm.mul %470, %23  : i64
    %472 = llvm.mul %471, %109  : i64
    "llvm.intr.memcpy"(%455, %416, %472) <{isVolatile = false}> : (!llvm.ptr, !llvm.ptr, i64) -> ()
    llvm.call @free(%411) : (!llvm.ptr) -> ()
    llvm.br ^bb67(%31 : i64)
  ^bb67(%473: i64):  // 2 preds: ^bb66, ^bb74
    %474 = llvm.icmp "slt" %473, %30 : i64
    llvm.cond_br %474, ^bb68, ^bb75
  ^bb68:  // pred: ^bb67
    llvm.br ^bb69(%31 : i64)
  ^bb69(%475: i64):  // 2 preds: ^bb68, ^bb73
    %476 = builtin.unrealized_conversion_cast %475 : i64 to index
    %477 = llvm.icmp "slt" %475, %17 : i64
    llvm.cond_br %477, ^bb70, ^bb74
  ^bb70:  // pred: ^bb69
    llvm.br ^bb71(%31 : i64)
  ^bb71(%478: i64):  // 2 preds: ^bb70, ^bb72
    %479 = builtin.unrealized_conversion_cast %478 : i64 to index
    %480 = llvm.icmp "slt" %478, %23 : i64
    llvm.cond_br %480, ^bb72, ^bb73
  ^bb72:  // pred: ^bb71
    %481 = llvm.mul %478, %5  : i64
    %482 = llvm.mul %31, %3  : i64
    %483 = llvm.mul %475, %4  : i64
    %484 = llvm.add %482, %483  : i64
    %485 = llvm.mul %481, %21  : i64
    %486 = llvm.add %484, %485  : i64
    %487 = llvm.add %486, %31  : i64
    %488 = llvm.getelementptr %384[%487] : (!llvm.ptr, i64) -> !llvm.ptr, f32
    %489 = builtin.unrealized_conversion_cast %488 : !llvm.ptr to !llvm.struct<(ptr, ptr, i64, array<4 x i64>, array<4 x i64>)>
    %490 = llvm.mul %31, %0  : i64
    %491 = llvm.mul %475, %1  : i64
    %492 = llvm.add %490, %491  : i64
    %493 = llvm.mul %478, %23  : i64
    %494 = llvm.add %492, %493  : i64
    %495 = llvm.add %494, %31  : i64
    %496 = llvm.getelementptr %455[%495] : (!llvm.ptr, i64) -> !llvm.ptr, f32
    %497 = builtin.unrealized_conversion_cast %496 : !llvm.ptr to !llvm.struct<(ptr, ptr, i64, array<4 x i64>, array<4 x i64>)>
    %498 = builtin.unrealized_conversion_cast %497 : !llvm.struct<(ptr, ptr, i64, array<4 x i64>, array<4 x i64>)> to memref<1x64x56x56xf32>
    %499 = llvm.extractvalue %489[1] : !llvm.struct<(ptr, ptr, i64, array<4 x i64>, array<4 x i64>)> 
    %500 = llvm.extractvalue %497[1] : !llvm.struct<(ptr, ptr, i64, array<4 x i64>, array<4 x i64>)> 
    llvm.call @forward_kernel_7(%499, %500, %500) : (!llvm.ptr, !llvm.ptr, !llvm.ptr) -> ()
    FDRA.BlockStore %498,  %467 [0, %476, %479, 0] : memref<1x64x56x56xf32> -> memref<1x64x56x56xf32> {"forward_kernel_7"}
    %501 = llvm.add %478, %25  : i64
    llvm.br ^bb71(%501 : i64)
  ^bb73:  // pred: ^bb71
    %502 = llvm.add %475, %30  : i64
    llvm.br ^bb69(%502 : i64)
  ^bb74:  // pred: ^bb69
    %503 = llvm.add %473, %30  : i64
    llvm.br ^bb67(%503 : i64)
  ^bb75:  // pred: ^bb67
    llvm.call @free(%450) : (!llvm.ptr) -> ()
    llvm.return %450 : !llvm.ptr
  }
  llvm.func @forward_kernel_0(%arg0: !llvm.ptr) attributes {Kernel, forward_kernel_0} {
    %0 = llvm.mlir.constant(0.000000e+00 : f32) : f32
    %1 = llvm.mlir.constant(5 : index) : i64
    %2 = llvm.mlir.constant(230 : index) : i64
    %3 = llvm.mlir.constant(52900 : index) : i64
    %4 = llvm.mlir.constant(158700 : index) : i64
    %5 = llvm.mlir.constant(1 : index) : i64
    %6 = llvm.mlir.constant(0 : index) : i64
    llvm.br ^bb1
  ^bb1:  // pred: ^bb0
    llvm.br ^bb2(%6 : i64)
  ^bb2(%7: i64):  // 2 preds: ^bb1, ^bb6
    %8 = llvm.icmp "slt" %7, %1 : i64
    llvm.cond_br %8, ^bb3, ^bb7
  ^bb3:  // pred: ^bb2
    llvm.br ^bb4(%6 : i64)
  ^bb4(%9: i64):  // 2 preds: ^bb3, ^bb5
    %10 = llvm.icmp "slt" %9, %2 : i64
    llvm.cond_br %10, ^bb5, ^bb6
  ^bb5:  // pred: ^bb4
    %11 = llvm.mul %6, %4  : i64
    %12 = llvm.mul %6, %3  : i64
    %13 = llvm.add %11, %12  : i64
    %14 = llvm.mul %7, %2  : i64
    %15 = llvm.add %13, %14  : i64
    %16 = llvm.add %15, %9  : i64
    %17 = llvm.getelementptr %arg0[%16] : (!llvm.ptr, i64) -> !llvm.ptr, f32
    llvm.store %0, %17 : f32, !llvm.ptr
    %18 = llvm.add %9, %5  : i64
    llvm.br ^bb4(%18 : i64)
  ^bb6:  // pred: ^bb4
    %19 = llvm.add %7, %5  : i64
    llvm.br ^bb2(%19 : i64)
  ^bb7:  // pred: ^bb2
    llvm.return
  }
  llvm.func @forward_kernel_1(%arg0: !llvm.ptr) attributes {Kernel, forward_kernel_1} {
    %0 = llvm.mlir.constant(0.000000e+00 : f32) : f32
    %1 = llvm.mlir.constant(16 : index) : i64
    %2 = llvm.mlir.constant(112 : index) : i64
    %3 = llvm.mlir.constant(12544 : index) : i64
    %4 = llvm.mlir.constant(802816 : index) : i64
    %5 = llvm.mlir.constant(1 : index) : i64
    %6 = llvm.mlir.constant(0 : index) : i64
    llvm.br ^bb1
  ^bb1:  // pred: ^bb0
    llvm.br ^bb2(%6 : i64)
  ^bb2(%7: i64):  // 2 preds: ^bb1, ^bb6
    %8 = llvm.icmp "slt" %7, %1 : i64
    llvm.cond_br %8, ^bb3, ^bb7
  ^bb3:  // pred: ^bb2
    llvm.br ^bb4(%6 : i64)
  ^bb4(%9: i64):  // 2 preds: ^bb3, ^bb5
    %10 = llvm.icmp "slt" %9, %2 : i64
    llvm.cond_br %10, ^bb5, ^bb6
  ^bb5:  // pred: ^bb4
    %11 = llvm.mul %6, %4  : i64
    %12 = llvm.mul %6, %3  : i64
    %13 = llvm.add %11, %12  : i64
    %14 = llvm.mul %7, %2  : i64
    %15 = llvm.add %13, %14  : i64
    %16 = llvm.add %15, %9  : i64
    %17 = llvm.getelementptr %arg0[%16] : (!llvm.ptr, i64) -> !llvm.ptr, f32
    llvm.store %0, %17 : f32, !llvm.ptr
    %18 = llvm.add %9, %5  : i64
    llvm.br ^bb4(%18 : i64)
  ^bb6:  // pred: ^bb4
    %19 = llvm.add %7, %5  : i64
    llvm.br ^bb2(%19 : i64)
  ^bb7:  // pred: ^bb2
    llvm.return
  }
  llvm.func @forward_kernel_2(%arg0: !llvm.ptr, %arg1: !llvm.ptr, %arg2: !llvm.ptr, %arg3: !llvm.ptr) attributes {Kernel, forward_kernel_2} {
    %0 = llvm.mlir.constant(8 : index) : i64
    %1 = llvm.mlir.constant(2 : index) : i64
    %2 = llvm.mlir.constant(112 : index) : i64
    %3 = llvm.mlir.constant(12544 : index) : i64
    %4 = llvm.mlir.constant(802816 : index) : i64
    %5 = llvm.mlir.constant(7 : index) : i64
    %6 = llvm.mlir.constant(49 : index) : i64
    %7 = llvm.mlir.constant(147 : index) : i64
    %8 = llvm.mlir.constant(230 : index) : i64
    %9 = llvm.mlir.constant(52900 : index) : i64
    %10 = llvm.mlir.constant(3 : index) : i64
    %11 = llvm.mlir.constant(158700 : index) : i64
    %12 = llvm.mlir.constant(1 : index) : i64
    %13 = llvm.mlir.constant(0 : index) : i64
    llvm.br ^bb1
  ^bb1:  // pred: ^bb0
    llvm.br ^bb2(%13 : i64)
  ^bb2(%14: i64):  // 2 preds: ^bb1, ^bb12
    %15 = llvm.icmp "slt" %14, %0 : i64
    llvm.cond_br %15, ^bb3, ^bb13
  ^bb3:  // pred: ^bb2
    llvm.br ^bb4(%13 : i64)
  ^bb4(%16: i64):  // 2 preds: ^bb3, ^bb11
    %17 = llvm.icmp "slt" %16, %10 : i64
    llvm.cond_br %17, ^bb5, ^bb12
  ^bb5:  // pred: ^bb4
    llvm.br ^bb6(%13 : i64)
  ^bb6(%18: i64):  // 2 preds: ^bb5, ^bb10
    %19 = llvm.icmp "slt" %18, %5 : i64
    llvm.cond_br %19, ^bb7, ^bb11
  ^bb7:  // pred: ^bb6
    llvm.br ^bb8(%13 : i64)
  ^bb8(%20: i64):  // 2 preds: ^bb7, ^bb9
    %21 = llvm.icmp "slt" %20, %5 : i64
    llvm.cond_br %21, ^bb9, ^bb10
  ^bb9:  // pred: ^bb8
    %22 = llvm.mul %14, %1  : i64
    %23 = llvm.add %22, %20  : i64
    %24 = llvm.mul %13, %11  : i64
    %25 = llvm.mul %16, %9  : i64
    %26 = llvm.add %24, %25  : i64
    %27 = llvm.mul %18, %8  : i64
    %28 = llvm.add %26, %27  : i64
    %29 = llvm.add %28, %23  : i64
    %30 = llvm.getelementptr %arg0[%29] : (!llvm.ptr, i64) -> !llvm.ptr, f32
    %31 = llvm.load %30 : !llvm.ptr -> f32
    %32 = llvm.mul %13, %7  : i64
    %33 = llvm.mul %16, %6  : i64
    %34 = llvm.add %32, %33  : i64
    %35 = llvm.mul %18, %5  : i64
    %36 = llvm.add %34, %35  : i64
    %37 = llvm.add %36, %20  : i64
    %38 = llvm.getelementptr %arg1[%37] : (!llvm.ptr, i64) -> !llvm.ptr, f32
    %39 = llvm.load %38 : !llvm.ptr -> f32
    %40 = llvm.mul %13, %4  : i64
    %41 = llvm.mul %13, %3  : i64
    %42 = llvm.add %40, %41  : i64
    %43 = llvm.mul %13, %2  : i64
    %44 = llvm.add %42, %43  : i64
    %45 = llvm.add %44, %14  : i64
    %46 = llvm.getelementptr %arg2[%45] : (!llvm.ptr, i64) -> !llvm.ptr, f32
    %47 = llvm.load %46 : !llvm.ptr -> f32
    %48 = llvm.fmul %31, %39  : f32
    %49 = llvm.fadd %47, %48  : f32
    %50 = llvm.getelementptr %arg3[%45] : (!llvm.ptr, i64) -> !llvm.ptr, f32
    llvm.store %49, %50 : f32, !llvm.ptr
    %51 = llvm.add %20, %12  : i64
    llvm.br ^bb8(%51 : i64)
  ^bb10:  // pred: ^bb8
    %52 = llvm.add %18, %12  : i64
    llvm.br ^bb6(%52 : i64)
  ^bb11:  // pred: ^bb6
    %53 = llvm.add %16, %12  : i64
    llvm.br ^bb4(%53 : i64)
  ^bb12:  // pred: ^bb4
    %54 = llvm.add %14, %12  : i64
    llvm.br ^bb2(%54 : i64)
  ^bb13:  // pred: ^bb2
    llvm.return
  }
  llvm.func @forward_kernel_3(%arg0: !llvm.ptr, %arg1: !llvm.ptr, %arg2: !llvm.ptr, %arg3: !llvm.ptr, %arg4: !llvm.ptr, %arg5: !llvm.ptr) attributes {Kernel, forward_kernel_3} {
    %0 = llvm.mlir.constant(1.000000e-05 : f64) : f64
    %1 = llvm.mlir.constant(5.000000e-01 : f32) : f32
    %2 = llvm.mlir.constant(1 : i32) : i32
    %3 = llvm.mlir.constant(1597463007 : i32) : i32
    %4 = llvm.mlir.constant(1.500000e+00 : f32) : f32
    %5 = llvm.mlir.constant(16 : index) : i64
    %6 = llvm.mlir.constant(112 : index) : i64
    %7 = llvm.mlir.constant(12544 : index) : i64
    %8 = llvm.mlir.constant(802816 : index) : i64
    %9 = llvm.mlir.constant(1 : index) : i64
    %10 = llvm.mlir.constant(0 : index) : i64
    llvm.br ^bb1
  ^bb1:  // pred: ^bb0
    llvm.br ^bb2(%10 : i64)
  ^bb2(%11: i64):  // 2 preds: ^bb1, ^bb6
    %12 = llvm.icmp "slt" %11, %5 : i64
    llvm.cond_br %12, ^bb3, ^bb7
  ^bb3:  // pred: ^bb2
    llvm.br ^bb4(%10 : i64)
  ^bb4(%13: i64):  // 2 preds: ^bb3, ^bb5
    %14 = llvm.icmp "slt" %13, %6 : i64
    llvm.cond_br %14, ^bb5, ^bb6
  ^bb5:  // pred: ^bb4
    %15 = llvm.mul %10, %8  : i64
    %16 = llvm.mul %10, %7  : i64
    %17 = llvm.add %15, %16  : i64
    %18 = llvm.mul %11, %6  : i64
    %19 = llvm.add %17, %18  : i64
    %20 = llvm.add %19, %13  : i64
    %21 = llvm.getelementptr %arg0[%20] : (!llvm.ptr, i64) -> !llvm.ptr, f32
    %22 = llvm.load %21 : !llvm.ptr -> f32
    %23 = llvm.load %arg1 : !llvm.ptr -> f32
    %24 = llvm.load %arg2 : !llvm.ptr -> f32
    %25 = llvm.load %arg3 : !llvm.ptr -> f32
    %26 = llvm.load %arg4 : !llvm.ptr -> f32
    %27 = llvm.fptrunc %0 : f64 to f32
    %28 = llvm.fadd %26, %27  : f32
    %29 = llvm.fmul %28, %1  : f32
    %30 = llvm.bitcast %28 : f32 to i32
    %31 = llvm.lshr %30, %2  : i32
    %32 = llvm.sub %3, %31  : i32
    %33 = llvm.bitcast %32 : i32 to f32
    %34 = llvm.fmul %33, %33  : f32
    %35 = llvm.fmul %34, %29  : f32
    %36 = llvm.fsub %4, %35  : f32
    %37 = llvm.fmul %36, %34  : f32
    %38 = llvm.fsub %22, %25  : f32
    %39 = llvm.fmul %38, %37  : f32
    %40 = llvm.fmul %39, %23  : f32
    %41 = llvm.fadd %40, %24  : f32
    %42 = llvm.getelementptr %arg5[%20] : (!llvm.ptr, i64) -> !llvm.ptr, f32
    llvm.store %41, %42 : f32, !llvm.ptr
    %43 = llvm.add %13, %9  : i64
    llvm.br ^bb4(%43 : i64)
  ^bb6:  // pred: ^bb4
    %44 = llvm.add %11, %9  : i64
    llvm.br ^bb2(%44 : i64)
  ^bb7:  // pred: ^bb2
    llvm.return
  }
  llvm.func @forward_kernel_4(%arg0: !llvm.ptr, %arg1: !llvm.ptr) attributes {Kernel, forward_kernel_4} {
    %0 = llvm.mlir.constant(0.000000e+00 : f32) : f32
    %1 = llvm.mlir.constant(16 : index) : i64
    %2 = llvm.mlir.constant(112 : index) : i64
    %3 = llvm.mlir.constant(12544 : index) : i64
    %4 = llvm.mlir.constant(802816 : index) : i64
    %5 = llvm.mlir.constant(1 : index) : i64
    %6 = llvm.mlir.constant(0 : index) : i64
    llvm.br ^bb1
  ^bb1:  // pred: ^bb0
    llvm.br ^bb2(%6 : i64)
  ^bb2(%7: i64):  // 2 preds: ^bb1, ^bb6
    %8 = llvm.icmp "slt" %7, %1 : i64
    llvm.cond_br %8, ^bb3, ^bb7
  ^bb3:  // pred: ^bb2
    llvm.br ^bb4(%6 : i64)
  ^bb4(%9: i64):  // 2 preds: ^bb3, ^bb5
    %10 = llvm.icmp "slt" %9, %2 : i64
    llvm.cond_br %10, ^bb5, ^bb6
  ^bb5:  // pred: ^bb4
    %11 = llvm.mul %6, %4  : i64
    %12 = llvm.mul %6, %3  : i64
    %13 = llvm.add %11, %12  : i64
    %14 = llvm.mul %7, %2  : i64
    %15 = llvm.add %13, %14  : i64
    %16 = llvm.add %15, %9  : i64
    %17 = llvm.getelementptr %arg0[%16] : (!llvm.ptr, i64) -> !llvm.ptr, f32
    %18 = llvm.load %17 : !llvm.ptr -> f32
    %19 = llvm.fcmp "ugt" %18, %0 : f32
    %20 = llvm.select %19, %18, %0 : i1, f32
    %21 = llvm.getelementptr %arg1[%16] : (!llvm.ptr, i64) -> !llvm.ptr, f32
    llvm.store %20, %21 : f32, !llvm.ptr
    %22 = llvm.add %9, %5  : i64
    llvm.br ^bb4(%22 : i64)
  ^bb6:  // pred: ^bb4
    %23 = llvm.add %7, %5  : i64
    llvm.br ^bb2(%23 : i64)
  ^bb7:  // pred: ^bb2
    llvm.return
  }
  llvm.func @forward_kernel_5(%arg0: !llvm.ptr) attributes {Kernel, forward_kernel_5} {
    %0 = llvm.mlir.constant(0xFF800000 : f32) : f32
    %1 = llvm.mlir.constant(6 : index) : i64
    %2 = llvm.mlir.constant(114 : index) : i64
    %3 = llvm.mlir.constant(12996 : index) : i64
    %4 = llvm.mlir.constant(831744 : index) : i64
    %5 = llvm.mlir.constant(1 : index) : i64
    %6 = llvm.mlir.constant(0 : index) : i64
    llvm.br ^bb1
  ^bb1:  // pred: ^bb0
    llvm.br ^bb2(%6 : i64)
  ^bb2(%7: i64):  // 2 preds: ^bb1, ^bb6
    %8 = llvm.icmp "slt" %7, %1 : i64
    llvm.cond_br %8, ^bb3, ^bb7
  ^bb3:  // pred: ^bb2
    llvm.br ^bb4(%6 : i64)
  ^bb4(%9: i64):  // 2 preds: ^bb3, ^bb5
    %10 = llvm.icmp "slt" %9, %2 : i64
    llvm.cond_br %10, ^bb5, ^bb6
  ^bb5:  // pred: ^bb4
    %11 = llvm.mul %6, %4  : i64
    %12 = llvm.mul %6, %3  : i64
    %13 = llvm.add %11, %12  : i64
    %14 = llvm.mul %7, %2  : i64
    %15 = llvm.add %13, %14  : i64
    %16 = llvm.add %15, %9  : i64
    %17 = llvm.getelementptr %arg0[%16] : (!llvm.ptr, i64) -> !llvm.ptr, f32
    llvm.store %0, %17 : f32, !llvm.ptr
    %18 = llvm.add %9, %5  : i64
    llvm.br ^bb4(%18 : i64)
  ^bb6:  // pred: ^bb4
    %19 = llvm.add %7, %5  : i64
    llvm.br ^bb2(%19 : i64)
  ^bb7:  // pred: ^bb2
    llvm.return
  }
  llvm.func @forward_kernel_6(%arg0: !llvm.ptr) attributes {Kernel, forward_kernel_6} {
    %0 = llvm.mlir.constant(0xFF800000 : f32) : f32
    %1 = llvm.mlir.constant(28 : index) : i64
    %2 = llvm.mlir.constant(56 : index) : i64
    %3 = llvm.mlir.constant(3136 : index) : i64
    %4 = llvm.mlir.constant(200704 : index) : i64
    %5 = llvm.mlir.constant(1 : index) : i64
    %6 = llvm.mlir.constant(0 : index) : i64
    llvm.br ^bb1
  ^bb1:  // pred: ^bb0
    llvm.br ^bb2(%6 : i64)
  ^bb2(%7: i64):  // 2 preds: ^bb1, ^bb6
    %8 = llvm.icmp "slt" %7, %1 : i64
    llvm.cond_br %8, ^bb3, ^bb7
  ^bb3:  // pred: ^bb2
    llvm.br ^bb4(%6 : i64)
  ^bb4(%9: i64):  // 2 preds: ^bb3, ^bb5
    %10 = llvm.icmp "slt" %9, %2 : i64
    llvm.cond_br %10, ^bb5, ^bb6
  ^bb5:  // pred: ^bb4
    %11 = llvm.mul %6, %4  : i64
    %12 = llvm.mul %6, %3  : i64
    %13 = llvm.add %11, %12  : i64
    %14 = llvm.mul %7, %2  : i64
    %15 = llvm.add %13, %14  : i64
    %16 = llvm.add %15, %9  : i64
    %17 = llvm.getelementptr %arg0[%16] : (!llvm.ptr, i64) -> !llvm.ptr, f32
    llvm.store %0, %17 : f32, !llvm.ptr
    %18 = llvm.add %9, %5  : i64
    llvm.br ^bb4(%18 : i64)
  ^bb6:  // pred: ^bb4
    %19 = llvm.add %7, %5  : i64
    llvm.br ^bb2(%19 : i64)
  ^bb7:  // pred: ^bb2
    llvm.return
  }
  llvm.func @forward_kernel_7(%arg0: !llvm.ptr, %arg1: !llvm.ptr, %arg2: !llvm.ptr) attributes {Kernel, forward_kernel_7} {
    %0 = llvm.mlir.constant(4 : index) : i64
    %1 = llvm.mlir.constant(3 : index) : i64
    %2 = llvm.mlir.constant(2 : index) : i64
    %3 = llvm.mlir.constant(56 : index) : i64
    %4 = llvm.mlir.constant(3136 : index) : i64
    %5 = llvm.mlir.constant(200704 : index) : i64
    %6 = llvm.mlir.constant(114 : index) : i64
    %7 = llvm.mlir.constant(12996 : index) : i64
    %8 = llvm.mlir.constant(831744 : index) : i64
    %9 = llvm.mlir.constant(1 : index) : i64
    %10 = llvm.mlir.constant(0 : index) : i64
    llvm.br ^bb1
  ^bb1:  // pred: ^bb0
    llvm.br ^bb2(%10 : i64)
  ^bb2(%11: i64):  // 2 preds: ^bb1, ^bb12
    %12 = llvm.icmp "slt" %11, %0 : i64
    llvm.cond_br %12, ^bb3, ^bb13
  ^bb3:  // pred: ^bb2
    llvm.br ^bb4(%10 : i64)
  ^bb4(%13: i64):  // 2 preds: ^bb3, ^bb11
    %14 = llvm.icmp "slt" %13, %3 : i64
    llvm.cond_br %14, ^bb5, ^bb12
  ^bb5:  // pred: ^bb4
    llvm.br ^bb6(%10 : i64)
  ^bb6(%15: i64):  // 2 preds: ^bb5, ^bb10
    %16 = llvm.icmp "slt" %15, %1 : i64
    llvm.cond_br %16, ^bb7, ^bb11
  ^bb7:  // pred: ^bb6
    llvm.br ^bb8(%10 : i64)
  ^bb8(%17: i64):  // 2 preds: ^bb7, ^bb9
    %18 = llvm.icmp "slt" %17, %1 : i64
    llvm.cond_br %18, ^bb9, ^bb10
  ^bb9:  // pred: ^bb8
    %19 = llvm.mul %11, %2  : i64
    %20 = llvm.add %19, %15  : i64
    %21 = llvm.mul %13, %2  : i64
    %22 = llvm.add %21, %17  : i64
    %23 = llvm.mul %10, %8  : i64
    %24 = llvm.mul %10, %7  : i64
    %25 = llvm.add %23, %24  : i64
    %26 = llvm.mul %20, %6  : i64
    %27 = llvm.add %25, %26  : i64
    %28 = llvm.add %27, %22  : i64
    %29 = llvm.getelementptr %arg0[%28] : (!llvm.ptr, i64) -> !llvm.ptr, f32
    %30 = llvm.load %29 : !llvm.ptr -> f32
    %31 = llvm.mul %10, %5  : i64
    %32 = llvm.mul %10, %4  : i64
    %33 = llvm.add %31, %32  : i64
    %34 = llvm.mul %11, %3  : i64
    %35 = llvm.add %33, %34  : i64
    %36 = llvm.add %35, %13  : i64
    %37 = llvm.getelementptr %arg1[%36] : (!llvm.ptr, i64) -> !llvm.ptr, f32
    %38 = llvm.load %37 : !llvm.ptr -> f32
    %39 = llvm.fcmp "ugt" %38, %30 : f32
    %40 = llvm.select %39, %38, %30 : i1, f32
    %41 = llvm.fcmp "uno" %30, %30 : f32
    %42 = llvm.select %41, %30, %40 : i1, f32
    %43 = llvm.getelementptr %arg2[%36] : (!llvm.ptr, i64) -> !llvm.ptr, f32
    llvm.store %42, %43 : f32, !llvm.ptr
    %44 = llvm.add %17, %9  : i64
    llvm.br ^bb8(%44 : i64)
  ^bb10:  // pred: ^bb8
    %45 = llvm.add %15, %9  : i64
    llvm.br ^bb6(%45 : i64)
  ^bb11:  // pred: ^bb6
    %46 = llvm.add %13, %9  : i64
    llvm.br ^bb4(%46 : i64)
  ^bb12:  // pred: ^bb4
    %47 = llvm.add %11, %9  : i64
    llvm.br ^bb2(%47 : i64)
  ^bb13:  // pred: ^bb2
    llvm.return
  }
}


