// -----// IR Dump After PromoteBuffersToStack (promote-buffers-to-stack) //----- //
func.func @forward_kernel_2(%arg0: memref<1x3x230x230xf32>, %arg1: memref<64x3x7x7xf32>, %arg2: memref<1x64x112x112xf32>, %arg3: memref<1x64x112x112xf32>) attributes {Kernel, forward_kernel_2} {
  cf.br ^bb1
^bb1:  // pred: ^bb0
  affine.for %arg4 = 0 to 8 {
    affine.for %arg5 = 0 to 3 {
      affine.for %arg6 = 0 to 7 {
        affine.for %arg7 = 0 to 7 {
          %0 = affine.load %arg0[0, %arg5, %arg6, %arg4 * 2 + %arg7] : memref<1x3x230x230xf32>
          %1 = affine.load %arg1[0, %arg5, %arg6, %arg7] : memref<64x3x7x7xf32>
          %2 = affine.load %arg2[0, 0, 0, %arg4] : memref<1x64x112x112xf32>
          %3 = arith.mulf %0, %1 : f32
          %4 = arith.addf %2, %3 : f32
          affine.store %4, %arg3[0, 0, 0, %arg4] : memref<1x64x112x112xf32>
        }
      }
    }
  }
  return
}

// -----// IR Dump After PromoteBuffersToStack (promote-buffers-to-stack) //----- //
func.func @forward_kernel_0(%arg0: memref<1x3x230x230xf32>) attributes {Kernel, forward_kernel_0} {
  cf.br ^bb1
^bb1:  // pred: ^bb0
  %cst = arith.constant 0.000000e+00 : f32
  affine.for %arg1 = 0 to 5 {
    affine.for %arg2 = 0 to 230 {
      affine.store %cst, %arg0[0, 0, %arg1, %arg2] : memref<1x3x230x230xf32>
    }
  }
  return
}

// -----// IR Dump After PromoteBuffersToStack (promote-buffers-to-stack) //----- //
func.func @forward(%arg0: memref<1x3x224x224xf32>) -> memref<1x64x56x56xf32> {
  %cst = arith.constant 1.000000e-05 : f64
  %cst_0 = arith.constant 0xFF800000 : f32
  %cst_1 = arith.constant 0.000000e+00 : f32
  %0 = memref.get_global @__constant_64x3x7x7xf32 : memref<64x3x7x7xf32>
  %1 = memref.get_global @__constant_64xf32 : memref<64xf32>
  %2 = memref.get_global @__constant_64xf32_0 : memref<64xf32>
  %3 = memref.get_global @__constant_64xf32_1 : memref<64xf32>
  %4 = memref.get_global @__constant_64xf32_2 : memref<64xf32>
  %alloc = memref.alloc() {alignment = 64 : i64} : memref<1x3x230x230xf32>
  affine.for %arg1 = 0 to 1 {
    affine.for %arg2 = 0 to 3 {
      affine.for %arg3 = 0 to 230 step 5 {
        %5 = FDRA.BlockLoad %alloc [0, %arg2, %arg3, 0] : memref<1x3x230x230xf32> -> memref<1x3x230x230xf32> {"forward_kernel_0"}
        FDRA.KernelCall @forward_kernel_0(%5) : (memref<1x3x230x230xf32>) -> ()
        FDRA.BlockStore %5,  %alloc [0, %arg2, %arg3, 0] : memref<1x3x230x230xf32> -> memref<1x3x230x230xf32> {"forward_kernel_0"}
      }
    }
  }
  %alloc_2 = memref.alloc() {alignment = 64 : i64} : memref<1x3x230x230xf32>
  memref.copy %alloc, %alloc_2 : memref<1x3x230x230xf32> to memref<1x3x230x230xf32>
  %subview = memref.subview %alloc_2[0, 0, 3, 3] [1, 3, 224, 224] [1, 1, 1, 1] : memref<1x3x230x230xf32> to memref<1x3x224x224xf32, strided<[158700, 52900, 230, 1], offset: 693>>
  memref.copy %arg0, %subview : memref<1x3x224x224xf32> to memref<1x3x224x224xf32, strided<[158700, 52900, 230, 1], offset: 693>>
  %alloc_3 = memref.alloc() {alignment = 64 : i64} : memref<1x64x112x112xf32>
  affine.for %arg1 = 0 to 1 {
    affine.for %arg2 = 0 to 64 {
      affine.for %arg3 = 0 to 112 step 16 {
        %5 = FDRA.BlockLoad %alloc_3 [0, %arg2, %arg3, 0] : memref<1x64x112x112xf32> -> memref<1x64x112x112xf32> {"forward_kernel_1"}
        FDRA.KernelCall @forward_kernel_1(%5) : (memref<1x64x112x112xf32>) -> ()
        FDRA.BlockStore %5,  %alloc_3 [0, %arg2, %arg3, 0] : memref<1x64x112x112xf32> -> memref<1x64x112x112xf32> {"forward_kernel_1"}
      }
    }
  }
  %alloc_4 = memref.alloc() {alignment = 64 : i64} : memref<1x64x112x112xf32>
  memref.copy %alloc_3, %alloc_4 : memref<1x64x112x112xf32> to memref<1x64x112x112xf32>
  affine.for %arg1 = 0 to 1 {
    affine.for %arg2 = 0 to 64 {
      affine.for %arg3 = 0 to 112 {
        affine.for %arg4 = 0 to 112 step 8 {
          %5 = FDRA.BlockLoad %alloc_2 [0, 0, %arg3 * 2, %arg4 * 2] : memref<1x3x230x230xf32> -> memref<1x3x230x230xf32> {"forward_kernel_2"}
          %6 = FDRA.BlockLoad %0 [%arg2, 0, 0, 0] : memref<64x3x7x7xf32> -> memref<64x3x7x7xf32> {"forward_kernel_2"}
          %7 = FDRA.BlockLoad %alloc_4 [0, %arg2, %arg3, %arg4] : memref<1x64x112x112xf32> -> memref<1x64x112x112xf32> {"forward_kernel_2"}
          %8 = FDRA.BlockLoad %alloc_4 [0, %arg2, %arg3, %arg4] : memref<1x64x112x112xf32> -> memref<1x64x112x112xf32> {"forward_kernel_2"}
          FDRA.KernelCall @forward_kernel_2(%5, %6, %7, %8) : (memref<1x3x230x230xf32>, memref<64x3x7x7xf32>, memref<1x64x112x112xf32>, memref<1x64x112x112xf32>) -> ()
          FDRA.BlockStore %8,  %alloc_4 [0, %arg2, %arg3, %arg4] : memref<1x64x112x112xf32> -> memref<1x64x112x112xf32> {"forward_kernel_2"}
        }
      }
    }
  }
  %alloc_5 = memref.alloc() {alignment = 64 : i64} : memref<1x64x112x112xf32>
  affine.for %arg1 = 0 to 1 {
    affine.for %arg2 = 0 to 64 {
      affine.for %arg3 = 0 to 112 step 16 {
        %5 = FDRA.BlockLoad %alloc_4 [0, %arg2, %arg3, 0] : memref<1x64x112x112xf32> -> memref<1x64x112x112xf32> {"forward_kernel_3"}
        %6 = FDRA.BlockLoad %3 [%arg2] : memref<64xf32> -> memref<64xf32> {"forward_kernel_3"}
        %7 = FDRA.BlockLoad %4 [%arg2] : memref<64xf32> -> memref<64xf32> {"forward_kernel_3"}
        %8 = FDRA.BlockLoad %1 [%arg2] : memref<64xf32> -> memref<64xf32> {"forward_kernel_3"}
        %9 = FDRA.BlockLoad %2 [%arg2] : memref<64xf32> -> memref<64xf32> {"forward_kernel_3"}
        %10 = FDRA.BlockLoad %alloc_5 [0, %arg2, %arg3, 0] : memref<1x64x112x112xf32> -> memref<1x64x112x112xf32> {"forward_kernel_3"}
        FDRA.KernelCall @forward_kernel_3(%5, %6, %7, %8, %9, %10) : (memref<1x64x112x112xf32>, memref<64xf32>, memref<64xf32>, memref<64xf32>, memref<64xf32>, memref<1x64x112x112xf32>) -> ()
        FDRA.BlockStore %10,  %alloc_5 [0, %arg2, %arg3, 0] : memref<1x64x112x112xf32> -> memref<1x64x112x112xf32> {"forward_kernel_3"}
      }
    }
  }
  %alloc_6 = memref.alloc() {alignment = 64 : i64} : memref<1x64x112x112xf32>
  affine.for %arg1 = 0 to 1 {
    affine.for %arg2 = 0 to 64 {
      affine.for %arg3 = 0 to 112 step 16 {
        %5 = FDRA.BlockLoad %alloc_5 [0, %arg2, %arg3, 0] : memref<1x64x112x112xf32> -> memref<1x64x112x112xf32> {"forward_kernel_4"}
        %6 = FDRA.BlockLoad %alloc_6 [0, %arg2, %arg3, 0] : memref<1x64x112x112xf32> -> memref<1x64x112x112xf32> {"forward_kernel_4"}
        FDRA.KernelCall @forward_kernel_4(%5, %6) : (memref<1x64x112x112xf32>, memref<1x64x112x112xf32>) -> ()
        FDRA.BlockStore %6,  %alloc_6 [0, %arg2, %arg3, 0] : memref<1x64x112x112xf32> -> memref<1x64x112x112xf32> {"forward_kernel_4"}
      }
    }
  }
  %alloc_7 = memref.alloc() {alignment = 64 : i64} : memref<1x64x114x114xf32>
  affine.for %arg1 = 0 to 1 {
    affine.for %arg2 = 0 to 64 {
      affine.for %arg3 = 0 to 114 step 6 {
        %5 = FDRA.BlockLoad %alloc_7 [0, %arg2, %arg3, 0] : memref<1x64x114x114xf32> -> memref<1x64x114x114xf32> {"forward_kernel_5"}
        FDRA.KernelCall @forward_kernel_5(%5) : (memref<1x64x114x114xf32>) -> ()
        FDRA.BlockStore %5,  %alloc_7 [0, %arg2, %arg3, 0] : memref<1x64x114x114xf32> -> memref<1x64x114x114xf32> {"forward_kernel_5"}
      }
    }
  }
  %alloc_8 = memref.alloc() {alignment = 64 : i64} : memref<1x64x114x114xf32>
  memref.copy %alloc_7, %alloc_8 : memref<1x64x114x114xf32> to memref<1x64x114x114xf32>
  %subview_9 = memref.subview %alloc_8[0, 0, 1, 1] [1, 64, 112, 112] [1, 1, 1, 1] : memref<1x64x114x114xf32> to memref<1x64x112x112xf32, strided<[831744, 12996, 114, 1], offset: 115>>
  memref.copy %alloc_6, %subview_9 : memref<1x64x112x112xf32> to memref<1x64x112x112xf32, strided<[831744, 12996, 114, 1], offset: 115>>
  %alloc_10 = memref.alloc() {alignment = 64 : i64} : memref<1x64x56x56xf32>
  affine.for %arg1 = 0 to 1 {
    affine.for %arg2 = 0 to 64 {
      affine.for %arg3 = 0 to 56 step 28 {
        %5 = FDRA.BlockLoad %alloc_10 [0, %arg2, %arg3, 0] : memref<1x64x56x56xf32> -> memref<1x64x56x56xf32> {"forward_kernel_6"}
        FDRA.KernelCall @forward_kernel_6(%5) : (memref<1x64x56x56xf32>) -> ()
        FDRA.BlockStore %5,  %alloc_10 [0, %arg2, %arg3, 0] : memref<1x64x56x56xf32> -> memref<1x64x56x56xf32> {"forward_kernel_6"}
      }
    }
  }
  %alloc_11 = memref.alloc() {alignment = 64 : i64} : memref<1x64x56x56xf32>
  memref.copy %alloc_10, %alloc_11 : memref<1x64x56x56xf32> to memref<1x64x56x56xf32>
  affine.for %arg1 = 0 to 1 {
    affine.for %arg2 = 0 to 64 {
      affine.for %arg3 = 0 to 56 step 4 {
        %5 = FDRA.BlockLoad %alloc_8 [0, %arg2, %arg3 * 2, 0] : memref<1x64x114x114xf32> -> memref<1x64x114x114xf32> {"forward_kernel_7"}
        %6 = FDRA.BlockLoad %alloc_11 [0, %arg2, %arg3, 0] : memref<1x64x56x56xf32> -> memref<1x64x56x56xf32> {"forward_kernel_7"}
        %7 = FDRA.BlockLoad %alloc_11 [0, %arg2, %arg3, 0] : memref<1x64x56x56xf32> -> memref<1x64x56x56xf32> {"forward_kernel_7"}
        FDRA.KernelCall @forward_kernel_7(%5, %6, %7) : (memref<1x64x114x114xf32>, memref<1x64x56x56xf32>, memref<1x64x56x56xf32>) -> ()
        FDRA.BlockStore %7,  %alloc_11 [0, %arg2, %arg3, 0] : memref<1x64x56x56xf32> -> memref<1x64x56x56xf32> {"forward_kernel_7"}
      }
    }
  }
  return %alloc_11 : memref<1x64x56x56xf32>
}

// -----// IR Dump After PromoteBuffersToStack (promote-buffers-to-stack) //----- //
func.func @forward_kernel_7(%arg0: memref<1x64x114x114xf32>, %arg1: memref<1x64x56x56xf32>, %arg2: memref<1x64x56x56xf32>) attributes {Kernel, forward_kernel_7} {
  cf.br ^bb1
^bb1:  // pred: ^bb0
  affine.for %arg3 = 0 to 4 {
    affine.for %arg4 = 0 to 56 {
      affine.for %arg5 = 0 to 3 {
        affine.for %arg6 = 0 to 3 {
          %0 = affine.load %arg0[0, 0, %arg3 * 2 + %arg5, %arg4 * 2 + %arg6] : memref<1x64x114x114xf32>
          %1 = affine.load %arg1[0, 0, %arg3, %arg4] : memref<1x64x56x56xf32>
          %2 = arith.cmpf ugt, %1, %0 : f32
          %3 = arith.select %2, %1, %0 : f32
          %4 = arith.cmpf uno, %0, %0 : f32
          %5 = arith.select %4, %0, %3 : f32
          affine.store %5, %arg2[0, 0, %arg3, %arg4] : memref<1x64x56x56xf32>
        }
      }
    }
  }
  return
}

// -----// IR Dump After PromoteBuffersToStack (promote-buffers-to-stack) //----- //
func.func @forward_kernel_1(%arg0: memref<1x64x112x112xf32>) attributes {Kernel, forward_kernel_1} {
  cf.br ^bb1
^bb1:  // pred: ^bb0
  %cst = arith.constant 0.000000e+00 : f32
  affine.for %arg1 = 0 to 16 {
    affine.for %arg2 = 0 to 112 {
      affine.store %cst, %arg0[0, 0, %arg1, %arg2] : memref<1x64x112x112xf32>
    }
  }
  return
}

// -----// IR Dump After PromoteBuffersToStack (promote-buffers-to-stack) //----- //
func.func @forward_kernel_6(%arg0: memref<1x64x56x56xf32>) attributes {Kernel, forward_kernel_6} {
  cf.br ^bb1
^bb1:  // pred: ^bb0
  %cst = arith.constant 0xFF800000 : f32
  affine.for %arg1 = 0 to 28 {
    affine.for %arg2 = 0 to 56 {
      affine.store %cst, %arg0[0, 0, %arg1, %arg2] : memref<1x64x56x56xf32>
    }
  }
  return
}

// -----// IR Dump After PromoteBuffersToStack (promote-buffers-to-stack) //----- //
func.func @forward_kernel_3(%arg0: memref<1x64x112x112xf32>, %arg1: memref<64xf32>, %arg2: memref<64xf32>, %arg3: memref<64xf32>, %arg4: memref<64xf32>, %arg5: memref<1x64x112x112xf32>) attributes {Kernel, forward_kernel_3} {
  cf.br ^bb1
^bb1:  // pred: ^bb0
  %cst = arith.constant 1.000000e-05 : f64
  affine.for %arg6 = 0 to 16 {
    affine.for %arg7 = 0 to 112 {
      %0 = affine.load %arg0[0, 0, %arg6, %arg7] : memref<1x64x112x112xf32>
      %1 = affine.load %arg1[0] : memref<64xf32>
      %2 = affine.load %arg2[0] : memref<64xf32>
      %3 = affine.load %arg3[0] : memref<64xf32>
      %4 = affine.load %arg4[0] : memref<64xf32>
      %5 = arith.truncf %cst : f64 to f32
      %6 = arith.addf %4, %5 : f32
      %cst_0 = arith.constant 5.000000e-01 : f32
      %7 = arith.mulf %6, %cst_0 : f32
      %8 = arith.bitcast %6 : f32 to i32
      %c1_i32 = arith.constant 1 : i32
      %9 = arith.shrui %8, %c1_i32 : i32
      %c1597463007_i32 = arith.constant 1597463007 : i32
      %10 = arith.subi %c1597463007_i32, %9 : i32
      %11 = arith.bitcast %10 : i32 to f32
      %cst_1 = arith.constant 1.500000e+00 : f32
      %12 = arith.mulf %11, %11 : f32
      %13 = arith.mulf %12, %7 : f32
      %14 = arith.subf %cst_1, %13 : f32
      %15 = arith.mulf %14, %12 : f32
      %16 = arith.subf %0, %3 : f32
      %17 = arith.mulf %16, %15 : f32
      %18 = arith.mulf %17, %1 : f32
      %19 = arith.addf %18, %2 : f32
      affine.store %19, %arg5[0, 0, %arg6, %arg7] : memref<1x64x112x112xf32>
    }
  }
  return
}

// -----// IR Dump After PromoteBuffersToStack (promote-buffers-to-stack) //----- //
func.func @forward_kernel_4(%arg0: memref<1x64x112x112xf32>, %arg1: memref<1x64x112x112xf32>) attributes {Kernel, forward_kernel_4} {
  cf.br ^bb1
^bb1:  // pred: ^bb0
  %cst = arith.constant 0.000000e+00 : f32
  affine.for %arg2 = 0 to 16 {
    affine.for %arg3 = 0 to 112 {
      %0 = affine.load %arg0[0, 0, %arg2, %arg3] : memref<1x64x112x112xf32>
      %1 = arith.cmpf ugt, %0, %cst : f32
      %2 = arith.select %1, %0, %cst : f32
      affine.store %2, %arg1[0, 0, %arg2, %arg3] : memref<1x64x112x112xf32>
    }
  }
  return
}

// -----// IR Dump After PromoteBuffersToStack (promote-buffers-to-stack) //----- //
func.func @forward_kernel_5(%arg0: memref<1x64x114x114xf32>) attributes {Kernel, forward_kernel_5} {
  cf.br ^bb1
^bb1:  // pred: ^bb0
  %cst = arith.constant 0xFF800000 : f32
  affine.for %arg1 = 0 to 6 {
    affine.for %arg2 = 0 to 114 {
      affine.store %cst, %arg0[0, 0, %arg1, %arg2] : memref<1x64x114x114xf32>
    }
  }
  return
}

// -----// IR Dump After ArithExpandOps (arith-expand) //----- //
module attributes {torch.debug_module_name = "ResNet"} {
  memref.global "private" constant @__constant_64xf32_2 : memref<64xf32> = dense<[… >
  memref.global "private" constant @__constant_64xf32_1 : memref<64xf32> = dense<[… >
  memref.global "private" constant @__constant_64xf32_0 : memref<64xf32> = dense<[… >
  memref.global "private" constant @__constant_64xf32 : memref<64xf32> = dense<[… >
  memref.global "private" constant @__constant_64x3x7x7xf32 : memref<64x3x7x7xf32> = dense<"…">
  ml_program.global private mutable @global_seed(dense<0> : tensor<i64>) : tensor<i64>
  func.func @forward(%arg0: memref<1x3x224x224xf32>) -> memref<1x64x56x56xf32> {
    %cst = arith.constant 1.000000e-05 : f64
    %cst_0 = arith.constant 0xFF800000 : f32
    %cst_1 = arith.constant 0.000000e+00 : f32
    %0 = memref.get_global @__constant_64x3x7x7xf32 : memref<64x3x7x7xf32>
    %1 = memref.get_global @__constant_64xf32 : memref<64xf32>
    %2 = memref.get_global @__constant_64xf32_0 : memref<64xf32>
    %3 = memref.get_global @__constant_64xf32_1 : memref<64xf32>
    %4 = memref.get_global @__constant_64xf32_2 : memref<64xf32>
    %alloc = memref.alloc() {alignment = 64 : i64} : memref<1x3x230x230xf32>
    affine.for %arg1 = 0 to 1 {
      affine.for %arg2 = 0 to 3 {
        affine.for %arg3 = 0 to 230 step 5 {
          %5 = FDRA.BlockLoad %alloc [0, %arg2, %arg3, 0] : memref<1x3x230x230xf32> -> memref<1x3x230x230xf32> {"forward_kernel_0"}
          FDRA.KernelCall @forward_kernel_0(%5) : (memref<1x3x230x230xf32>) -> ()
          FDRA.BlockStore %5,  %alloc [0, %arg2, %arg3, 0] : memref<1x3x230x230xf32> -> memref<1x3x230x230xf32> {"forward_kernel_0"}
        }
      }
    }
    %alloc_2 = memref.alloc() {alignment = 64 : i64} : memref<1x3x230x230xf32>
    memref.copy %alloc, %alloc_2 : memref<1x3x230x230xf32> to memref<1x3x230x230xf32>
    %subview = memref.subview %alloc_2[0, 0, 3, 3] [1, 3, 224, 224] [1, 1, 1, 1] : memref<1x3x230x230xf32> to memref<1x3x224x224xf32, strided<[158700, 52900, 230, 1], offset: 693>>
    memref.copy %arg0, %subview : memref<1x3x224x224xf32> to memref<1x3x224x224xf32, strided<[158700, 52900, 230, 1], offset: 693>>
    %alloc_3 = memref.alloc() {alignment = 64 : i64} : memref<1x64x112x112xf32>
    affine.for %arg1 = 0 to 1 {
      affine.for %arg2 = 0 to 64 {
        affine.for %arg3 = 0 to 112 step 16 {
          %5 = FDRA.BlockLoad %alloc_3 [0, %arg2, %arg3, 0] : memref<1x64x112x112xf32> -> memref<1x64x112x112xf32> {"forward_kernel_1"}
          FDRA.KernelCall @forward_kernel_1(%5) : (memref<1x64x112x112xf32>) -> ()
          FDRA.BlockStore %5,  %alloc_3 [0, %arg2, %arg3, 0] : memref<1x64x112x112xf32> -> memref<1x64x112x112xf32> {"forward_kernel_1"}
        }
      }
    }
    %alloc_4 = memref.alloc() {alignment = 64 : i64} : memref<1x64x112x112xf32>
    memref.copy %alloc_3, %alloc_4 : memref<1x64x112x112xf32> to memref<1x64x112x112xf32>
    affine.for %arg1 = 0 to 1 {
      affine.for %arg2 = 0 to 64 {
        affine.for %arg3 = 0 to 112 {
          affine.for %arg4 = 0 to 112 step 8 {
            %5 = FDRA.BlockLoad %alloc_2 [0, 0, %arg3 * 2, %arg4 * 2] : memref<1x3x230x230xf32> -> memref<1x3x230x230xf32> {"forward_kernel_2"}
            %6 = FDRA.BlockLoad %0 [%arg2, 0, 0, 0] : memref<64x3x7x7xf32> -> memref<64x3x7x7xf32> {"forward_kernel_2"}
            %7 = FDRA.BlockLoad %alloc_4 [0, %arg2, %arg3, %arg4] : memref<1x64x112x112xf32> -> memref<1x64x112x112xf32> {"forward_kernel_2"}
            %8 = FDRA.BlockLoad %alloc_4 [0, %arg2, %arg3, %arg4] : memref<1x64x112x112xf32> -> memref<1x64x112x112xf32> {"forward_kernel_2"}
            FDRA.KernelCall @forward_kernel_2(%5, %6, %7, %8) : (memref<1x3x230x230xf32>, memref<64x3x7x7xf32>, memref<1x64x112x112xf32>, memref<1x64x112x112xf32>) -> ()
            FDRA.BlockStore %8,  %alloc_4 [0, %arg2, %arg3, %arg4] : memref<1x64x112x112xf32> -> memref<1x64x112x112xf32> {"forward_kernel_2"}
          }
        }
      }
    }
    %alloc_5 = memref.alloc() {alignment = 64 : i64} : memref<1x64x112x112xf32>
    affine.for %arg1 = 0 to 1 {
      affine.for %arg2 = 0 to 64 {
        affine.for %arg3 = 0 to 112 step 16 {
          %5 = FDRA.BlockLoad %alloc_4 [0, %arg2, %arg3, 0] : memref<1x64x112x112xf32> -> memref<1x64x112x112xf32> {"forward_kernel_3"}
          %6 = FDRA.BlockLoad %3 [%arg2] : memref<64xf32> -> memref<64xf32> {"forward_kernel_3"}
          %7 = FDRA.BlockLoad %4 [%arg2] : memref<64xf32> -> memref<64xf32> {"forward_kernel_3"}
          %8 = FDRA.BlockLoad %1 [%arg2] : memref<64xf32> -> memref<64xf32> {"forward_kernel_3"}
          %9 = FDRA.BlockLoad %2 [%arg2] : memref<64xf32> -> memref<64xf32> {"forward_kernel_3"}
          %10 = FDRA.BlockLoad %alloc_5 [0, %arg2, %arg3, 0] : memref<1x64x112x112xf32> -> memref<1x64x112x112xf32> {"forward_kernel_3"}
          FDRA.KernelCall @forward_kernel_3(%5, %6, %7, %8, %9, %10) : (memref<1x64x112x112xf32>, memref<64xf32>, memref<64xf32>, memref<64xf32>, memref<64xf32>, memref<1x64x112x112xf32>) -> ()
          FDRA.BlockStore %10,  %alloc_5 [0, %arg2, %arg3, 0] : memref<1x64x112x112xf32> -> memref<1x64x112x112xf32> {"forward_kernel_3"}
        }
      }
    }
    %alloc_6 = memref.alloc() {alignment = 64 : i64} : memref<1x64x112x112xf32>
    affine.for %arg1 = 0 to 1 {
      affine.for %arg2 = 0 to 64 {
        affine.for %arg3 = 0 to 112 step 16 {
          %5 = FDRA.BlockLoad %alloc_5 [0, %arg2, %arg3, 0] : memref<1x64x112x112xf32> -> memref<1x64x112x112xf32> {"forward_kernel_4"}
          %6 = FDRA.BlockLoad %alloc_6 [0, %arg2, %arg3, 0] : memref<1x64x112x112xf32> -> memref<1x64x112x112xf32> {"forward_kernel_4"}
          FDRA.KernelCall @forward_kernel_4(%5, %6) : (memref<1x64x112x112xf32>, memref<1x64x112x112xf32>) -> ()
          FDRA.BlockStore %6,  %alloc_6 [0, %arg2, %arg3, 0] : memref<1x64x112x112xf32> -> memref<1x64x112x112xf32> {"forward_kernel_4"}
        }
      }
    }
    %alloc_7 = memref.alloc() {alignment = 64 : i64} : memref<1x64x114x114xf32>
    affine.for %arg1 = 0 to 1 {
      affine.for %arg2 = 0 to 64 {
        affine.for %arg3 = 0 to 114 step 6 {
          %5 = FDRA.BlockLoad %alloc_7 [0, %arg2, %arg3, 0] : memref<1x64x114x114xf32> -> memref<1x64x114x114xf32> {"forward_kernel_5"}
          FDRA.KernelCall @forward_kernel_5(%5) : (memref<1x64x114x114xf32>) -> ()
          FDRA.BlockStore %5,  %alloc_7 [0, %arg2, %arg3, 0] : memref<1x64x114x114xf32> -> memref<1x64x114x114xf32> {"forward_kernel_5"}
        }
      }
    }
    %alloc_8 = memref.alloc() {alignment = 64 : i64} : memref<1x64x114x114xf32>
    memref.copy %alloc_7, %alloc_8 : memref<1x64x114x114xf32> to memref<1x64x114x114xf32>
    %subview_9 = memref.subview %alloc_8[0, 0, 1, 1] [1, 64, 112, 112] [1, 1, 1, 1] : memref<1x64x114x114xf32> to memref<1x64x112x112xf32, strided<[831744, 12996, 114, 1], offset: 115>>
    memref.copy %alloc_6, %subview_9 : memref<1x64x112x112xf32> to memref<1x64x112x112xf32, strided<[831744, 12996, 114, 1], offset: 115>>
    %alloc_10 = memref.alloc() {alignment = 64 : i64} : memref<1x64x56x56xf32>
    affine.for %arg1 = 0 to 1 {
      affine.for %arg2 = 0 to 64 {
        affine.for %arg3 = 0 to 56 step 28 {
          %5 = FDRA.BlockLoad %alloc_10 [0, %arg2, %arg3, 0] : memref<1x64x56x56xf32> -> memref<1x64x56x56xf32> {"forward_kernel_6"}
          FDRA.KernelCall @forward_kernel_6(%5) : (memref<1x64x56x56xf32>) -> ()
          FDRA.BlockStore %5,  %alloc_10 [0, %arg2, %arg3, 0] : memref<1x64x56x56xf32> -> memref<1x64x56x56xf32> {"forward_kernel_6"}
        }
      }
    }
    %alloc_11 = memref.alloc() {alignment = 64 : i64} : memref<1x64x56x56xf32>
    memref.copy %alloc_10, %alloc_11 : memref<1x64x56x56xf32> to memref<1x64x56x56xf32>
    affine.for %arg1 = 0 to 1 {
      affine.for %arg2 = 0 to 64 {
        affine.for %arg3 = 0 to 56 step 4 {
          %5 = FDRA.BlockLoad %alloc_8 [0, %arg2, %arg3 * 2, 0] : memref<1x64x114x114xf32> -> memref<1x64x114x114xf32> {"forward_kernel_7"}
          %6 = FDRA.BlockLoad %alloc_11 [0, %arg2, %arg3, 0] : memref<1x64x56x56xf32> -> memref<1x64x56x56xf32> {"forward_kernel_7"}
          %7 = FDRA.BlockLoad %alloc_11 [0, %arg2, %arg3, 0] : memref<1x64x56x56xf32> -> memref<1x64x56x56xf32> {"forward_kernel_7"}
          FDRA.KernelCall @forward_kernel_7(%5, %6, %7) : (memref<1x64x114x114xf32>, memref<1x64x56x56xf32>, memref<1x64x56x56xf32>) -> ()
          FDRA.BlockStore %7,  %alloc_11 [0, %arg2, %arg3, 0] : memref<1x64x56x56xf32> -> memref<1x64x56x56xf32> {"forward_kernel_7"}
        }
      }
    }
    return %alloc_11 : memref<1x64x56x56xf32>
  }
  func.func @forward_kernel_0(%arg0: memref<1x3x230x230xf32>) attributes {Kernel, forward_kernel_0} {
    cf.br ^bb1
  ^bb1:  // pred: ^bb0
    %cst = arith.constant 0.000000e+00 : f32
    affine.for %arg1 = 0 to 5 {
      affine.for %arg2 = 0 to 230 {
        affine.store %cst, %arg0[0, 0, %arg1, %arg2] : memref<1x3x230x230xf32>
      }
    }
    return
  }
  func.func @forward_kernel_1(%arg0: memref<1x64x112x112xf32>) attributes {Kernel, forward_kernel_1} {
    cf.br ^bb1
  ^bb1:  // pred: ^bb0
    %cst = arith.constant 0.000000e+00 : f32
    affine.for %arg1 = 0 to 16 {
      affine.for %arg2 = 0 to 112 {
        affine.store %cst, %arg0[0, 0, %arg1, %arg2] : memref<1x64x112x112xf32>
      }
    }
    return
  }
  func.func @forward_kernel_2(%arg0: memref<1x3x230x230xf32>, %arg1: memref<64x3x7x7xf32>, %arg2: memref<1x64x112x112xf32>, %arg3: memref<1x64x112x112xf32>) attributes {Kernel, forward_kernel_2} {
    cf.br ^bb1
  ^bb1:  // pred: ^bb0
    affine.for %arg4 = 0 to 8 {
      affine.for %arg5 = 0 to 3 {
        affine.for %arg6 = 0 to 7 {
          affine.for %arg7 = 0 to 7 {
            %0 = affine.load %arg0[0, %arg5, %arg6, %arg4 * 2 + %arg7] : memref<1x3x230x230xf32>
            %1 = affine.load %arg1[0, %arg5, %arg6, %arg7] : memref<64x3x7x7xf32>
            %2 = affine.load %arg2[0, 0, 0, %arg4] : memref<1x64x112x112xf32>
            %3 = arith.mulf %0, %1 : f32
            %4 = arith.addf %2, %3 : f32
            affine.store %4, %arg3[0, 0, 0, %arg4] : memref<1x64x112x112xf32>
          }
        }
      }
    }
    return
  }
  func.func @forward_kernel_3(%arg0: memref<1x64x112x112xf32>, %arg1: memref<64xf32>, %arg2: memref<64xf32>, %arg3: memref<64xf32>, %arg4: memref<64xf32>, %arg5: memref<1x64x112x112xf32>) attributes {Kernel, forward_kernel_3} {
    cf.br ^bb1
  ^bb1:  // pred: ^bb0
    %cst = arith.constant 1.000000e-05 : f64
    affine.for %arg6 = 0 to 16 {
      affine.for %arg7 = 0 to 112 {
        %0 = affine.load %arg0[0, 0, %arg6, %arg7] : memref<1x64x112x112xf32>
        %1 = affine.load %arg1[0] : memref<64xf32>
        %2 = affine.load %arg2[0] : memref<64xf32>
        %3 = affine.load %arg3[0] : memref<64xf32>
        %4 = affine.load %arg4[0] : memref<64xf32>
        %5 = arith.truncf %cst : f64 to f32
        %6 = arith.addf %4, %5 : f32
        %cst_0 = arith.constant 5.000000e-01 : f32
        %7 = arith.mulf %6, %cst_0 : f32
        %8 = arith.bitcast %6 : f32 to i32
        %c1_i32 = arith.constant 1 : i32
        %9 = arith.shrui %8, %c1_i32 : i32
        %c1597463007_i32 = arith.constant 1597463007 : i32
        %10 = arith.subi %c1597463007_i32, %9 : i32
        %11 = arith.bitcast %10 : i32 to f32
        %cst_1 = arith.constant 1.500000e+00 : f32
        %12 = arith.mulf %11, %11 : f32
        %13 = arith.mulf %12, %7 : f32
        %14 = arith.subf %cst_1, %13 : f32
        %15 = arith.mulf %14, %12 : f32
        %16 = arith.subf %0, %3 : f32
        %17 = arith.mulf %16, %15 : f32
        %18 = arith.mulf %17, %1 : f32
        %19 = arith.addf %18, %2 : f32
        affine.store %19, %arg5[0, 0, %arg6, %arg7] : memref<1x64x112x112xf32>
      }
    }
    return
  }
  func.func @forward_kernel_4(%arg0: memref<1x64x112x112xf32>, %arg1: memref<1x64x112x112xf32>) attributes {Kernel, forward_kernel_4} {
    cf.br ^bb1
  ^bb1:  // pred: ^bb0
    %cst = arith.constant 0.000000e+00 : f32
    affine.for %arg2 = 0 to 16 {
      affine.for %arg3 = 0 to 112 {
        %0 = affine.load %arg0[0, 0, %arg2, %arg3] : memref<1x64x112x112xf32>
        %1 = arith.cmpf ugt, %0, %cst : f32
        %2 = arith.select %1, %0, %cst : f32
        affine.store %2, %arg1[0, 0, %arg2, %arg3] : memref<1x64x112x112xf32>
      }
    }
    return
  }
  func.func @forward_kernel_5(%arg0: memref<1x64x114x114xf32>) attributes {Kernel, forward_kernel_5} {
    cf.br ^bb1
  ^bb1:  // pred: ^bb0
    %cst = arith.constant 0xFF800000 : f32
    affine.for %arg1 = 0 to 6 {
      affine.for %arg2 = 0 to 114 {
        affine.store %cst, %arg0[0, 0, %arg1, %arg2] : memref<1x64x114x114xf32>
      }
    }
    return
  }
  func.func @forward_kernel_6(%arg0: memref<1x64x56x56xf32>) attributes {Kernel, forward_kernel_6} {
    cf.br ^bb1
  ^bb1:  // pred: ^bb0
    %cst = arith.constant 0xFF800000 : f32
    affine.for %arg1 = 0 to 28 {
      affine.for %arg2 = 0 to 56 {
        affine.store %cst, %arg0[0, 0, %arg1, %arg2] : memref<1x64x56x56xf32>
      }
    }
    return
  }
  func.func @forward_kernel_7(%arg0: memref<1x64x114x114xf32>, %arg1: memref<1x64x56x56xf32>, %arg2: memref<1x64x56x56xf32>) attributes {Kernel, forward_kernel_7} {
    cf.br ^bb1
  ^bb1:  // pred: ^bb0
    affine.for %arg3 = 0 to 4 {
      affine.for %arg4 = 0 to 56 {
        affine.for %arg5 = 0 to 3 {
          affine.for %arg6 = 0 to 3 {
            %0 = affine.load %arg0[0, 0, %arg3 * 2 + %arg5, %arg4 * 2 + %arg6] : memref<1x64x114x114xf32>
            %1 = affine.load %arg1[0, 0, %arg3, %arg4] : memref<1x64x56x56xf32>
            %2 = arith.cmpf ugt, %1, %0 : f32
            %3 = arith.select %2, %1, %0 : f32
            %4 = arith.cmpf uno, %0, %0 : f32
            %5 = arith.select %4, %0, %3 : f32
            affine.store %5, %arg2[0, 0, %arg3, %arg4] : memref<1x64x56x56xf32>
          }
        }
      }
    }
    return
  }
}


// -----// IR Dump After ExpandOps (memref-expand) //----- //
module attributes {torch.debug_module_name = "ResNet"} {
  memref.global "private" constant @__constant_64xf32_2 : memref<64xf32> = dense<[… >
  memref.global "private" constant @__constant_64xf32_1 : memref<64xf32> = dense<[… >
  memref.global "private" constant @__constant_64xf32_0 : memref<64xf32> = dense<[… >
  memref.global "private" constant @__constant_64xf32 : memref<64xf32> = dense<[… >
  memref.global "private" constant @__constant_64x3x7x7xf32 : memref<64x3x7x7xf32> = dense<"…">
  ml_program.global private mutable @global_seed(dense<0> : tensor<i64>) : tensor<i64>
  func.func @forward(%arg0: memref<1x3x224x224xf32>) -> memref<1x64x56x56xf32> {
    %cst = arith.constant 1.000000e-05 : f64
    %cst_0 = arith.constant 0xFF800000 : f32
    %cst_1 = arith.constant 0.000000e+00 : f32
    %0 = memref.get_global @__constant_64x3x7x7xf32 : memref<64x3x7x7xf32>
    %1 = memref.get_global @__constant_64xf32 : memref<64xf32>
    %2 = memref.get_global @__constant_64xf32_0 : memref<64xf32>
    %3 = memref.get_global @__constant_64xf32_1 : memref<64xf32>
    %4 = memref.get_global @__constant_64xf32_2 : memref<64xf32>
    %alloc = memref.alloc() {alignment = 64 : i64} : memref<1x3x230x230xf32>
    affine.for %arg1 = 0 to 1 {
      affine.for %arg2 = 0 to 3 {
        affine.for %arg3 = 0 to 230 step 5 {
          %5 = FDRA.BlockLoad %alloc [0, %arg2, %arg3, 0] : memref<1x3x230x230xf32> -> memref<1x3x230x230xf32> {"forward_kernel_0"}
          FDRA.KernelCall @forward_kernel_0(%5) : (memref<1x3x230x230xf32>) -> ()
          FDRA.BlockStore %5,  %alloc [0, %arg2, %arg3, 0] : memref<1x3x230x230xf32> -> memref<1x3x230x230xf32> {"forward_kernel_0"}
        }
      }
    }
    %alloc_2 = memref.alloc() {alignment = 64 : i64} : memref<1x3x230x230xf32>
    memref.copy %alloc, %alloc_2 : memref<1x3x230x230xf32> to memref<1x3x230x230xf32>
    %subview = memref.subview %alloc_2[0, 0, 3, 3] [1, 3, 224, 224] [1, 1, 1, 1] : memref<1x3x230x230xf32> to memref<1x3x224x224xf32, strided<[158700, 52900, 230, 1], offset: 693>>
    memref.copy %arg0, %subview : memref<1x3x224x224xf32> to memref<1x3x224x224xf32, strided<[158700, 52900, 230, 1], offset: 693>>
    %alloc_3 = memref.alloc() {alignment = 64 : i64} : memref<1x64x112x112xf32>
    affine.for %arg1 = 0 to 1 {
      affine.for %arg2 = 0 to 64 {
        affine.for %arg3 = 0 to 112 step 16 {
          %5 = FDRA.BlockLoad %alloc_3 [0, %arg2, %arg3, 0] : memref<1x64x112x112xf32> -> memref<1x64x112x112xf32> {"forward_kernel_1"}
          FDRA.KernelCall @forward_kernel_1(%5) : (memref<1x64x112x112xf32>) -> ()
          FDRA.BlockStore %5,  %alloc_3 [0, %arg2, %arg3, 0] : memref<1x64x112x112xf32> -> memref<1x64x112x112xf32> {"forward_kernel_1"}
        }
      }
    }
    %alloc_4 = memref.alloc() {alignment = 64 : i64} : memref<1x64x112x112xf32>
    memref.copy %alloc_3, %alloc_4 : memref<1x64x112x112xf32> to memref<1x64x112x112xf32>
    affine.for %arg1 = 0 to 1 {
      affine.for %arg2 = 0 to 64 {
        affine.for %arg3 = 0 to 112 {
          affine.for %arg4 = 0 to 112 step 8 {
            %5 = FDRA.BlockLoad %alloc_2 [0, 0, %arg3 * 2, %arg4 * 2] : memref<1x3x230x230xf32> -> memref<1x3x230x230xf32> {"forward_kernel_2"}
            %6 = FDRA.BlockLoad %0 [%arg2, 0, 0, 0] : memref<64x3x7x7xf32> -> memref<64x3x7x7xf32> {"forward_kernel_2"}
            %7 = FDRA.BlockLoad %alloc_4 [0, %arg2, %arg3, %arg4] : memref<1x64x112x112xf32> -> memref<1x64x112x112xf32> {"forward_kernel_2"}
            %8 = FDRA.BlockLoad %alloc_4 [0, %arg2, %arg3, %arg4] : memref<1x64x112x112xf32> -> memref<1x64x112x112xf32> {"forward_kernel_2"}
            FDRA.KernelCall @forward_kernel_2(%5, %6, %7, %8) : (memref<1x3x230x230xf32>, memref<64x3x7x7xf32>, memref<1x64x112x112xf32>, memref<1x64x112x112xf32>) -> ()
            FDRA.BlockStore %8,  %alloc_4 [0, %arg2, %arg3, %arg4] : memref<1x64x112x112xf32> -> memref<1x64x112x112xf32> {"forward_kernel_2"}
          }
        }
      }
    }
    %alloc_5 = memref.alloc() {alignment = 64 : i64} : memref<1x64x112x112xf32>
    affine.for %arg1 = 0 to 1 {
      affine.for %arg2 = 0 to 64 {
        affine.for %arg3 = 0 to 112 step 16 {
          %5 = FDRA.BlockLoad %alloc_4 [0, %arg2, %arg3, 0] : memref<1x64x112x112xf32> -> memref<1x64x112x112xf32> {"forward_kernel_3"}
          %6 = FDRA.BlockLoad %3 [%arg2] : memref<64xf32> -> memref<64xf32> {"forward_kernel_3"}
          %7 = FDRA.BlockLoad %4 [%arg2] : memref<64xf32> -> memref<64xf32> {"forward_kernel_3"}
          %8 = FDRA.BlockLoad %1 [%arg2] : memref<64xf32> -> memref<64xf32> {"forward_kernel_3"}
          %9 = FDRA.BlockLoad %2 [%arg2] : memref<64xf32> -> memref<64xf32> {"forward_kernel_3"}
          %10 = FDRA.BlockLoad %alloc_5 [0, %arg2, %arg3, 0] : memref<1x64x112x112xf32> -> memref<1x64x112x112xf32> {"forward_kernel_3"}
          FDRA.KernelCall @forward_kernel_3(%5, %6, %7, %8, %9, %10) : (memref<1x64x112x112xf32>, memref<64xf32>, memref<64xf32>, memref<64xf32>, memref<64xf32>, memref<1x64x112x112xf32>) -> ()
          FDRA.BlockStore %10,  %alloc_5 [0, %arg2, %arg3, 0] : memref<1x64x112x112xf32> -> memref<1x64x112x112xf32> {"forward_kernel_3"}
        }
      }
    }
    %alloc_6 = memref.alloc() {alignment = 64 : i64} : memref<1x64x112x112xf32>
    affine.for %arg1 = 0 to 1 {
      affine.for %arg2 = 0 to 64 {
        affine.for %arg3 = 0 to 112 step 16 {
          %5 = FDRA.BlockLoad %alloc_5 [0, %arg2, %arg3, 0] : memref<1x64x112x112xf32> -> memref<1x64x112x112xf32> {"forward_kernel_4"}
          %6 = FDRA.BlockLoad %alloc_6 [0, %arg2, %arg3, 0] : memref<1x64x112x112xf32> -> memref<1x64x112x112xf32> {"forward_kernel_4"}
          FDRA.KernelCall @forward_kernel_4(%5, %6) : (memref<1x64x112x112xf32>, memref<1x64x112x112xf32>) -> ()
          FDRA.BlockStore %6,  %alloc_6 [0, %arg2, %arg3, 0] : memref<1x64x112x112xf32> -> memref<1x64x112x112xf32> {"forward_kernel_4"}
        }
      }
    }
    %alloc_7 = memref.alloc() {alignment = 64 : i64} : memref<1x64x114x114xf32>
    affine.for %arg1 = 0 to 1 {
      affine.for %arg2 = 0 to 64 {
        affine.for %arg3 = 0 to 114 step 6 {
          %5 = FDRA.BlockLoad %alloc_7 [0, %arg2, %arg3, 0] : memref<1x64x114x114xf32> -> memref<1x64x114x114xf32> {"forward_kernel_5"}
          FDRA.KernelCall @forward_kernel_5(%5) : (memref<1x64x114x114xf32>) -> ()
          FDRA.BlockStore %5,  %alloc_7 [0, %arg2, %arg3, 0] : memref<1x64x114x114xf32> -> memref<1x64x114x114xf32> {"forward_kernel_5"}
        }
      }
    }
    %alloc_8 = memref.alloc() {alignment = 64 : i64} : memref<1x64x114x114xf32>
    memref.copy %alloc_7, %alloc_8 : memref<1x64x114x114xf32> to memref<1x64x114x114xf32>
    %subview_9 = memref.subview %alloc_8[0, 0, 1, 1] [1, 64, 112, 112] [1, 1, 1, 1] : memref<1x64x114x114xf32> to memref<1x64x112x112xf32, strided<[831744, 12996, 114, 1], offset: 115>>
    memref.copy %alloc_6, %subview_9 : memref<1x64x112x112xf32> to memref<1x64x112x112xf32, strided<[831744, 12996, 114, 1], offset: 115>>
    %alloc_10 = memref.alloc() {alignment = 64 : i64} : memref<1x64x56x56xf32>
    affine.for %arg1 = 0 to 1 {
      affine.for %arg2 = 0 to 64 {
        affine.for %arg3 = 0 to 56 step 28 {
          %5 = FDRA.BlockLoad %alloc_10 [0, %arg2, %arg3, 0] : memref<1x64x56x56xf32> -> memref<1x64x56x56xf32> {"forward_kernel_6"}
          FDRA.KernelCall @forward_kernel_6(%5) : (memref<1x64x56x56xf32>) -> ()
          FDRA.BlockStore %5,  %alloc_10 [0, %arg2, %arg3, 0] : memref<1x64x56x56xf32> -> memref<1x64x56x56xf32> {"forward_kernel_6"}
        }
      }
    }
    %alloc_11 = memref.alloc() {alignment = 64 : i64} : memref<1x64x56x56xf32>
    memref.copy %alloc_10, %alloc_11 : memref<1x64x56x56xf32> to memref<1x64x56x56xf32>
    affine.for %arg1 = 0 to 1 {
      affine.for %arg2 = 0 to 64 {
        affine.for %arg3 = 0 to 56 step 4 {
          %5 = FDRA.BlockLoad %alloc_8 [0, %arg2, %arg3 * 2, 0] : memref<1x64x114x114xf32> -> memref<1x64x114x114xf32> {"forward_kernel_7"}
          %6 = FDRA.BlockLoad %alloc_11 [0, %arg2, %arg3, 0] : memref<1x64x56x56xf32> -> memref<1x64x56x56xf32> {"forward_kernel_7"}
          %7 = FDRA.BlockLoad %alloc_11 [0, %arg2, %arg3, 0] : memref<1x64x56x56xf32> -> memref<1x64x56x56xf32> {"forward_kernel_7"}
          FDRA.KernelCall @forward_kernel_7(%5, %6, %7) : (memref<1x64x114x114xf32>, memref<1x64x56x56xf32>, memref<1x64x56x56xf32>) -> ()
          FDRA.BlockStore %7,  %alloc_11 [0, %arg2, %arg3, 0] : memref<1x64x56x56xf32> -> memref<1x64x56x56xf32> {"forward_kernel_7"}
        }
      }
    }
    return %alloc_11 : memref<1x64x56x56xf32>
  }
  func.func @forward_kernel_0(%arg0: memref<1x3x230x230xf32>) attributes {Kernel, forward_kernel_0} {
    cf.br ^bb1
  ^bb1:  // pred: ^bb0
    %cst = arith.constant 0.000000e+00 : f32
    affine.for %arg1 = 0 to 5 {
      affine.for %arg2 = 0 to 230 {
        affine.store %cst, %arg0[0, 0, %arg1, %arg2] : memref<1x3x230x230xf32>
      }
    }
    return
  }
  func.func @forward_kernel_1(%arg0: memref<1x64x112x112xf32>) attributes {Kernel, forward_kernel_1} {
    cf.br ^bb1
  ^bb1:  // pred: ^bb0
    %cst = arith.constant 0.000000e+00 : f32
    affine.for %arg1 = 0 to 16 {
      affine.for %arg2 = 0 to 112 {
        affine.store %cst, %arg0[0, 0, %arg1, %arg2] : memref<1x64x112x112xf32>
      }
    }
    return
  }
  func.func @forward_kernel_2(%arg0: memref<1x3x230x230xf32>, %arg1: memref<64x3x7x7xf32>, %arg2: memref<1x64x112x112xf32>, %arg3: memref<1x64x112x112xf32>) attributes {Kernel, forward_kernel_2} {
    cf.br ^bb1
  ^bb1:  // pred: ^bb0
    affine.for %arg4 = 0 to 8 {
      affine.for %arg5 = 0 to 3 {
        affine.for %arg6 = 0 to 7 {
          affine.for %arg7 = 0 to 7 {
            %0 = affine.load %arg0[0, %arg5, %arg6, %arg4 * 2 + %arg7] : memref<1x3x230x230xf32>
            %1 = affine.load %arg1[0, %arg5, %arg6, %arg7] : memref<64x3x7x7xf32>
            %2 = affine.load %arg2[0, 0, 0, %arg4] : memref<1x64x112x112xf32>
            %3 = arith.mulf %0, %1 : f32
            %4 = arith.addf %2, %3 : f32
            affine.store %4, %arg3[0, 0, 0, %arg4] : memref<1x64x112x112xf32>
          }
        }
      }
    }
    return
  }
  func.func @forward_kernel_3(%arg0: memref<1x64x112x112xf32>, %arg1: memref<64xf32>, %arg2: memref<64xf32>, %arg3: memref<64xf32>, %arg4: memref<64xf32>, %arg5: memref<1x64x112x112xf32>) attributes {Kernel, forward_kernel_3} {
    cf.br ^bb1
  ^bb1:  // pred: ^bb0
    %cst = arith.constant 1.000000e-05 : f64
    affine.for %arg6 = 0 to 16 {
      affine.for %arg7 = 0 to 112 {
        %0 = affine.load %arg0[0, 0, %arg6, %arg7] : memref<1x64x112x112xf32>
        %1 = affine.load %arg1[0] : memref<64xf32>
        %2 = affine.load %arg2[0] : memref<64xf32>
        %3 = affine.load %arg3[0] : memref<64xf32>
        %4 = affine.load %arg4[0] : memref<64xf32>
        %5 = arith.truncf %cst : f64 to f32
        %6 = arith.addf %4, %5 : f32
        %cst_0 = arith.constant 5.000000e-01 : f32
        %7 = arith.mulf %6, %cst_0 : f32
        %8 = arith.bitcast %6 : f32 to i32
        %c1_i32 = arith.constant 1 : i32
        %9 = arith.shrui %8, %c1_i32 : i32
        %c1597463007_i32 = arith.constant 1597463007 : i32
        %10 = arith.subi %c1597463007_i32, %9 : i32
        %11 = arith.bitcast %10 : i32 to f32
        %cst_1 = arith.constant 1.500000e+00 : f32
        %12 = arith.mulf %11, %11 : f32
        %13 = arith.mulf %12, %7 : f32
        %14 = arith.subf %cst_1, %13 : f32
        %15 = arith.mulf %14, %12 : f32
        %16 = arith.subf %0, %3 : f32
        %17 = arith.mulf %16, %15 : f32
        %18 = arith.mulf %17, %1 : f32
        %19 = arith.addf %18, %2 : f32
        affine.store %19, %arg5[0, 0, %arg6, %arg7] : memref<1x64x112x112xf32>
      }
    }
    return
  }
  func.func @forward_kernel_4(%arg0: memref<1x64x112x112xf32>, %arg1: memref<1x64x112x112xf32>) attributes {Kernel, forward_kernel_4} {
    cf.br ^bb1
  ^bb1:  // pred: ^bb0
    %cst = arith.constant 0.000000e+00 : f32
    affine.for %arg2 = 0 to 16 {
      affine.for %arg3 = 0 to 112 {
        %0 = affine.load %arg0[0, 0, %arg2, %arg3] : memref<1x64x112x112xf32>
        %1 = arith.cmpf ugt, %0, %cst : f32
        %2 = arith.select %1, %0, %cst : f32
        affine.store %2, %arg1[0, 0, %arg2, %arg3] : memref<1x64x112x112xf32>
      }
    }
    return
  }
  func.func @forward_kernel_5(%arg0: memref<1x64x114x114xf32>) attributes {Kernel, forward_kernel_5} {
    cf.br ^bb1
  ^bb1:  // pred: ^bb0
    %cst = arith.constant 0xFF800000 : f32
    affine.for %arg1 = 0 to 6 {
      affine.for %arg2 = 0 to 114 {
        affine.store %cst, %arg0[0, 0, %arg1, %arg2] : memref<1x64x114x114xf32>
      }
    }
    return
  }
  func.func @forward_kernel_6(%arg0: memref<1x64x56x56xf32>) attributes {Kernel, forward_kernel_6} {
    cf.br ^bb1
  ^bb1:  // pred: ^bb0
    %cst = arith.constant 0xFF800000 : f32
    affine.for %arg1 = 0 to 28 {
      affine.for %arg2 = 0 to 56 {
        affine.store %cst, %arg0[0, 0, %arg1, %arg2] : memref<1x64x56x56xf32>
      }
    }
    return
  }
  func.func @forward_kernel_7(%arg0: memref<1x64x114x114xf32>, %arg1: memref<1x64x56x56xf32>, %arg2: memref<1x64x56x56xf32>) attributes {Kernel, forward_kernel_7} {
    cf.br ^bb1
  ^bb1:  // pred: ^bb0
    affine.for %arg3 = 0 to 4 {
      affine.for %arg4 = 0 to 56 {
        affine.for %arg5 = 0 to 3 {
          affine.for %arg6 = 0 to 3 {
            %0 = affine.load %arg0[0, 0, %arg3 * 2 + %arg5, %arg4 * 2 + %arg6] : memref<1x64x114x114xf32>
            %1 = affine.load %arg1[0, 0, %arg3, %arg4] : memref<1x64x56x56xf32>
            %2 = arith.cmpf ugt, %1, %0 : f32
            %3 = arith.select %2, %1, %0 : f32
            %4 = arith.cmpf uno, %0, %0 : f32
            %5 = arith.select %4, %0, %3 : f32
            affine.store %5, %arg2[0, 0, %arg3, %arg4] : memref<1x64x56x56xf32>
          }
        }
      }
    }
    return
  }
}


// -----// IR Dump After NormalizeMemRefs (normalize-memrefs) //----- //
module attributes {torch.debug_module_name = "ResNet"} {
  memref.global "private" constant @__constant_64xf32_2 : memref<64xf32> = dense<[… >
  memref.global "private" constant @__constant_64xf32_1 : memref<64xf32> = dense<[… >
  memref.global "private" constant @__constant_64xf32_0 : memref<64xf32> = dense<[… >
  memref.global "private" constant @__constant_64xf32 : memref<64xf32> = dense<[… >
  memref.global "private" constant @__constant_64x3x7x7xf32 : memref<64x3x7x7xf32> = dense<"…">
  ml_program.global private mutable @global_seed(dense<0> : tensor<i64>) : tensor<i64>
  func.func @forward(%arg0: memref<1x3x224x224xf32>) -> memref<1x64x56x56xf32> {
    %cst = arith.constant 1.000000e-05 : f64
    %cst_0 = arith.constant 0xFF800000 : f32
    %cst_1 = arith.constant 0.000000e+00 : f32
    %0 = memref.get_global @__constant_64x3x7x7xf32 : memref<64x3x7x7xf32>
    %1 = memref.get_global @__constant_64xf32 : memref<64xf32>
    %2 = memref.get_global @__constant_64xf32_0 : memref<64xf32>
    %3 = memref.get_global @__constant_64xf32_1 : memref<64xf32>
    %4 = memref.get_global @__constant_64xf32_2 : memref<64xf32>
    %alloc = memref.alloc() {alignment = 64 : i64} : memref<1x3x230x230xf32>
    affine.for %arg1 = 0 to 1 {
      affine.for %arg2 = 0 to 3 {
        affine.for %arg3 = 0 to 230 step 5 {
          %5 = FDRA.BlockLoad %alloc [0, %arg2, %arg3, 0] : memref<1x3x230x230xf32> -> memref<1x3x230x230xf32> {"forward_kernel_0"}
          FDRA.KernelCall @forward_kernel_0(%5) : (memref<1x3x230x230xf32>) -> ()
          FDRA.BlockStore %5,  %alloc [0, %arg2, %arg3, 0] : memref<1x3x230x230xf32> -> memref<1x3x230x230xf32> {"forward_kernel_0"}
        }
      }
    }
    %alloc_2 = memref.alloc() {alignment = 64 : i64} : memref<1x3x230x230xf32>
    memref.copy %alloc, %alloc_2 : memref<1x3x230x230xf32> to memref<1x3x230x230xf32>
    %subview = memref.subview %alloc_2[0, 0, 3, 3] [1, 3, 224, 224] [1, 1, 1, 1] : memref<1x3x230x230xf32> to memref<1x3x224x224xf32, strided<[158700, 52900, 230, 1], offset: 693>>
    memref.copy %arg0, %subview : memref<1x3x224x224xf32> to memref<1x3x224x224xf32, strided<[158700, 52900, 230, 1], offset: 693>>
    %alloc_3 = memref.alloc() {alignment = 64 : i64} : memref<1x64x112x112xf32>
    affine.for %arg1 = 0 to 1 {
      affine.for %arg2 = 0 to 64 {
        affine.for %arg3 = 0 to 112 step 16 {
          %5 = FDRA.BlockLoad %alloc_3 [0, %arg2, %arg3, 0] : memref<1x64x112x112xf32> -> memref<1x64x112x112xf32> {"forward_kernel_1"}
          FDRA.KernelCall @forward_kernel_1(%5) : (memref<1x64x112x112xf32>) -> ()
          FDRA.BlockStore %5,  %alloc_3 [0, %arg2, %arg3, 0] : memref<1x64x112x112xf32> -> memref<1x64x112x112xf32> {"forward_kernel_1"}
        }
      }
    }
    %alloc_4 = memref.alloc() {alignment = 64 : i64} : memref<1x64x112x112xf32>
    memref.copy %alloc_3, %alloc_4 : memref<1x64x112x112xf32> to memref<1x64x112x112xf32>
    affine.for %arg1 = 0 to 1 {
      affine.for %arg2 = 0 to 64 {
        affine.for %arg3 = 0 to 112 {
          affine.for %arg4 = 0 to 112 step 8 {
            %5 = FDRA.BlockLoad %alloc_2 [0, 0, %arg3 * 2, %arg4 * 2] : memref<1x3x230x230xf32> -> memref<1x3x230x230xf32> {"forward_kernel_2"}
            %6 = FDRA.BlockLoad %0 [%arg2, 0, 0, 0] : memref<64x3x7x7xf32> -> memref<64x3x7x7xf32> {"forward_kernel_2"}
            %7 = FDRA.BlockLoad %alloc_4 [0, %arg2, %arg3, %arg4] : memref<1x64x112x112xf32> -> memref<1x64x112x112xf32> {"forward_kernel_2"}
            %8 = FDRA.BlockLoad %alloc_4 [0, %arg2, %arg3, %arg4] : memref<1x64x112x112xf32> -> memref<1x64x112x112xf32> {"forward_kernel_2"}
            FDRA.KernelCall @forward_kernel_2(%5, %6, %7, %8) : (memref<1x3x230x230xf32>, memref<64x3x7x7xf32>, memref<1x64x112x112xf32>, memref<1x64x112x112xf32>) -> ()
            FDRA.BlockStore %8,  %alloc_4 [0, %arg2, %arg3, %arg4] : memref<1x64x112x112xf32> -> memref<1x64x112x112xf32> {"forward_kernel_2"}
          }
        }
      }
    }
    %alloc_5 = memref.alloc() {alignment = 64 : i64} : memref<1x64x112x112xf32>
    affine.for %arg1 = 0 to 1 {
      affine.for %arg2 = 0 to 64 {
        affine.for %arg3 = 0 to 112 step 16 {
          %5 = FDRA.BlockLoad %alloc_4 [0, %arg2, %arg3, 0] : memref<1x64x112x112xf32> -> memref<1x64x112x112xf32> {"forward_kernel_3"}
          %6 = FDRA.BlockLoad %3 [%arg2] : memref<64xf32> -> memref<64xf32> {"forward_kernel_3"}
          %7 = FDRA.BlockLoad %4 [%arg2] : memref<64xf32> -> memref<64xf32> {"forward_kernel_3"}
          %8 = FDRA.BlockLoad %1 [%arg2] : memref<64xf32> -> memref<64xf32> {"forward_kernel_3"}
          %9 = FDRA.BlockLoad %2 [%arg2] : memref<64xf32> -> memref<64xf32> {"forward_kernel_3"}
          %10 = FDRA.BlockLoad %alloc_5 [0, %arg2, %arg3, 0] : memref<1x64x112x112xf32> -> memref<1x64x112x112xf32> {"forward_kernel_3"}
          FDRA.KernelCall @forward_kernel_3(%5, %6, %7, %8, %9, %10) : (memref<1x64x112x112xf32>, memref<64xf32>, memref<64xf32>, memref<64xf32>, memref<64xf32>, memref<1x64x112x112xf32>) -> ()
          FDRA.BlockStore %10,  %alloc_5 [0, %arg2, %arg3, 0] : memref<1x64x112x112xf32> -> memref<1x64x112x112xf32> {"forward_kernel_3"}
        }
      }
    }
    %alloc_6 = memref.alloc() {alignment = 64 : i64} : memref<1x64x112x112xf32>
    affine.for %arg1 = 0 to 1 {
      affine.for %arg2 = 0 to 64 {
        affine.for %arg3 = 0 to 112 step 16 {
          %5 = FDRA.BlockLoad %alloc_5 [0, %arg2, %arg3, 0] : memref<1x64x112x112xf32> -> memref<1x64x112x112xf32> {"forward_kernel_4"}
          %6 = FDRA.BlockLoad %alloc_6 [0, %arg2, %arg3, 0] : memref<1x64x112x112xf32> -> memref<1x64x112x112xf32> {"forward_kernel_4"}
          FDRA.KernelCall @forward_kernel_4(%5, %6) : (memref<1x64x112x112xf32>, memref<1x64x112x112xf32>) -> ()
          FDRA.BlockStore %6,  %alloc_6 [0, %arg2, %arg3, 0] : memref<1x64x112x112xf32> -> memref<1x64x112x112xf32> {"forward_kernel_4"}
        }
      }
    }
    %alloc_7 = memref.alloc() {alignment = 64 : i64} : memref<1x64x114x114xf32>
    affine.for %arg1 = 0 to 1 {
      affine.for %arg2 = 0 to 64 {
        affine.for %arg3 = 0 to 114 step 6 {
          %5 = FDRA.BlockLoad %alloc_7 [0, %arg2, %arg3, 0] : memref<1x64x114x114xf32> -> memref<1x64x114x114xf32> {"forward_kernel_5"}
          FDRA.KernelCall @forward_kernel_5(%5) : (memref<1x64x114x114xf32>) -> ()
          FDRA.BlockStore %5,  %alloc_7 [0, %arg2, %arg3, 0] : memref<1x64x114x114xf32> -> memref<1x64x114x114xf32> {"forward_kernel_5"}
        }
      }
    }
    %alloc_8 = memref.alloc() {alignment = 64 : i64} : memref<1x64x114x114xf32>
    memref.copy %alloc_7, %alloc_8 : memref<1x64x114x114xf32> to memref<1x64x114x114xf32>
    %subview_9 = memref.subview %alloc_8[0, 0, 1, 1] [1, 64, 112, 112] [1, 1, 1, 1] : memref<1x64x114x114xf32> to memref<1x64x112x112xf32, strided<[831744, 12996, 114, 1], offset: 115>>
    memref.copy %alloc_6, %subview_9 : memref<1x64x112x112xf32> to memref<1x64x112x112xf32, strided<[831744, 12996, 114, 1], offset: 115>>
    %alloc_10 = memref.alloc() {alignment = 64 : i64} : memref<1x64x56x56xf32>
    affine.for %arg1 = 0 to 1 {
      affine.for %arg2 = 0 to 64 {
        affine.for %arg3 = 0 to 56 step 28 {
          %5 = FDRA.BlockLoad %alloc_10 [0, %arg2, %arg3, 0] : memref<1x64x56x56xf32> -> memref<1x64x56x56xf32> {"forward_kernel_6"}
          FDRA.KernelCall @forward_kernel_6(%5) : (memref<1x64x56x56xf32>) -> ()
          FDRA.BlockStore %5,  %alloc_10 [0, %arg2, %arg3, 0] : memref<1x64x56x56xf32> -> memref<1x64x56x56xf32> {"forward_kernel_6"}
        }
      }
    }
    %alloc_11 = memref.alloc() {alignment = 64 : i64} : memref<1x64x56x56xf32>
    memref.copy %alloc_10, %alloc_11 : memref<1x64x56x56xf32> to memref<1x64x56x56xf32>
    affine.for %arg1 = 0 to 1 {
      affine.for %arg2 = 0 to 64 {
        affine.for %arg3 = 0 to 56 step 4 {
          %5 = FDRA.BlockLoad %alloc_8 [0, %arg2, %arg3 * 2, 0] : memref<1x64x114x114xf32> -> memref<1x64x114x114xf32> {"forward_kernel_7"}
          %6 = FDRA.BlockLoad %alloc_11 [0, %arg2, %arg3, 0] : memref<1x64x56x56xf32> -> memref<1x64x56x56xf32> {"forward_kernel_7"}
          %7 = FDRA.BlockLoad %alloc_11 [0, %arg2, %arg3, 0] : memref<1x64x56x56xf32> -> memref<1x64x56x56xf32> {"forward_kernel_7"}
          FDRA.KernelCall @forward_kernel_7(%5, %6, %7) : (memref<1x64x114x114xf32>, memref<1x64x56x56xf32>, memref<1x64x56x56xf32>) -> ()
          FDRA.BlockStore %7,  %alloc_11 [0, %arg2, %arg3, 0] : memref<1x64x56x56xf32> -> memref<1x64x56x56xf32> {"forward_kernel_7"}
        }
      }
    }
    return %alloc_11 : memref<1x64x56x56xf32>
  }
  func.func @forward_kernel_0(%arg0: memref<1x3x230x230xf32>) attributes {Kernel, forward_kernel_0} {
    cf.br ^bb1
  ^bb1:  // pred: ^bb0
    %cst = arith.constant 0.000000e+00 : f32
    affine.for %arg1 = 0 to 5 {
      affine.for %arg2 = 0 to 230 {
        affine.store %cst, %arg0[0, 0, %arg1, %arg2] : memref<1x3x230x230xf32>
      }
    }
    return
  }
  func.func @forward_kernel_1(%arg0: memref<1x64x112x112xf32>) attributes {Kernel, forward_kernel_1} {
    cf.br ^bb1
  ^bb1:  // pred: ^bb0
    %cst = arith.constant 0.000000e+00 : f32
    affine.for %arg1 = 0 to 16 {
      affine.for %arg2 = 0 to 112 {
        affine.store %cst, %arg0[0, 0, %arg1, %arg2] : memref<1x64x112x112xf32>
      }
    }
    return
  }
  func.func @forward_kernel_2(%arg0: memref<1x3x230x230xf32>, %arg1: memref<64x3x7x7xf32>, %arg2: memref<1x64x112x112xf32>, %arg3: memref<1x64x112x112xf32>) attributes {Kernel, forward_kernel_2} {
    cf.br ^bb1
  ^bb1:  // pred: ^bb0
    affine.for %arg4 = 0 to 8 {
      affine.for %arg5 = 0 to 3 {
        affine.for %arg6 = 0 to 7 {
          affine.for %arg7 = 0 to 7 {
            %0 = affine.load %arg0[0, %arg5, %arg6, %arg4 * 2 + %arg7] : memref<1x3x230x230xf32>
            %1 = affine.load %arg1[0, %arg5, %arg6, %arg7] : memref<64x3x7x7xf32>
            %2 = affine.load %arg2[0, 0, 0, %arg4] : memref<1x64x112x112xf32>
            %3 = arith.mulf %0, %1 : f32
            %4 = arith.addf %2, %3 : f32
            affine.store %4, %arg3[0, 0, 0, %arg4] : memref<1x64x112x112xf32>
          }
        }
      }
    }
    return
  }
  func.func @forward_kernel_3(%arg0: memref<1x64x112x112xf32>, %arg1: memref<64xf32>, %arg2: memref<64xf32>, %arg3: memref<64xf32>, %arg4: memref<64xf32>, %arg5: memref<1x64x112x112xf32>) attributes {Kernel, forward_kernel_3} {
    cf.br ^bb1
  ^bb1:  // pred: ^bb0
    %cst = arith.constant 1.000000e-05 : f64
    affine.for %arg6 = 0 to 16 {
      affine.for %arg7 = 0 to 112 {
        %0 = affine.load %arg0[0, 0, %arg6, %arg7] : memref<1x64x112x112xf32>
        %1 = affine.load %arg1[0] : memref<64xf32>
        %2 = affine.load %arg2[0] : memref<64xf32>
        %3 = affine.load %arg3[0] : memref<64xf32>
        %4 = affine.load %arg4[0] : memref<64xf32>
        %5 = arith.truncf %cst : f64 to f32
        %6 = arith.addf %4, %5 : f32
        %cst_0 = arith.constant 5.000000e-01 : f32
        %7 = arith.mulf %6, %cst_0 : f32
        %8 = arith.bitcast %6 : f32 to i32
        %c1_i32 = arith.constant 1 : i32
        %9 = arith.shrui %8, %c1_i32 : i32
        %c1597463007_i32 = arith.constant 1597463007 : i32
        %10 = arith.subi %c1597463007_i32, %9 : i32
        %11 = arith.bitcast %10 : i32 to f32
        %cst_1 = arith.constant 1.500000e+00 : f32
        %12 = arith.mulf %11, %11 : f32
        %13 = arith.mulf %12, %7 : f32
        %14 = arith.subf %cst_1, %13 : f32
        %15 = arith.mulf %14, %12 : f32
        %16 = arith.subf %0, %3 : f32
        %17 = arith.mulf %16, %15 : f32
        %18 = arith.mulf %17, %1 : f32
        %19 = arith.addf %18, %2 : f32
        affine.store %19, %arg5[0, 0, %arg6, %arg7] : memref<1x64x112x112xf32>
      }
    }
    return
  }
  func.func @forward_kernel_4(%arg0: memref<1x64x112x112xf32>, %arg1: memref<1x64x112x112xf32>) attributes {Kernel, forward_kernel_4} {
    cf.br ^bb1
  ^bb1:  // pred: ^bb0
    %cst = arith.constant 0.000000e+00 : f32
    affine.for %arg2 = 0 to 16 {
      affine.for %arg3 = 0 to 112 {
        %0 = affine.load %arg0[0, 0, %arg2, %arg3] : memref<1x64x112x112xf32>
        %1 = arith.cmpf ugt, %0, %cst : f32
        %2 = arith.select %1, %0, %cst : f32
        affine.store %2, %arg1[0, 0, %arg2, %arg3] : memref<1x64x112x112xf32>
      }
    }
    return
  }
  func.func @forward_kernel_5(%arg0: memref<1x64x114x114xf32>) attributes {Kernel, forward_kernel_5} {
    cf.br ^bb1
  ^bb1:  // pred: ^bb0
    %cst = arith.constant 0xFF800000 : f32
    affine.for %arg1 = 0 to 6 {
      affine.for %arg2 = 0 to 114 {
        affine.store %cst, %arg0[0, 0, %arg1, %arg2] : memref<1x64x114x114xf32>
      }
    }
    return
  }
  func.func @forward_kernel_6(%arg0: memref<1x64x56x56xf32>) attributes {Kernel, forward_kernel_6} {
    cf.br ^bb1
  ^bb1:  // pred: ^bb0
    %cst = arith.constant 0xFF800000 : f32
    affine.for %arg1 = 0 to 28 {
      affine.for %arg2 = 0 to 56 {
        affine.store %cst, %arg0[0, 0, %arg1, %arg2] : memref<1x64x56x56xf32>
      }
    }
    return
  }
  func.func @forward_kernel_7(%arg0: memref<1x64x114x114xf32>, %arg1: memref<1x64x56x56xf32>, %arg2: memref<1x64x56x56xf32>) attributes {Kernel, forward_kernel_7} {
    cf.br ^bb1
  ^bb1:  // pred: ^bb0
    affine.for %arg3 = 0 to 4 {
      affine.for %arg4 = 0 to 56 {
        affine.for %arg5 = 0 to 3 {
          affine.for %arg6 = 0 to 3 {
            %0 = affine.load %arg0[0, 0, %arg3 * 2 + %arg5, %arg4 * 2 + %arg6] : memref<1x64x114x114xf32>
            %1 = affine.load %arg1[0, 0, %arg3, %arg4] : memref<1x64x56x56xf32>
            %2 = arith.cmpf ugt, %1, %0 : f32
            %3 = arith.select %2, %1, %0 : f32
            %4 = arith.cmpf uno, %0, %0 : f32
            %5 = arith.select %4, %0, %3 : f32
            affine.store %5, %arg2[0, 0, %arg3, %arg4] : memref<1x64x56x56xf32>
          }
        }
      }
    }
    return
  }
}


// -----// IR Dump After ExpandStridedMetadata (expand-strided-metadata) //----- //
module attributes {torch.debug_module_name = "ResNet"} {
  memref.global "private" constant @__constant_64xf32_2 : memref<64xf32> = dense<[… >
  memref.global "private" constant @__constant_64xf32_1 : memref<64xf32> = dense<[… >
  memref.global "private" constant @__constant_64xf32_0 : memref<64xf32> = dense<[… >
  memref.global "private" constant @__constant_64xf32 : memref<64xf32> = dense<[… >
  memref.global "private" constant @__constant_64x3x7x7xf32 : memref<64x3x7x7xf32> = dense<"…">
  ml_program.global private mutable @global_seed(dense<0> : tensor<i64>) : tensor<i64>
  func.func @forward(%arg0: memref<1x3x224x224xf32>) -> memref<1x64x56x56xf32> {
    %0 = memref.get_global @__constant_64x3x7x7xf32 : memref<64x3x7x7xf32>
    %1 = memref.get_global @__constant_64xf32 : memref<64xf32>
    %2 = memref.get_global @__constant_64xf32_0 : memref<64xf32>
    %3 = memref.get_global @__constant_64xf32_1 : memref<64xf32>
    %4 = memref.get_global @__constant_64xf32_2 : memref<64xf32>
    %alloc = memref.alloc() {alignment = 64 : i64} : memref<1x3x230x230xf32>
    affine.for %arg1 = 0 to 1 {
      affine.for %arg2 = 0 to 3 {
        affine.for %arg3 = 0 to 230 step 5 {
          %5 = FDRA.BlockLoad %alloc [0, %arg2, %arg3, 0] : memref<1x3x230x230xf32> -> memref<1x3x230x230xf32> {"forward_kernel_0"}
          FDRA.KernelCall @forward_kernel_0(%5) : (memref<1x3x230x230xf32>) -> ()
          FDRA.BlockStore %5,  %alloc [0, %arg2, %arg3, 0] : memref<1x3x230x230xf32> -> memref<1x3x230x230xf32> {"forward_kernel_0"}
        }
      }
    }
    %alloc_0 = memref.alloc() {alignment = 64 : i64} : memref<1x3x230x230xf32>
    memref.copy %alloc, %alloc_0 : memref<1x3x230x230xf32> to memref<1x3x230x230xf32>
    %reinterpret_cast = memref.reinterpret_cast %alloc_0 to offset: [693], sizes: [1, 3, 224, 224], strides: [158700, 52900, 230, 1] : memref<1x3x230x230xf32> to memref<1x3x224x224xf32, strided<[158700, 52900, 230, 1], offset: 693>>
    memref.copy %arg0, %reinterpret_cast : memref<1x3x224x224xf32> to memref<1x3x224x224xf32, strided<[158700, 52900, 230, 1], offset: 693>>
    %alloc_1 = memref.alloc() {alignment = 64 : i64} : memref<1x64x112x112xf32>
    affine.for %arg1 = 0 to 1 {
      affine.for %arg2 = 0 to 64 {
        affine.for %arg3 = 0 to 112 step 16 {
          %5 = FDRA.BlockLoad %alloc_1 [0, %arg2, %arg3, 0] : memref<1x64x112x112xf32> -> memref<1x64x112x112xf32> {"forward_kernel_1"}
          FDRA.KernelCall @forward_kernel_1(%5) : (memref<1x64x112x112xf32>) -> ()
          FDRA.BlockStore %5,  %alloc_1 [0, %arg2, %arg3, 0] : memref<1x64x112x112xf32> -> memref<1x64x112x112xf32> {"forward_kernel_1"}
        }
      }
    }
    %alloc_2 = memref.alloc() {alignment = 64 : i64} : memref<1x64x112x112xf32>
    memref.copy %alloc_1, %alloc_2 : memref<1x64x112x112xf32> to memref<1x64x112x112xf32>
    affine.for %arg1 = 0 to 1 {
      affine.for %arg2 = 0 to 64 {
        affine.for %arg3 = 0 to 112 {
          affine.for %arg4 = 0 to 112 step 8 {
            %5 = FDRA.BlockLoad %alloc_0 [0, 0, %arg3 * 2, %arg4 * 2] : memref<1x3x230x230xf32> -> memref<1x3x230x230xf32> {"forward_kernel_2"}
            %6 = FDRA.BlockLoad %0 [%arg2, 0, 0, 0] : memref<64x3x7x7xf32> -> memref<64x3x7x7xf32> {"forward_kernel_2"}
            %7 = FDRA.BlockLoad %alloc_2 [0, %arg2, %arg3, %arg4] : memref<1x64x112x112xf32> -> memref<1x64x112x112xf32> {"forward_kernel_2"}
            %8 = FDRA.BlockLoad %alloc_2 [0, %arg2, %arg3, %arg4] : memref<1x64x112x112xf32> -> memref<1x64x112x112xf32> {"forward_kernel_2"}
            FDRA.KernelCall @forward_kernel_2(%5, %6, %7, %8) : (memref<1x3x230x230xf32>, memref<64x3x7x7xf32>, memref<1x64x112x112xf32>, memref<1x64x112x112xf32>) -> ()
            FDRA.BlockStore %8,  %alloc_2 [0, %arg2, %arg3, %arg4] : memref<1x64x112x112xf32> -> memref<1x64x112x112xf32> {"forward_kernel_2"}
          }
        }
      }
    }
    %alloc_3 = memref.alloc() {alignment = 64 : i64} : memref<1x64x112x112xf32>
    affine.for %arg1 = 0 to 1 {
      affine.for %arg2 = 0 to 64 {
        affine.for %arg3 = 0 to 112 step 16 {
          %5 = FDRA.BlockLoad %alloc_2 [0, %arg2, %arg3, 0] : memref<1x64x112x112xf32> -> memref<1x64x112x112xf32> {"forward_kernel_3"}
          %6 = FDRA.BlockLoad %3 [%arg2] : memref<64xf32> -> memref<64xf32> {"forward_kernel_3"}
          %7 = FDRA.BlockLoad %4 [%arg2] : memref<64xf32> -> memref<64xf32> {"forward_kernel_3"}
          %8 = FDRA.BlockLoad %1 [%arg2] : memref<64xf32> -> memref<64xf32> {"forward_kernel_3"}
          %9 = FDRA.BlockLoad %2 [%arg2] : memref<64xf32> -> memref<64xf32> {"forward_kernel_3"}
          %10 = FDRA.BlockLoad %alloc_3 [0, %arg2, %arg3, 0] : memref<1x64x112x112xf32> -> memref<1x64x112x112xf32> {"forward_kernel_3"}
          FDRA.KernelCall @forward_kernel_3(%5, %6, %7, %8, %9, %10) : (memref<1x64x112x112xf32>, memref<64xf32>, memref<64xf32>, memref<64xf32>, memref<64xf32>, memref<1x64x112x112xf32>) -> ()
          FDRA.BlockStore %10,  %alloc_3 [0, %arg2, %arg3, 0] : memref<1x64x112x112xf32> -> memref<1x64x112x112xf32> {"forward_kernel_3"}
        }
      }
    }
    %alloc_4 = memref.alloc() {alignment = 64 : i64} : memref<1x64x112x112xf32>
    affine.for %arg1 = 0 to 1 {
      affine.for %arg2 = 0 to 64 {
        affine.for %arg3 = 0 to 112 step 16 {
          %5 = FDRA.BlockLoad %alloc_3 [0, %arg2, %arg3, 0] : memref<1x64x112x112xf32> -> memref<1x64x112x112xf32> {"forward_kernel_4"}
          %6 = FDRA.BlockLoad %alloc_4 [0, %arg2, %arg3, 0] : memref<1x64x112x112xf32> -> memref<1x64x112x112xf32> {"forward_kernel_4"}
          FDRA.KernelCall @forward_kernel_4(%5, %6) : (memref<1x64x112x112xf32>, memref<1x64x112x112xf32>) -> ()
          FDRA.BlockStore %6,  %alloc_4 [0, %arg2, %arg3, 0] : memref<1x64x112x112xf32> -> memref<1x64x112x112xf32> {"forward_kernel_4"}
        }
      }
    }
    %alloc_5 = memref.alloc() {alignment = 64 : i64} : memref<1x64x114x114xf32>
    affine.for %arg1 = 0 to 1 {
      affine.for %arg2 = 0 to 64 {
        affine.for %arg3 = 0 to 114 step 6 {
          %5 = FDRA.BlockLoad %alloc_5 [0, %arg2, %arg3, 0] : memref<1x64x114x114xf32> -> memref<1x64x114x114xf32> {"forward_kernel_5"}
          FDRA.KernelCall @forward_kernel_5(%5) : (memref<1x64x114x114xf32>) -> ()
          FDRA.BlockStore %5,  %alloc_5 [0, %arg2, %arg3, 0] : memref<1x64x114x114xf32> -> memref<1x64x114x114xf32> {"forward_kernel_5"}
        }
      }
    }
    %alloc_6 = memref.alloc() {alignment = 64 : i64} : memref<1x64x114x114xf32>
    memref.copy %alloc_5, %alloc_6 : memref<1x64x114x114xf32> to memref<1x64x114x114xf32>
    %reinterpret_cast_7 = memref.reinterpret_cast %alloc_6 to offset: [115], sizes: [1, 64, 112, 112], strides: [831744, 12996, 114, 1] : memref<1x64x114x114xf32> to memref<1x64x112x112xf32, strided<[831744, 12996, 114, 1], offset: 115>>
    memref.copy %alloc_4, %reinterpret_cast_7 : memref<1x64x112x112xf32> to memref<1x64x112x112xf32, strided<[831744, 12996, 114, 1], offset: 115>>
    %alloc_8 = memref.alloc() {alignment = 64 : i64} : memref<1x64x56x56xf32>
    affine.for %arg1 = 0 to 1 {
      affine.for %arg2 = 0 to 64 {
        affine.for %arg3 = 0 to 56 step 28 {
          %5 = FDRA.BlockLoad %alloc_8 [0, %arg2, %arg3, 0] : memref<1x64x56x56xf32> -> memref<1x64x56x56xf32> {"forward_kernel_6"}
          FDRA.KernelCall @forward_kernel_6(%5) : (memref<1x64x56x56xf32>) -> ()
          FDRA.BlockStore %5,  %alloc_8 [0, %arg2, %arg3, 0] : memref<1x64x56x56xf32> -> memref<1x64x56x56xf32> {"forward_kernel_6"}
        }
      }
    }
    %alloc_9 = memref.alloc() {alignment = 64 : i64} : memref<1x64x56x56xf32>
    memref.copy %alloc_8, %alloc_9 : memref<1x64x56x56xf32> to memref<1x64x56x56xf32>
    affine.for %arg1 = 0 to 1 {
      affine.for %arg2 = 0 to 64 {
        affine.for %arg3 = 0 to 56 step 4 {
          %5 = FDRA.BlockLoad %alloc_6 [0, %arg2, %arg3 * 2, 0] : memref<1x64x114x114xf32> -> memref<1x64x114x114xf32> {"forward_kernel_7"}
          %6 = FDRA.BlockLoad %alloc_9 [0, %arg2, %arg3, 0] : memref<1x64x56x56xf32> -> memref<1x64x56x56xf32> {"forward_kernel_7"}
          %7 = FDRA.BlockLoad %alloc_9 [0, %arg2, %arg3, 0] : memref<1x64x56x56xf32> -> memref<1x64x56x56xf32> {"forward_kernel_7"}
          FDRA.KernelCall @forward_kernel_7(%5, %6, %7) : (memref<1x64x114x114xf32>, memref<1x64x56x56xf32>, memref<1x64x56x56xf32>) -> ()
          FDRA.BlockStore %7,  %alloc_9 [0, %arg2, %arg3, 0] : memref<1x64x56x56xf32> -> memref<1x64x56x56xf32> {"forward_kernel_7"}
        }
      }
    }
    return %alloc_9 : memref<1x64x56x56xf32>
  }
  func.func @forward_kernel_0(%arg0: memref<1x3x230x230xf32>) attributes {Kernel, forward_kernel_0} {
    %cst = arith.constant 0.000000e+00 : f32
    cf.br ^bb1
  ^bb1:  // pred: ^bb0
    affine.for %arg1 = 0 to 5 {
      affine.for %arg2 = 0 to 230 {
        affine.store %cst, %arg0[0, 0, %arg1, %arg2] : memref<1x3x230x230xf32>
      }
    }
    return
  }
  func.func @forward_kernel_1(%arg0: memref<1x64x112x112xf32>) attributes {Kernel, forward_kernel_1} {
    %cst = arith.constant 0.000000e+00 : f32
    cf.br ^bb1
  ^bb1:  // pred: ^bb0
    affine.for %arg1 = 0 to 16 {
      affine.for %arg2 = 0 to 112 {
        affine.store %cst, %arg0[0, 0, %arg1, %arg2] : memref<1x64x112x112xf32>
      }
    }
    return
  }
  func.func @forward_kernel_2(%arg0: memref<1x3x230x230xf32>, %arg1: memref<64x3x7x7xf32>, %arg2: memref<1x64x112x112xf32>, %arg3: memref<1x64x112x112xf32>) attributes {Kernel, forward_kernel_2} {
    cf.br ^bb1
  ^bb1:  // pred: ^bb0
    affine.for %arg4 = 0 to 8 {
      affine.for %arg5 = 0 to 3 {
        affine.for %arg6 = 0 to 7 {
          affine.for %arg7 = 0 to 7 {
            %0 = affine.load %arg0[0, %arg5, %arg6, %arg4 * 2 + %arg7] : memref<1x3x230x230xf32>
            %1 = affine.load %arg1[0, %arg5, %arg6, %arg7] : memref<64x3x7x7xf32>
            %2 = affine.load %arg2[0, 0, 0, %arg4] : memref<1x64x112x112xf32>
            %3 = arith.mulf %0, %1 : f32
            %4 = arith.addf %2, %3 : f32
            affine.store %4, %arg3[0, 0, 0, %arg4] : memref<1x64x112x112xf32>
          }
        }
      }
    }
    return
  }
  func.func @forward_kernel_3(%arg0: memref<1x64x112x112xf32>, %arg1: memref<64xf32>, %arg2: memref<64xf32>, %arg3: memref<64xf32>, %arg4: memref<64xf32>, %arg5: memref<1x64x112x112xf32>) attributes {Kernel, forward_kernel_3} {
    %cst = arith.constant 1.500000e+00 : f32
    %c1597463007_i32 = arith.constant 1597463007 : i32
    %c1_i32 = arith.constant 1 : i32
    %cst_0 = arith.constant 5.000000e-01 : f32
    %cst_1 = arith.constant 1.000000e-05 : f64
    cf.br ^bb1
  ^bb1:  // pred: ^bb0
    affine.for %arg6 = 0 to 16 {
      affine.for %arg7 = 0 to 112 {
        %0 = affine.load %arg0[0, 0, %arg6, %arg7] : memref<1x64x112x112xf32>
        %1 = affine.load %arg1[0] : memref<64xf32>
        %2 = affine.load %arg2[0] : memref<64xf32>
        %3 = affine.load %arg3[0] : memref<64xf32>
        %4 = affine.load %arg4[0] : memref<64xf32>
        %5 = arith.truncf %cst_1 : f64 to f32
        %6 = arith.addf %4, %5 : f32
        %7 = arith.mulf %6, %cst_0 : f32
        %8 = arith.bitcast %6 : f32 to i32
        %9 = arith.shrui %8, %c1_i32 : i32
        %10 = arith.subi %c1597463007_i32, %9 : i32
        %11 = arith.bitcast %10 : i32 to f32
        %12 = arith.mulf %11, %11 : f32
        %13 = arith.mulf %12, %7 : f32
        %14 = arith.subf %cst, %13 : f32
        %15 = arith.mulf %14, %12 : f32
        %16 = arith.subf %0, %3 : f32
        %17 = arith.mulf %16, %15 : f32
        %18 = arith.mulf %17, %1 : f32
        %19 = arith.addf %18, %2 : f32
        affine.store %19, %arg5[0, 0, %arg6, %arg7] : memref<1x64x112x112xf32>
      }
    }
    return
  }
  func.func @forward_kernel_4(%arg0: memref<1x64x112x112xf32>, %arg1: memref<1x64x112x112xf32>) attributes {Kernel, forward_kernel_4} {
    %cst = arith.constant 0.000000e+00 : f32
    cf.br ^bb1
  ^bb1:  // pred: ^bb0
    affine.for %arg2 = 0 to 16 {
      affine.for %arg3 = 0 to 112 {
        %0 = affine.load %arg0[0, 0, %arg2, %arg3] : memref<1x64x112x112xf32>
        %1 = arith.cmpf ugt, %0, %cst : f32
        %2 = arith.select %1, %0, %cst : f32
        affine.store %2, %arg1[0, 0, %arg2, %arg3] : memref<1x64x112x112xf32>
      }
    }
    return
  }
  func.func @forward_kernel_5(%arg0: memref<1x64x114x114xf32>) attributes {Kernel, forward_kernel_5} {
    %cst = arith.constant 0xFF800000 : f32
    cf.br ^bb1
  ^bb1:  // pred: ^bb0
    affine.for %arg1 = 0 to 6 {
      affine.for %arg2 = 0 to 114 {
        affine.store %cst, %arg0[0, 0, %arg1, %arg2] : memref<1x64x114x114xf32>
      }
    }
    return
  }
  func.func @forward_kernel_6(%arg0: memref<1x64x56x56xf32>) attributes {Kernel, forward_kernel_6} {
    %cst = arith.constant 0xFF800000 : f32
    cf.br ^bb1
  ^bb1:  // pred: ^bb0
    affine.for %arg1 = 0 to 28 {
      affine.for %arg2 = 0 to 56 {
        affine.store %cst, %arg0[0, 0, %arg1, %arg2] : memref<1x64x56x56xf32>
      }
    }
    return
  }
  func.func @forward_kernel_7(%arg0: memref<1x64x114x114xf32>, %arg1: memref<1x64x56x56xf32>, %arg2: memref<1x64x56x56xf32>) attributes {Kernel, forward_kernel_7} {
    cf.br ^bb1
  ^bb1:  // pred: ^bb0
    affine.for %arg3 = 0 to 4 {
      affine.for %arg4 = 0 to 56 {
        affine.for %arg5 = 0 to 3 {
          affine.for %arg6 = 0 to 3 {
            %0 = affine.load %arg0[0, 0, %arg3 * 2 + %arg5, %arg4 * 2 + %arg6] : memref<1x64x114x114xf32>
            %1 = affine.load %arg1[0, 0, %arg3, %arg4] : memref<1x64x56x56xf32>
            %2 = arith.cmpf ugt, %1, %0 : f32
            %3 = arith.select %2, %1, %0 : f32
            %4 = arith.cmpf uno, %0, %0 : f32
            %5 = arith.select %4, %0, %3 : f32
            affine.store %5, %arg2[0, 0, %arg3, %arg4] : memref<1x64x56x56xf32>
          }
        }
      }
    }
    return
  }
}


// -----// IR Dump After SimplifyAffineStructures (affine-simplify-structures) //----- //
func.func @forward_kernel_0(%arg0: memref<1x3x230x230xf32>) attributes {Kernel, forward_kernel_0} {
  %cst = arith.constant 0.000000e+00 : f32
  cf.br ^bb1
^bb1:  // pred: ^bb0
  affine.for %arg1 = 0 to 5 {
    affine.for %arg2 = 0 to 230 {
      affine.store %cst, %arg0[0, 0, %arg1, %arg2] : memref<1x3x230x230xf32>
    }
  }
  return
}

// -----// IR Dump After SimplifyAffineStructures (affine-simplify-structures) //----- //
func.func @forward_kernel_1(%arg0: memref<1x64x112x112xf32>) attributes {Kernel, forward_kernel_1} {
  %cst = arith.constant 0.000000e+00 : f32
  cf.br ^bb1
^bb1:  // pred: ^bb0
  affine.for %arg1 = 0 to 16 {
    affine.for %arg2 = 0 to 112 {
      affine.store %cst, %arg0[0, 0, %arg1, %arg2] : memref<1x64x112x112xf32>
    }
  }
  return
}

// -----// IR Dump After SimplifyAffineStructures (affine-simplify-structures) //----- //
func.func @forward(%arg0: memref<1x3x224x224xf32>) -> memref<1x64x56x56xf32> {
  %0 = memref.get_global @__constant_64x3x7x7xf32 : memref<64x3x7x7xf32>
  %1 = memref.get_global @__constant_64xf32 : memref<64xf32>
  %2 = memref.get_global @__constant_64xf32_0 : memref<64xf32>
  %3 = memref.get_global @__constant_64xf32_1 : memref<64xf32>
  %4 = memref.get_global @__constant_64xf32_2 : memref<64xf32>
  %alloc = memref.alloc() {alignment = 64 : i64} : memref<1x3x230x230xf32>
  affine.for %arg1 = 0 to 1 {
    affine.for %arg2 = 0 to 3 {
      affine.for %arg3 = 0 to 230 step 5 {
        %5 = FDRA.BlockLoad %alloc [0, %arg2, %arg3, 0] : memref<1x3x230x230xf32> -> memref<1x3x230x230xf32> {"forward_kernel_0"}
        FDRA.KernelCall @forward_kernel_0(%5) : (memref<1x3x230x230xf32>) -> ()
        FDRA.BlockStore %5,  %alloc [0, %arg2, %arg3, 0] : memref<1x3x230x230xf32> -> memref<1x3x230x230xf32> {"forward_kernel_0"}
      }
    }
  }
  %alloc_0 = memref.alloc() {alignment = 64 : i64} : memref<1x3x230x230xf32>
  memref.copy %alloc, %alloc_0 : memref<1x3x230x230xf32> to memref<1x3x230x230xf32>
  %reinterpret_cast = memref.reinterpret_cast %alloc_0 to offset: [693], sizes: [1, 3, 224, 224], strides: [158700, 52900, 230, 1] : memref<1x3x230x230xf32> to memref<1x3x224x224xf32, strided<[158700, 52900, 230, 1], offset: 693>>
  memref.copy %arg0, %reinterpret_cast : memref<1x3x224x224xf32> to memref<1x3x224x224xf32, strided<[158700, 52900, 230, 1], offset: 693>>
  %alloc_1 = memref.alloc() {alignment = 64 : i64} : memref<1x64x112x112xf32>
  affine.for %arg1 = 0 to 1 {
    affine.for %arg2 = 0 to 64 {
      affine.for %arg3 = 0 to 112 step 16 {
        %5 = FDRA.BlockLoad %alloc_1 [0, %arg2, %arg3, 0] : memref<1x64x112x112xf32> -> memref<1x64x112x112xf32> {"forward_kernel_1"}
        FDRA.KernelCall @forward_kernel_1(%5) : (memref<1x64x112x112xf32>) -> ()
        FDRA.BlockStore %5,  %alloc_1 [0, %arg2, %arg3, 0] : memref<1x64x112x112xf32> -> memref<1x64x112x112xf32> {"forward_kernel_1"}
      }
    }
  }
  %alloc_2 = memref.alloc() {alignment = 64 : i64} : memref<1x64x112x112xf32>
  memref.copy %alloc_1, %alloc_2 : memref<1x64x112x112xf32> to memref<1x64x112x112xf32>
  affine.for %arg1 = 0 to 1 {
    affine.for %arg2 = 0 to 64 {
      affine.for %arg3 = 0 to 112 {
        affine.for %arg4 = 0 to 112 step 8 {
          %5 = FDRA.BlockLoad %alloc_0 [0, 0, %arg3 * 2, %arg4 * 2] : memref<1x3x230x230xf32> -> memref<1x3x230x230xf32> {"forward_kernel_2"}
          %6 = FDRA.BlockLoad %0 [%arg2, 0, 0, 0] : memref<64x3x7x7xf32> -> memref<64x3x7x7xf32> {"forward_kernel_2"}
          %7 = FDRA.BlockLoad %alloc_2 [0, %arg2, %arg3, %arg4] : memref<1x64x112x112xf32> -> memref<1x64x112x112xf32> {"forward_kernel_2"}
          %8 = FDRA.BlockLoad %alloc_2 [0, %arg2, %arg3, %arg4] : memref<1x64x112x112xf32> -> memref<1x64x112x112xf32> {"forward_kernel_2"}
          FDRA.KernelCall @forward_kernel_2(%5, %6, %7, %8) : (memref<1x3x230x230xf32>, memref<64x3x7x7xf32>, memref<1x64x112x112xf32>, memref<1x64x112x112xf32>) -> ()
          FDRA.BlockStore %8,  %alloc_2 [0, %arg2, %arg3, %arg4] : memref<1x64x112x112xf32> -> memref<1x64x112x112xf32> {"forward_kernel_2"}
        }
      }
    }
  }
  %alloc_3 = memref.alloc() {alignment = 64 : i64} : memref<1x64x112x112xf32>
  affine.for %arg1 = 0 to 1 {
    affine.for %arg2 = 0 to 64 {
      affine.for %arg3 = 0 to 112 step 16 {
        %5 = FDRA.BlockLoad %alloc_2 [0, %arg2, %arg3, 0] : memref<1x64x112x112xf32> -> memref<1x64x112x112xf32> {"forward_kernel_3"}
        %6 = FDRA.BlockLoad %3 [%arg2] : memref<64xf32> -> memref<64xf32> {"forward_kernel_3"}
        %7 = FDRA.BlockLoad %4 [%arg2] : memref<64xf32> -> memref<64xf32> {"forward_kernel_3"}
        %8 = FDRA.BlockLoad %1 [%arg2] : memref<64xf32> -> memref<64xf32> {"forward_kernel_3"}
        %9 = FDRA.BlockLoad %2 [%arg2] : memref<64xf32> -> memref<64xf32> {"forward_kernel_3"}
        %10 = FDRA.BlockLoad %alloc_3 [0, %arg2, %arg3, 0] : memref<1x64x112x112xf32> -> memref<1x64x112x112xf32> {"forward_kernel_3"}
        FDRA.KernelCall @forward_kernel_3(%5, %6, %7, %8, %9, %10) : (memref<1x64x112x112xf32>, memref<64xf32>, memref<64xf32>, memref<64xf32>, memref<64xf32>, memref<1x64x112x112xf32>) -> ()
        FDRA.BlockStore %10,  %alloc_3 [0, %arg2, %arg3, 0] : memref<1x64x112x112xf32> -> memref<1x64x112x112xf32> {"forward_kernel_3"}
      }
    }
  }
  %alloc_4 = memref.alloc() {alignment = 64 : i64} : memref<1x64x112x112xf32>
  affine.for %arg1 = 0 to 1 {
    affine.for %arg2 = 0 to 64 {
      affine.for %arg3 = 0 to 112 step 16 {
        %5 = FDRA.BlockLoad %alloc_3 [0, %arg2, %arg3, 0] : memref<1x64x112x112xf32> -> memref<1x64x112x112xf32> {"forward_kernel_4"}
        %6 = FDRA.BlockLoad %alloc_4 [0, %arg2, %arg3, 0] : memref<1x64x112x112xf32> -> memref<1x64x112x112xf32> {"forward_kernel_4"}
        FDRA.KernelCall @forward_kernel_4(%5, %6) : (memref<1x64x112x112xf32>, memref<1x64x112x112xf32>) -> ()
        FDRA.BlockStore %6,  %alloc_4 [0, %arg2, %arg3, 0] : memref<1x64x112x112xf32> -> memref<1x64x112x112xf32> {"forward_kernel_4"}
      }
    }
  }
  %alloc_5 = memref.alloc() {alignment = 64 : i64} : memref<1x64x114x114xf32>
  affine.for %arg1 = 0 to 1 {
    affine.for %arg2 = 0 to 64 {
      affine.for %arg3 = 0 to 114 step 6 {
        %5 = FDRA.BlockLoad %alloc_5 [0, %arg2, %arg3, 0] : memref<1x64x114x114xf32> -> memref<1x64x114x114xf32> {"forward_kernel_5"}
        FDRA.KernelCall @forward_kernel_5(%5) : (memref<1x64x114x114xf32>) -> ()
        FDRA.BlockStore %5,  %alloc_5 [0, %arg2, %arg3, 0] : memref<1x64x114x114xf32> -> memref<1x64x114x114xf32> {"forward_kernel_5"}
      }
    }
  }
  %alloc_6 = memref.alloc() {alignment = 64 : i64} : memref<1x64x114x114xf32>
  memref.copy %alloc_5, %alloc_6 : memref<1x64x114x114xf32> to memref<1x64x114x114xf32>
  %reinterpret_cast_7 = memref.reinterpret_cast %alloc_6 to offset: [115], sizes: [1, 64, 112, 112], strides: [831744, 12996, 114, 1] : memref<1x64x114x114xf32> to memref<1x64x112x112xf32, strided<[831744, 12996, 114, 1], offset: 115>>
  memref.copy %alloc_4, %reinterpret_cast_7 : memref<1x64x112x112xf32> to memref<1x64x112x112xf32, strided<[831744, 12996, 114, 1], offset: 115>>
  %alloc_8 = memref.alloc() {alignment = 64 : i64} : memref<1x64x56x56xf32>
  affine.for %arg1 = 0 to 1 {
    affine.for %arg2 = 0 to 64 {
      affine.for %arg3 = 0 to 56 step 28 {
        %5 = FDRA.BlockLoad %alloc_8 [0, %arg2, %arg3, 0] : memref<1x64x56x56xf32> -> memref<1x64x56x56xf32> {"forward_kernel_6"}
        FDRA.KernelCall @forward_kernel_6(%5) : (memref<1x64x56x56xf32>) -> ()
        FDRA.BlockStore %5,  %alloc_8 [0, %arg2, %arg3, 0] : memref<1x64x56x56xf32> -> memref<1x64x56x56xf32> {"forward_kernel_6"}
      }
    }
  }
  %alloc_9 = memref.alloc() {alignment = 64 : i64} : memref<1x64x56x56xf32>
  memref.copy %alloc_8, %alloc_9 : memref<1x64x56x56xf32> to memref<1x64x56x56xf32>
  affine.for %arg1 = 0 to 1 {
    affine.for %arg2 = 0 to 64 {
      affine.for %arg3 = 0 to 56 step 4 {
        %5 = FDRA.BlockLoad %alloc_6 [0, %arg2, %arg3 * 2, 0] : memref<1x64x114x114xf32> -> memref<1x64x114x114xf32> {"forward_kernel_7"}
        %6 = FDRA.BlockLoad %alloc_9 [0, %arg2, %arg3, 0] : memref<1x64x56x56xf32> -> memref<1x64x56x56xf32> {"forward_kernel_7"}
        %7 = FDRA.BlockLoad %alloc_9 [0, %arg2, %arg3, 0] : memref<1x64x56x56xf32> -> memref<1x64x56x56xf32> {"forward_kernel_7"}
        FDRA.KernelCall @forward_kernel_7(%5, %6, %7) : (memref<1x64x114x114xf32>, memref<1x64x56x56xf32>, memref<1x64x56x56xf32>) -> ()
        FDRA.BlockStore %7,  %alloc_9 [0, %arg2, %arg3, 0] : memref<1x64x56x56xf32> -> memref<1x64x56x56xf32> {"forward_kernel_7"}
      }
    }
  }
  return %alloc_9 : memref<1x64x56x56xf32>
}

// -----// IR Dump After SimplifyAffineStructures (affine-simplify-structures) //----- //
func.func @forward_kernel_2(%arg0: memref<1x3x230x230xf32>, %arg1: memref<64x3x7x7xf32>, %arg2: memref<1x64x112x112xf32>, %arg3: memref<1x64x112x112xf32>) attributes {Kernel, forward_kernel_2} {
  cf.br ^bb1
^bb1:  // pred: ^bb0
  affine.for %arg4 = 0 to 8 {
    affine.for %arg5 = 0 to 3 {
      affine.for %arg6 = 0 to 7 {
        affine.for %arg7 = 0 to 7 {
          %0 = affine.load %arg0[0, %arg5, %arg6, %arg4 * 2 + %arg7] : memref<1x3x230x230xf32>
          %1 = affine.load %arg1[0, %arg5, %arg6, %arg7] : memref<64x3x7x7xf32>
          %2 = affine.load %arg2[0, 0, 0, %arg4] : memref<1x64x112x112xf32>
          %3 = arith.mulf %0, %1 : f32
          %4 = arith.addf %2, %3 : f32
          affine.store %4, %arg3[0, 0, 0, %arg4] : memref<1x64x112x112xf32>
        }
      }
    }
  }
  return
}

// -----// IR Dump After SimplifyAffineStructures (affine-simplify-structures) //----- //
func.func @forward_kernel_3(%arg0: memref<1x64x112x112xf32>, %arg1: memref<64xf32>, %arg2: memref<64xf32>, %arg3: memref<64xf32>, %arg4: memref<64xf32>, %arg5: memref<1x64x112x112xf32>) attributes {Kernel, forward_kernel_3} {
  %cst = arith.constant 1.500000e+00 : f32
  %c1597463007_i32 = arith.constant 1597463007 : i32
  %c1_i32 = arith.constant 1 : i32
  %cst_0 = arith.constant 5.000000e-01 : f32
  %cst_1 = arith.constant 1.000000e-05 : f64
  cf.br ^bb1
^bb1:  // pred: ^bb0
  affine.for %arg6 = 0 to 16 {
    affine.for %arg7 = 0 to 112 {
      %0 = affine.load %arg0[0, 0, %arg6, %arg7] : memref<1x64x112x112xf32>
      %1 = affine.load %arg1[0] : memref<64xf32>
      %2 = affine.load %arg2[0] : memref<64xf32>
      %3 = affine.load %arg3[0] : memref<64xf32>
      %4 = affine.load %arg4[0] : memref<64xf32>
      %5 = arith.truncf %cst_1 : f64 to f32
      %6 = arith.addf %4, %5 : f32
      %7 = arith.mulf %6, %cst_0 : f32
      %8 = arith.bitcast %6 : f32 to i32
      %9 = arith.shrui %8, %c1_i32 : i32
      %10 = arith.subi %c1597463007_i32, %9 : i32
      %11 = arith.bitcast %10 : i32 to f32
      %12 = arith.mulf %11, %11 : f32
      %13 = arith.mulf %12, %7 : f32
      %14 = arith.subf %cst, %13 : f32
      %15 = arith.mulf %14, %12 : f32
      %16 = arith.subf %0, %3 : f32
      %17 = arith.mulf %16, %15 : f32
      %18 = arith.mulf %17, %1 : f32
      %19 = arith.addf %18, %2 : f32
      affine.store %19, %arg5[0, 0, %arg6, %arg7] : memref<1x64x112x112xf32>
    }
  }
  return
}

// -----// IR Dump After SimplifyAffineStructures (affine-simplify-structures) //----- //
func.func @forward_kernel_4(%arg0: memref<1x64x112x112xf32>, %arg1: memref<1x64x112x112xf32>) attributes {Kernel, forward_kernel_4} {
  %cst = arith.constant 0.000000e+00 : f32
  cf.br ^bb1
^bb1:  // pred: ^bb0
  affine.for %arg2 = 0 to 16 {
    affine.for %arg3 = 0 to 112 {
      %0 = affine.load %arg0[0, 0, %arg2, %arg3] : memref<1x64x112x112xf32>
      %1 = arith.cmpf ugt, %0, %cst : f32
      %2 = arith.select %1, %0, %cst : f32
      affine.store %2, %arg1[0, 0, %arg2, %arg3] : memref<1x64x112x112xf32>
    }
  }
  return
}

// -----// IR Dump After SimplifyAffineStructures (affine-simplify-structures) //----- //
func.func @forward_kernel_5(%arg0: memref<1x64x114x114xf32>) attributes {Kernel, forward_kernel_5} {
  %cst = arith.constant 0xFF800000 : f32
  cf.br ^bb1
^bb1:  // pred: ^bb0
  affine.for %arg1 = 0 to 6 {
    affine.for %arg2 = 0 to 114 {
      affine.store %cst, %arg0[0, 0, %arg1, %arg2] : memref<1x64x114x114xf32>
    }
  }
  return
}

// -----// IR Dump After SimplifyAffineStructures (affine-simplify-structures) //----- //
func.func @forward_kernel_7(%arg0: memref<1x64x114x114xf32>, %arg1: memref<1x64x56x56xf32>, %arg2: memref<1x64x56x56xf32>) attributes {Kernel, forward_kernel_7} {
  cf.br ^bb1
^bb1:  // pred: ^bb0
  affine.for %arg3 = 0 to 4 {
    affine.for %arg4 = 0 to 56 {
      affine.for %arg5 = 0 to 3 {
        affine.for %arg6 = 0 to 3 {
          %0 = affine.load %arg0[0, 0, %arg3 * 2 + %arg5, %arg4 * 2 + %arg6] : memref<1x64x114x114xf32>
          %1 = affine.load %arg1[0, 0, %arg3, %arg4] : memref<1x64x56x56xf32>
          %2 = arith.cmpf ugt, %1, %0 : f32
          %3 = arith.select %2, %1, %0 : f32
          %4 = arith.cmpf uno, %0, %0 : f32
          %5 = arith.select %4, %0, %3 : f32
          affine.store %5, %arg2[0, 0, %arg3, %arg4] : memref<1x64x56x56xf32>
        }
      }
    }
  }
  return
}

// -----// IR Dump After SimplifyAffineStructures (affine-simplify-structures) //----- //
func.func @forward_kernel_6(%arg0: memref<1x64x56x56xf32>) attributes {Kernel, forward_kernel_6} {
  %cst = arith.constant 0xFF800000 : f32
  cf.br ^bb1
^bb1:  // pred: ^bb0
  affine.for %arg1 = 0 to 28 {
    affine.for %arg2 = 0 to 56 {
      affine.store %cst, %arg0[0, 0, %arg1, %arg2] : memref<1x64x56x56xf32>
    }
  }
  return
}

// -----// IR Dump After ConvertAffineToStandard (lower-affine) //----- //
module attributes {torch.debug_module_name = "ResNet"} {
  memref.global "private" constant @__constant_64xf32_2 : memref<64xf32> = dense<[… >
  memref.global "private" constant @__constant_64xf32_1 : memref<64xf32> = dense<[… >
  memref.global "private" constant @__constant_64xf32_0 : memref<64xf32> = dense<[… >
  memref.global "private" constant @__constant_64xf32 : memref<64xf32> = dense<[… >
  memref.global "private" constant @__constant_64x3x7x7xf32 : memref<64x3x7x7xf32> = dense<"…">
  ml_program.global private mutable @global_seed(dense<0> : tensor<i64>) : tensor<i64>
  func.func @forward(%arg0: memref<1x3x224x224xf32>) -> memref<1x64x56x56xf32> {
    %0 = memref.get_global @__constant_64x3x7x7xf32 : memref<64x3x7x7xf32>
    %1 = memref.get_global @__constant_64xf32 : memref<64xf32>
    %2 = memref.get_global @__constant_64xf32_0 : memref<64xf32>
    %3 = memref.get_global @__constant_64xf32_1 : memref<64xf32>
    %4 = memref.get_global @__constant_64xf32_2 : memref<64xf32>
    %alloc = memref.alloc() {alignment = 64 : i64} : memref<1x3x230x230xf32>
    %c0 = arith.constant 0 : index
    %c1 = arith.constant 1 : index
    %c1_0 = arith.constant 1 : index
    scf.for %arg1 = %c0 to %c1 step %c1_0 {
      %c0_32 = arith.constant 0 : index
      %c3 = arith.constant 3 : index
      %c1_33 = arith.constant 1 : index
      scf.for %arg2 = %c0_32 to %c3 step %c1_33 {
        %c0_34 = arith.constant 0 : index
        %c230 = arith.constant 230 : index
        %c5 = arith.constant 5 : index
        scf.for %arg3 = %c0_34 to %c230 step %c5 {
          %5 = FDRA.BlockLoad %alloc [0, %arg2, %arg3, 0] : memref<1x3x230x230xf32> -> memref<1x3x230x230xf32> {"forward_kernel_0"}
          FDRA.KernelCall @forward_kernel_0(%5) : (memref<1x3x230x230xf32>) -> ()
          FDRA.BlockStore %5,  %alloc [0, %arg2, %arg3, 0] : memref<1x3x230x230xf32> -> memref<1x3x230x230xf32> {"forward_kernel_0"}
        }
      }
    }
    %alloc_1 = memref.alloc() {alignment = 64 : i64} : memref<1x3x230x230xf32>
    memref.copy %alloc, %alloc_1 : memref<1x3x230x230xf32> to memref<1x3x230x230xf32>
    %reinterpret_cast = memref.reinterpret_cast %alloc_1 to offset: [693], sizes: [1, 3, 224, 224], strides: [158700, 52900, 230, 1] : memref<1x3x230x230xf32> to memref<1x3x224x224xf32, strided<[158700, 52900, 230, 1], offset: 693>>
    memref.copy %arg0, %reinterpret_cast : memref<1x3x224x224xf32> to memref<1x3x224x224xf32, strided<[158700, 52900, 230, 1], offset: 693>>
    %alloc_2 = memref.alloc() {alignment = 64 : i64} : memref<1x64x112x112xf32>
    %c0_3 = arith.constant 0 : index
    %c1_4 = arith.constant 1 : index
    %c1_5 = arith.constant 1 : index
    scf.for %arg1 = %c0_3 to %c1_4 step %c1_5 {
      %c0_32 = arith.constant 0 : index
      %c64 = arith.constant 64 : index
      %c1_33 = arith.constant 1 : index
      scf.for %arg2 = %c0_32 to %c64 step %c1_33 {
        %c0_34 = arith.constant 0 : index
        %c112 = arith.constant 112 : index
        %c16 = arith.constant 16 : index
        scf.for %arg3 = %c0_34 to %c112 step %c16 {
          %5 = FDRA.BlockLoad %alloc_2 [0, %arg2, %arg3, 0] : memref<1x64x112x112xf32> -> memref<1x64x112x112xf32> {"forward_kernel_1"}
          FDRA.KernelCall @forward_kernel_1(%5) : (memref<1x64x112x112xf32>) -> ()
          FDRA.BlockStore %5,  %alloc_2 [0, %arg2, %arg3, 0] : memref<1x64x112x112xf32> -> memref<1x64x112x112xf32> {"forward_kernel_1"}
        }
      }
    }
    %alloc_6 = memref.alloc() {alignment = 64 : i64} : memref<1x64x112x112xf32>
    memref.copy %alloc_2, %alloc_6 : memref<1x64x112x112xf32> to memref<1x64x112x112xf32>
    %c0_7 = arith.constant 0 : index
    %c1_8 = arith.constant 1 : index
    %c1_9 = arith.constant 1 : index
    scf.for %arg1 = %c0_7 to %c1_8 step %c1_9 {
      %c0_32 = arith.constant 0 : index
      %c64 = arith.constant 64 : index
      %c1_33 = arith.constant 1 : index
      scf.for %arg2 = %c0_32 to %c64 step %c1_33 {
        %c0_34 = arith.constant 0 : index
        %c112 = arith.constant 112 : index
        %c1_35 = arith.constant 1 : index
        scf.for %arg3 = %c0_34 to %c112 step %c1_35 {
          %c0_36 = arith.constant 0 : index
          %c112_37 = arith.constant 112 : index
          %c8 = arith.constant 8 : index
          scf.for %arg4 = %c0_36 to %c112_37 step %c8 {
            %5 = FDRA.BlockLoad %alloc_1 [0, 0, %arg3 * 2, %arg4 * 2] : memref<1x3x230x230xf32> -> memref<1x3x230x230xf32> {"forward_kernel_2"}
            %6 = FDRA.BlockLoad %0 [%arg2, 0, 0, 0] : memref<64x3x7x7xf32> -> memref<64x3x7x7xf32> {"forward_kernel_2"}
            %7 = FDRA.BlockLoad %alloc_6 [0, %arg2, %arg3, %arg4] : memref<1x64x112x112xf32> -> memref<1x64x112x112xf32> {"forward_kernel_2"}
            %8 = FDRA.BlockLoad %alloc_6 [0, %arg2, %arg3, %arg4] : memref<1x64x112x112xf32> -> memref<1x64x112x112xf32> {"forward_kernel_2"}
            FDRA.KernelCall @forward_kernel_2(%5, %6, %7, %8) : (memref<1x3x230x230xf32>, memref<64x3x7x7xf32>, memref<1x64x112x112xf32>, memref<1x64x112x112xf32>) -> ()
            FDRA.BlockStore %8,  %alloc_6 [0, %arg2, %arg3, %arg4] : memref<1x64x112x112xf32> -> memref<1x64x112x112xf32> {"forward_kernel_2"}
          }
        }
      }
    }
    %alloc_10 = memref.alloc() {alignment = 64 : i64} : memref<1x64x112x112xf32>
    %c0_11 = arith.constant 0 : index
    %c1_12 = arith.constant 1 : index
    %c1_13 = arith.constant 1 : index
    scf.for %arg1 = %c0_11 to %c1_12 step %c1_13 {
      %c0_32 = arith.constant 0 : index
      %c64 = arith.constant 64 : index
      %c1_33 = arith.constant 1 : index
      scf.for %arg2 = %c0_32 to %c64 step %c1_33 {
        %c0_34 = arith.constant 0 : index
        %c112 = arith.constant 112 : index
        %c16 = arith.constant 16 : index
        scf.for %arg3 = %c0_34 to %c112 step %c16 {
          %5 = FDRA.BlockLoad %alloc_6 [0, %arg2, %arg3, 0] : memref<1x64x112x112xf32> -> memref<1x64x112x112xf32> {"forward_kernel_3"}
          %6 = FDRA.BlockLoad %3 [%arg2] : memref<64xf32> -> memref<64xf32> {"forward_kernel_3"}
          %7 = FDRA.BlockLoad %4 [%arg2] : memref<64xf32> -> memref<64xf32> {"forward_kernel_3"}
          %8 = FDRA.BlockLoad %1 [%arg2] : memref<64xf32> -> memref<64xf32> {"forward_kernel_3"}
          %9 = FDRA.BlockLoad %2 [%arg2] : memref<64xf32> -> memref<64xf32> {"forward_kernel_3"}
          %10 = FDRA.BlockLoad %alloc_10 [0, %arg2, %arg3, 0] : memref<1x64x112x112xf32> -> memref<1x64x112x112xf32> {"forward_kernel_3"}
          FDRA.KernelCall @forward_kernel_3(%5, %6, %7, %8, %9, %10) : (memref<1x64x112x112xf32>, memref<64xf32>, memref<64xf32>, memref<64xf32>, memref<64xf32>, memref<1x64x112x112xf32>) -> ()
          FDRA.BlockStore %10,  %alloc_10 [0, %arg2, %arg3, 0] : memref<1x64x112x112xf32> -> memref<1x64x112x112xf32> {"forward_kernel_3"}
        }
      }
    }
    %alloc_14 = memref.alloc() {alignment = 64 : i64} : memref<1x64x112x112xf32>
    %c0_15 = arith.constant 0 : index
    %c1_16 = arith.constant 1 : index
    %c1_17 = arith.constant 1 : index
    scf.for %arg1 = %c0_15 to %c1_16 step %c1_17 {
      %c0_32 = arith.constant 0 : index
      %c64 = arith.constant 64 : index
      %c1_33 = arith.constant 1 : index
      scf.for %arg2 = %c0_32 to %c64 step %c1_33 {
        %c0_34 = arith.constant 0 : index
        %c112 = arith.constant 112 : index
        %c16 = arith.constant 16 : index
        scf.for %arg3 = %c0_34 to %c112 step %c16 {
          %5 = FDRA.BlockLoad %alloc_10 [0, %arg2, %arg3, 0] : memref<1x64x112x112xf32> -> memref<1x64x112x112xf32> {"forward_kernel_4"}
          %6 = FDRA.BlockLoad %alloc_14 [0, %arg2, %arg3, 0] : memref<1x64x112x112xf32> -> memref<1x64x112x112xf32> {"forward_kernel_4"}
          FDRA.KernelCall @forward_kernel_4(%5, %6) : (memref<1x64x112x112xf32>, memref<1x64x112x112xf32>) -> ()
          FDRA.BlockStore %6,  %alloc_14 [0, %arg2, %arg3, 0] : memref<1x64x112x112xf32> -> memref<1x64x112x112xf32> {"forward_kernel_4"}
        }
      }
    }
    %alloc_18 = memref.alloc() {alignment = 64 : i64} : memref<1x64x114x114xf32>
    %c0_19 = arith.constant 0 : index
    %c1_20 = arith.constant 1 : index
    %c1_21 = arith.constant 1 : index
    scf.for %arg1 = %c0_19 to %c1_20 step %c1_21 {
      %c0_32 = arith.constant 0 : index
      %c64 = arith.constant 64 : index
      %c1_33 = arith.constant 1 : index
      scf.for %arg2 = %c0_32 to %c64 step %c1_33 {
        %c0_34 = arith.constant 0 : index
        %c114 = arith.constant 114 : index
        %c6 = arith.constant 6 : index
        scf.for %arg3 = %c0_34 to %c114 step %c6 {
          %5 = FDRA.BlockLoad %alloc_18 [0, %arg2, %arg3, 0] : memref<1x64x114x114xf32> -> memref<1x64x114x114xf32> {"forward_kernel_5"}
          FDRA.KernelCall @forward_kernel_5(%5) : (memref<1x64x114x114xf32>) -> ()
          FDRA.BlockStore %5,  %alloc_18 [0, %arg2, %arg3, 0] : memref<1x64x114x114xf32> -> memref<1x64x114x114xf32> {"forward_kernel_5"}
        }
      }
    }
    %alloc_22 = memref.alloc() {alignment = 64 : i64} : memref<1x64x114x114xf32>
    memref.copy %alloc_18, %alloc_22 : memref<1x64x114x114xf32> to memref<1x64x114x114xf32>
    %reinterpret_cast_23 = memref.reinterpret_cast %alloc_22 to offset: [115], sizes: [1, 64, 112, 112], strides: [831744, 12996, 114, 1] : memref<1x64x114x114xf32> to memref<1x64x112x112xf32, strided<[831744, 12996, 114, 1], offset: 115>>
    memref.copy %alloc_14, %reinterpret_cast_23 : memref<1x64x112x112xf32> to memref<1x64x112x112xf32, strided<[831744, 12996, 114, 1], offset: 115>>
    %alloc_24 = memref.alloc() {alignment = 64 : i64} : memref<1x64x56x56xf32>
    %c0_25 = arith.constant 0 : index
    %c1_26 = arith.constant 1 : index
    %c1_27 = arith.constant 1 : index
    scf.for %arg1 = %c0_25 to %c1_26 step %c1_27 {
      %c0_32 = arith.constant 0 : index
      %c64 = arith.constant 64 : index
      %c1_33 = arith.constant 1 : index
      scf.for %arg2 = %c0_32 to %c64 step %c1_33 {
        %c0_34 = arith.constant 0 : index
        %c56 = arith.constant 56 : index
        %c28 = arith.constant 28 : index
        scf.for %arg3 = %c0_34 to %c56 step %c28 {
          %5 = FDRA.BlockLoad %alloc_24 [0, %arg2, %arg3, 0] : memref<1x64x56x56xf32> -> memref<1x64x56x56xf32> {"forward_kernel_6"}
          FDRA.KernelCall @forward_kernel_6(%5) : (memref<1x64x56x56xf32>) -> ()
          FDRA.BlockStore %5,  %alloc_24 [0, %arg2, %arg3, 0] : memref<1x64x56x56xf32> -> memref<1x64x56x56xf32> {"forward_kernel_6"}
        }
      }
    }
    %alloc_28 = memref.alloc() {alignment = 64 : i64} : memref<1x64x56x56xf32>
    memref.copy %alloc_24, %alloc_28 : memref<1x64x56x56xf32> to memref<1x64x56x56xf32>
    %c0_29 = arith.constant 0 : index
    %c1_30 = arith.constant 1 : index
    %c1_31 = arith.constant 1 : index
    scf.for %arg1 = %c0_29 to %c1_30 step %c1_31 {
      %c0_32 = arith.constant 0 : index
      %c64 = arith.constant 64 : index
      %c1_33 = arith.constant 1 : index
      scf.for %arg2 = %c0_32 to %c64 step %c1_33 {
        %c0_34 = arith.constant 0 : index
        %c56 = arith.constant 56 : index
        %c4 = arith.constant 4 : index
        scf.for %arg3 = %c0_34 to %c56 step %c4 {
          %5 = FDRA.BlockLoad %alloc_22 [0, %arg2, %arg3 * 2, 0] : memref<1x64x114x114xf32> -> memref<1x64x114x114xf32> {"forward_kernel_7"}
          %6 = FDRA.BlockLoad %alloc_28 [0, %arg2, %arg3, 0] : memref<1x64x56x56xf32> -> memref<1x64x56x56xf32> {"forward_kernel_7"}
          %7 = FDRA.BlockLoad %alloc_28 [0, %arg2, %arg3, 0] : memref<1x64x56x56xf32> -> memref<1x64x56x56xf32> {"forward_kernel_7"}
          FDRA.KernelCall @forward_kernel_7(%5, %6, %7) : (memref<1x64x114x114xf32>, memref<1x64x56x56xf32>, memref<1x64x56x56xf32>) -> ()
          FDRA.BlockStore %7,  %alloc_28 [0, %arg2, %arg3, 0] : memref<1x64x56x56xf32> -> memref<1x64x56x56xf32> {"forward_kernel_7"}
        }
      }
    }
    return %alloc_28 : memref<1x64x56x56xf32>
  }
  func.func @forward_kernel_0(%arg0: memref<1x3x230x230xf32>) attributes {Kernel, forward_kernel_0} {
    %cst = arith.constant 0.000000e+00 : f32
    cf.br ^bb1
  ^bb1:  // pred: ^bb0
    %c0 = arith.constant 0 : index
    %c5 = arith.constant 5 : index
    %c1 = arith.constant 1 : index
    scf.for %arg1 = %c0 to %c5 step %c1 {
      %c0_0 = arith.constant 0 : index
      %c230 = arith.constant 230 : index
      %c1_1 = arith.constant 1 : index
      scf.for %arg2 = %c0_0 to %c230 step %c1_1 {
        %c0_2 = arith.constant 0 : index
        %c0_3 = arith.constant 0 : index
        memref.store %cst, %arg0[%c0_2, %c0_3, %arg1, %arg2] : memref<1x3x230x230xf32>
      }
    }
    return
  }
  func.func @forward_kernel_1(%arg0: memref<1x64x112x112xf32>) attributes {Kernel, forward_kernel_1} {
    %cst = arith.constant 0.000000e+00 : f32
    cf.br ^bb1
  ^bb1:  // pred: ^bb0
    %c0 = arith.constant 0 : index
    %c16 = arith.constant 16 : index
    %c1 = arith.constant 1 : index
    scf.for %arg1 = %c0 to %c16 step %c1 {
      %c0_0 = arith.constant 0 : index
      %c112 = arith.constant 112 : index
      %c1_1 = arith.constant 1 : index
      scf.for %arg2 = %c0_0 to %c112 step %c1_1 {
        %c0_2 = arith.constant 0 : index
        %c0_3 = arith.constant 0 : index
        memref.store %cst, %arg0[%c0_2, %c0_3, %arg1, %arg2] : memref<1x64x112x112xf32>
      }
    }
    return
  }
  func.func @forward_kernel_2(%arg0: memref<1x3x230x230xf32>, %arg1: memref<64x3x7x7xf32>, %arg2: memref<1x64x112x112xf32>, %arg3: memref<1x64x112x112xf32>) attributes {Kernel, forward_kernel_2} {
    cf.br ^bb1
  ^bb1:  // pred: ^bb0
    %c0 = arith.constant 0 : index
    %c8 = arith.constant 8 : index
    %c1 = arith.constant 1 : index
    scf.for %arg4 = %c0 to %c8 step %c1 {
      %c0_0 = arith.constant 0 : index
      %c3 = arith.constant 3 : index
      %c1_1 = arith.constant 1 : index
      scf.for %arg5 = %c0_0 to %c3 step %c1_1 {
        %c0_2 = arith.constant 0 : index
        %c7 = arith.constant 7 : index
        %c1_3 = arith.constant 1 : index
        scf.for %arg6 = %c0_2 to %c7 step %c1_3 {
          %c0_4 = arith.constant 0 : index
          %c7_5 = arith.constant 7 : index
          %c1_6 = arith.constant 1 : index
          scf.for %arg7 = %c0_4 to %c7_5 step %c1_6 {
            %c0_7 = arith.constant 0 : index
            %c2 = arith.constant 2 : index
            %0 = arith.muli %arg4, %c2 : index
            %1 = arith.addi %0, %arg7 : index
            %2 = memref.load %arg0[%c0_7, %arg5, %arg6, %1] : memref<1x3x230x230xf32>
            %c0_8 = arith.constant 0 : index
            %3 = memref.load %arg1[%c0_8, %arg5, %arg6, %arg7] : memref<64x3x7x7xf32>
            %c0_9 = arith.constant 0 : index
            %c0_10 = arith.constant 0 : index
            %c0_11 = arith.constant 0 : index
            %4 = memref.load %arg2[%c0_9, %c0_10, %c0_11, %arg4] : memref<1x64x112x112xf32>
            %5 = arith.mulf %2, %3 : f32
            %6 = arith.addf %4, %5 : f32
            %c0_12 = arith.constant 0 : index
            %c0_13 = arith.constant 0 : index
            %c0_14 = arith.constant 0 : index
            memref.store %6, %arg3[%c0_12, %c0_13, %c0_14, %arg4] : memref<1x64x112x112xf32>
          }
        }
      }
    }
    return
  }
  func.func @forward_kernel_3(%arg0: memref<1x64x112x112xf32>, %arg1: memref<64xf32>, %arg2: memref<64xf32>, %arg3: memref<64xf32>, %arg4: memref<64xf32>, %arg5: memref<1x64x112x112xf32>) attributes {Kernel, forward_kernel_3} {
    %cst = arith.constant 1.500000e+00 : f32
    %c1597463007_i32 = arith.constant 1597463007 : i32
    %c1_i32 = arith.constant 1 : i32
    %cst_0 = arith.constant 5.000000e-01 : f32
    %cst_1 = arith.constant 1.000000e-05 : f64
    cf.br ^bb1
  ^bb1:  // pred: ^bb0
    %c0 = arith.constant 0 : index
    %c16 = arith.constant 16 : index
    %c1 = arith.constant 1 : index
    scf.for %arg6 = %c0 to %c16 step %c1 {
      %c0_2 = arith.constant 0 : index
      %c112 = arith.constant 112 : index
      %c1_3 = arith.constant 1 : index
      scf.for %arg7 = %c0_2 to %c112 step %c1_3 {
        %c0_4 = arith.constant 0 : index
        %c0_5 = arith.constant 0 : index
        %0 = memref.load %arg0[%c0_4, %c0_5, %arg6, %arg7] : memref<1x64x112x112xf32>
        %c0_6 = arith.constant 0 : index
        %1 = memref.load %arg1[%c0_6] : memref<64xf32>
        %c0_7 = arith.constant 0 : index
        %2 = memref.load %arg2[%c0_7] : memref<64xf32>
        %c0_8 = arith.constant 0 : index
        %3 = memref.load %arg3[%c0_8] : memref<64xf32>
        %c0_9 = arith.constant 0 : index
        %4 = memref.load %arg4[%c0_9] : memref<64xf32>
        %5 = arith.truncf %cst_1 : f64 to f32
        %6 = arith.addf %4, %5 : f32
        %7 = arith.mulf %6, %cst_0 : f32
        %8 = arith.bitcast %6 : f32 to i32
        %9 = arith.shrui %8, %c1_i32 : i32
        %10 = arith.subi %c1597463007_i32, %9 : i32
        %11 = arith.bitcast %10 : i32 to f32
        %12 = arith.mulf %11, %11 : f32
        %13 = arith.mulf %12, %7 : f32
        %14 = arith.subf %cst, %13 : f32
        %15 = arith.mulf %14, %12 : f32
        %16 = arith.subf %0, %3 : f32
        %17 = arith.mulf %16, %15 : f32
        %18 = arith.mulf %17, %1 : f32
        %19 = arith.addf %18, %2 : f32
        %c0_10 = arith.constant 0 : index
        %c0_11 = arith.constant 0 : index
        memref.store %19, %arg5[%c0_10, %c0_11, %arg6, %arg7] : memref<1x64x112x112xf32>
      }
    }
    return
  }
  func.func @forward_kernel_4(%arg0: memref<1x64x112x112xf32>, %arg1: memref<1x64x112x112xf32>) attributes {Kernel, forward_kernel_4} {
    %cst = arith.constant 0.000000e+00 : f32
    cf.br ^bb1
  ^bb1:  // pred: ^bb0
    %c0 = arith.constant 0 : index
    %c16 = arith.constant 16 : index
    %c1 = arith.constant 1 : index
    scf.for %arg2 = %c0 to %c16 step %c1 {
      %c0_0 = arith.constant 0 : index
      %c112 = arith.constant 112 : index
      %c1_1 = arith.constant 1 : index
      scf.for %arg3 = %c0_0 to %c112 step %c1_1 {
        %c0_2 = arith.constant 0 : index
        %c0_3 = arith.constant 0 : index
        %0 = memref.load %arg0[%c0_2, %c0_3, %arg2, %arg3] : memref<1x64x112x112xf32>
        %1 = arith.cmpf ugt, %0, %cst : f32
        %2 = arith.select %1, %0, %cst : f32
        %c0_4 = arith.constant 0 : index
        %c0_5 = arith.constant 0 : index
        memref.store %2, %arg1[%c0_4, %c0_5, %arg2, %arg3] : memref<1x64x112x112xf32>
      }
    }
    return
  }
  func.func @forward_kernel_5(%arg0: memref<1x64x114x114xf32>) attributes {Kernel, forward_kernel_5} {
    %cst = arith.constant 0xFF800000 : f32
    cf.br ^bb1
  ^bb1:  // pred: ^bb0
    %c0 = arith.constant 0 : index
    %c6 = arith.constant 6 : index
    %c1 = arith.constant 1 : index
    scf.for %arg1 = %c0 to %c6 step %c1 {
      %c0_0 = arith.constant 0 : index
      %c114 = arith.constant 114 : index
      %c1_1 = arith.constant 1 : index
      scf.for %arg2 = %c0_0 to %c114 step %c1_1 {
        %c0_2 = arith.constant 0 : index
        %c0_3 = arith.constant 0 : index
        memref.store %cst, %arg0[%c0_2, %c0_3, %arg1, %arg2] : memref<1x64x114x114xf32>
      }
    }
    return
  }
  func.func @forward_kernel_6(%arg0: memref<1x64x56x56xf32>) attributes {Kernel, forward_kernel_6} {
    %cst = arith.constant 0xFF800000 : f32
    cf.br ^bb1
  ^bb1:  // pred: ^bb0
    %c0 = arith.constant 0 : index
    %c28 = arith.constant 28 : index
    %c1 = arith.constant 1 : index
    scf.for %arg1 = %c0 to %c28 step %c1 {
      %c0_0 = arith.constant 0 : index
      %c56 = arith.constant 56 : index
      %c1_1 = arith.constant 1 : index
      scf.for %arg2 = %c0_0 to %c56 step %c1_1 {
        %c0_2 = arith.constant 0 : index
        %c0_3 = arith.constant 0 : index
        memref.store %cst, %arg0[%c0_2, %c0_3, %arg1, %arg2] : memref<1x64x56x56xf32>
      }
    }
    return
  }
  func.func @forward_kernel_7(%arg0: memref<1x64x114x114xf32>, %arg1: memref<1x64x56x56xf32>, %arg2: memref<1x64x56x56xf32>) attributes {Kernel, forward_kernel_7} {
    cf.br ^bb1
  ^bb1:  // pred: ^bb0
    %c0 = arith.constant 0 : index
    %c4 = arith.constant 4 : index
    %c1 = arith.constant 1 : index
    scf.for %arg3 = %c0 to %c4 step %c1 {
      %c0_0 = arith.constant 0 : index
      %c56 = arith.constant 56 : index
      %c1_1 = arith.constant 1 : index
      scf.for %arg4 = %c0_0 to %c56 step %c1_1 {
        %c0_2 = arith.constant 0 : index
        %c3 = arith.constant 3 : index
        %c1_3 = arith.constant 1 : index
        scf.for %arg5 = %c0_2 to %c3 step %c1_3 {
          %c0_4 = arith.constant 0 : index
          %c3_5 = arith.constant 3 : index
          %c1_6 = arith.constant 1 : index
          scf.for %arg6 = %c0_4 to %c3_5 step %c1_6 {
            %c0_7 = arith.constant 0 : index
            %c0_8 = arith.constant 0 : index
            %c2 = arith.constant 2 : index
            %0 = arith.muli %arg3, %c2 : index
            %1 = arith.addi %0, %arg5 : index
            %c2_9 = arith.constant 2 : index
            %2 = arith.muli %arg4, %c2_9 : index
            %3 = arith.addi %2, %arg6 : index
            %4 = memref.load %arg0[%c0_7, %c0_8, %1, %3] : memref<1x64x114x114xf32>
            %c0_10 = arith.constant 0 : index
            %c0_11 = arith.constant 0 : index
            %5 = memref.load %arg1[%c0_10, %c0_11, %arg3, %arg4] : memref<1x64x56x56xf32>
            %6 = arith.cmpf ugt, %5, %4 : f32
            %7 = arith.select %6, %5, %4 : f32
            %8 = arith.cmpf uno, %4, %4 : f32
            %9 = arith.select %8, %4, %7 : f32
            %c0_12 = arith.constant 0 : index
            %c0_13 = arith.constant 0 : index
            memref.store %9, %arg2[%c0_12, %c0_13, %arg3, %arg4] : memref<1x64x56x56xf32>
          }
        }
      }
    }
    return
  }
}


// -----// IR Dump After SCFForLoopCanonicalization (scf-for-loop-canonicalization) //----- //
module attributes {torch.debug_module_name = "ResNet"} {
  memref.global "private" constant @__constant_64xf32_2 : memref<64xf32> = dense<[… >
  memref.global "private" constant @__constant_64xf32_1 : memref<64xf32> = dense<[… >
  memref.global "private" constant @__constant_64xf32_0 : memref<64xf32> = dense<[… >
  memref.global "private" constant @__constant_64xf32 : memref<64xf32> = dense<[… >
  memref.global "private" constant @__constant_64x3x7x7xf32 : memref<64x3x7x7xf32> = dense<"…">
  ml_program.global private mutable @global_seed(dense<0> : tensor<i64>) : tensor<i64>
  func.func @forward(%arg0: memref<1x3x224x224xf32>) -> memref<1x64x56x56xf32> {
    %c4 = arith.constant 4 : index
    %c28 = arith.constant 28 : index
    %c56 = arith.constant 56 : index
    %c6 = arith.constant 6 : index
    %c114 = arith.constant 114 : index
    %c8 = arith.constant 8 : index
    %c16 = arith.constant 16 : index
    %c112 = arith.constant 112 : index
    %c64 = arith.constant 64 : index
    %c5 = arith.constant 5 : index
    %c230 = arith.constant 230 : index
    %c3 = arith.constant 3 : index
    %c1 = arith.constant 1 : index
    %c0 = arith.constant 0 : index
    %0 = memref.get_global @__constant_64x3x7x7xf32 : memref<64x3x7x7xf32>
    %1 = memref.get_global @__constant_64xf32 : memref<64xf32>
    %2 = memref.get_global @__constant_64xf32_0 : memref<64xf32>
    %3 = memref.get_global @__constant_64xf32_1 : memref<64xf32>
    %4 = memref.get_global @__constant_64xf32_2 : memref<64xf32>
    %alloc = memref.alloc() {alignment = 64 : i64} : memref<1x3x230x230xf32>
    scf.for %arg1 = %c0 to %c1 step %c1 {
      scf.for %arg2 = %c0 to %c3 step %c1 {
        scf.for %arg3 = %c0 to %c230 step %c5 {
          %5 = FDRA.BlockLoad %alloc [0, %arg2, %arg3, 0] : memref<1x3x230x230xf32> -> memref<1x3x230x230xf32> {"forward_kernel_0"}
          FDRA.KernelCall @forward_kernel_0(%5) : (memref<1x3x230x230xf32>) -> ()
          FDRA.BlockStore %5,  %alloc [0, %arg2, %arg3, 0] : memref<1x3x230x230xf32> -> memref<1x3x230x230xf32> {"forward_kernel_0"}
        }
      }
    }
    %alloc_0 = memref.alloc() {alignment = 64 : i64} : memref<1x3x230x230xf32>
    memref.copy %alloc, %alloc_0 : memref<1x3x230x230xf32> to memref<1x3x230x230xf32>
    %reinterpret_cast = memref.reinterpret_cast %alloc_0 to offset: [693], sizes: [1, 3, 224, 224], strides: [158700, 52900, 230, 1] : memref<1x3x230x230xf32> to memref<1x3x224x224xf32, strided<[158700, 52900, 230, 1], offset: 693>>
    memref.copy %arg0, %reinterpret_cast : memref<1x3x224x224xf32> to memref<1x3x224x224xf32, strided<[158700, 52900, 230, 1], offset: 693>>
    %alloc_1 = memref.alloc() {alignment = 64 : i64} : memref<1x64x112x112xf32>
    scf.for %arg1 = %c0 to %c1 step %c1 {
      scf.for %arg2 = %c0 to %c64 step %c1 {
        scf.for %arg3 = %c0 to %c112 step %c16 {
          %5 = FDRA.BlockLoad %alloc_1 [0, %arg2, %arg3, 0] : memref<1x64x112x112xf32> -> memref<1x64x112x112xf32> {"forward_kernel_1"}
          FDRA.KernelCall @forward_kernel_1(%5) : (memref<1x64x112x112xf32>) -> ()
          FDRA.BlockStore %5,  %alloc_1 [0, %arg2, %arg3, 0] : memref<1x64x112x112xf32> -> memref<1x64x112x112xf32> {"forward_kernel_1"}
        }
      }
    }
    %alloc_2 = memref.alloc() {alignment = 64 : i64} : memref<1x64x112x112xf32>
    memref.copy %alloc_1, %alloc_2 : memref<1x64x112x112xf32> to memref<1x64x112x112xf32>
    scf.for %arg1 = %c0 to %c1 step %c1 {
      scf.for %arg2 = %c0 to %c64 step %c1 {
        scf.for %arg3 = %c0 to %c112 step %c1 {
          scf.for %arg4 = %c0 to %c112 step %c8 {
            %5 = FDRA.BlockLoad %alloc_0 [0, 0, %arg3 * 2, %arg4 * 2] : memref<1x3x230x230xf32> -> memref<1x3x230x230xf32> {"forward_kernel_2"}
            %6 = FDRA.BlockLoad %0 [%arg2, 0, 0, 0] : memref<64x3x7x7xf32> -> memref<64x3x7x7xf32> {"forward_kernel_2"}
            %7 = FDRA.BlockLoad %alloc_2 [0, %arg2, %arg3, %arg4] : memref<1x64x112x112xf32> -> memref<1x64x112x112xf32> {"forward_kernel_2"}
            %8 = FDRA.BlockLoad %alloc_2 [0, %arg2, %arg3, %arg4] : memref<1x64x112x112xf32> -> memref<1x64x112x112xf32> {"forward_kernel_2"}
            FDRA.KernelCall @forward_kernel_2(%5, %6, %7, %8) : (memref<1x3x230x230xf32>, memref<64x3x7x7xf32>, memref<1x64x112x112xf32>, memref<1x64x112x112xf32>) -> ()
            FDRA.BlockStore %8,  %alloc_2 [0, %arg2, %arg3, %arg4] : memref<1x64x112x112xf32> -> memref<1x64x112x112xf32> {"forward_kernel_2"}
          }
        }
      }
    }
    %alloc_3 = memref.alloc() {alignment = 64 : i64} : memref<1x64x112x112xf32>
    scf.for %arg1 = %c0 to %c1 step %c1 {
      scf.for %arg2 = %c0 to %c64 step %c1 {
        scf.for %arg3 = %c0 to %c112 step %c16 {
          %5 = FDRA.BlockLoad %alloc_2 [0, %arg2, %arg3, 0] : memref<1x64x112x112xf32> -> memref<1x64x112x112xf32> {"forward_kernel_3"}
          %6 = FDRA.BlockLoad %3 [%arg2] : memref<64xf32> -> memref<64xf32> {"forward_kernel_3"}
          %7 = FDRA.BlockLoad %4 [%arg2] : memref<64xf32> -> memref<64xf32> {"forward_kernel_3"}
          %8 = FDRA.BlockLoad %1 [%arg2] : memref<64xf32> -> memref<64xf32> {"forward_kernel_3"}
          %9 = FDRA.BlockLoad %2 [%arg2] : memref<64xf32> -> memref<64xf32> {"forward_kernel_3"}
          %10 = FDRA.BlockLoad %alloc_3 [0, %arg2, %arg3, 0] : memref<1x64x112x112xf32> -> memref<1x64x112x112xf32> {"forward_kernel_3"}
          FDRA.KernelCall @forward_kernel_3(%5, %6, %7, %8, %9, %10) : (memref<1x64x112x112xf32>, memref<64xf32>, memref<64xf32>, memref<64xf32>, memref<64xf32>, memref<1x64x112x112xf32>) -> ()
          FDRA.BlockStore %10,  %alloc_3 [0, %arg2, %arg3, 0] : memref<1x64x112x112xf32> -> memref<1x64x112x112xf32> {"forward_kernel_3"}
        }
      }
    }
    %alloc_4 = memref.alloc() {alignment = 64 : i64} : memref<1x64x112x112xf32>
    scf.for %arg1 = %c0 to %c1 step %c1 {
      scf.for %arg2 = %c0 to %c64 step %c1 {
        scf.for %arg3 = %c0 to %c112 step %c16 {
          %5 = FDRA.BlockLoad %alloc_3 [0, %arg2, %arg3, 0] : memref<1x64x112x112xf32> -> memref<1x64x112x112xf32> {"forward_kernel_4"}
          %6 = FDRA.BlockLoad %alloc_4 [0, %arg2, %arg3, 0] : memref<1x64x112x112xf32> -> memref<1x64x112x112xf32> {"forward_kernel_4"}
          FDRA.KernelCall @forward_kernel_4(%5, %6) : (memref<1x64x112x112xf32>, memref<1x64x112x112xf32>) -> ()
          FDRA.BlockStore %6,  %alloc_4 [0, %arg2, %arg3, 0] : memref<1x64x112x112xf32> -> memref<1x64x112x112xf32> {"forward_kernel_4"}
        }
      }
    }
    %alloc_5 = memref.alloc() {alignment = 64 : i64} : memref<1x64x114x114xf32>
    scf.for %arg1 = %c0 to %c1 step %c1 {
      scf.for %arg2 = %c0 to %c64 step %c1 {
        scf.for %arg3 = %c0 to %c114 step %c6 {
          %5 = FDRA.BlockLoad %alloc_5 [0, %arg2, %arg3, 0] : memref<1x64x114x114xf32> -> memref<1x64x114x114xf32> {"forward_kernel_5"}
          FDRA.KernelCall @forward_kernel_5(%5) : (memref<1x64x114x114xf32>) -> ()
          FDRA.BlockStore %5,  %alloc_5 [0, %arg2, %arg3, 0] : memref<1x64x114x114xf32> -> memref<1x64x114x114xf32> {"forward_kernel_5"}
        }
      }
    }
    %alloc_6 = memref.alloc() {alignment = 64 : i64} : memref<1x64x114x114xf32>
    memref.copy %alloc_5, %alloc_6 : memref<1x64x114x114xf32> to memref<1x64x114x114xf32>
    %reinterpret_cast_7 = memref.reinterpret_cast %alloc_6 to offset: [115], sizes: [1, 64, 112, 112], strides: [831744, 12996, 114, 1] : memref<1x64x114x114xf32> to memref<1x64x112x112xf32, strided<[831744, 12996, 114, 1], offset: 115>>
    memref.copy %alloc_4, %reinterpret_cast_7 : memref<1x64x112x112xf32> to memref<1x64x112x112xf32, strided<[831744, 12996, 114, 1], offset: 115>>
    %alloc_8 = memref.alloc() {alignment = 64 : i64} : memref<1x64x56x56xf32>
    scf.for %arg1 = %c0 to %c1 step %c1 {
      scf.for %arg2 = %c0 to %c64 step %c1 {
        scf.for %arg3 = %c0 to %c56 step %c28 {
          %5 = FDRA.BlockLoad %alloc_8 [0, %arg2, %arg3, 0] : memref<1x64x56x56xf32> -> memref<1x64x56x56xf32> {"forward_kernel_6"}
          FDRA.KernelCall @forward_kernel_6(%5) : (memref<1x64x56x56xf32>) -> ()
          FDRA.BlockStore %5,  %alloc_8 [0, %arg2, %arg3, 0] : memref<1x64x56x56xf32> -> memref<1x64x56x56xf32> {"forward_kernel_6"}
        }
      }
    }
    %alloc_9 = memref.alloc() {alignment = 64 : i64} : memref<1x64x56x56xf32>
    memref.copy %alloc_8, %alloc_9 : memref<1x64x56x56xf32> to memref<1x64x56x56xf32>
    scf.for %arg1 = %c0 to %c1 step %c1 {
      scf.for %arg2 = %c0 to %c64 step %c1 {
        scf.for %arg3 = %c0 to %c56 step %c4 {
          %5 = FDRA.BlockLoad %alloc_6 [0, %arg2, %arg3 * 2, 0] : memref<1x64x114x114xf32> -> memref<1x64x114x114xf32> {"forward_kernel_7"}
          %6 = FDRA.BlockLoad %alloc_9 [0, %arg2, %arg3, 0] : memref<1x64x56x56xf32> -> memref<1x64x56x56xf32> {"forward_kernel_7"}
          %7 = FDRA.BlockLoad %alloc_9 [0, %arg2, %arg3, 0] : memref<1x64x56x56xf32> -> memref<1x64x56x56xf32> {"forward_kernel_7"}
          FDRA.KernelCall @forward_kernel_7(%5, %6, %7) : (memref<1x64x114x114xf32>, memref<1x64x56x56xf32>, memref<1x64x56x56xf32>) -> ()
          FDRA.BlockStore %7,  %alloc_9 [0, %arg2, %arg3, 0] : memref<1x64x56x56xf32> -> memref<1x64x56x56xf32> {"forward_kernel_7"}
        }
      }
    }
    return %alloc_9 : memref<1x64x56x56xf32>
  }
  func.func @forward_kernel_0(%arg0: memref<1x3x230x230xf32>) attributes {Kernel, forward_kernel_0} {
    %c230 = arith.constant 230 : index
    %c1 = arith.constant 1 : index
    %c5 = arith.constant 5 : index
    %c0 = arith.constant 0 : index
    %cst = arith.constant 0.000000e+00 : f32
    cf.br ^bb1
  ^bb1:  // pred: ^bb0
    scf.for %arg1 = %c0 to %c5 step %c1 {
      scf.for %arg2 = %c0 to %c230 step %c1 {
        memref.store %cst, %arg0[%c0, %c0, %arg1, %arg2] : memref<1x3x230x230xf32>
      }
    }
    return
  }
  func.func @forward_kernel_1(%arg0: memref<1x64x112x112xf32>) attributes {Kernel, forward_kernel_1} {
    %c112 = arith.constant 112 : index
    %c1 = arith.constant 1 : index
    %c16 = arith.constant 16 : index
    %c0 = arith.constant 0 : index
    %cst = arith.constant 0.000000e+00 : f32
    cf.br ^bb1
  ^bb1:  // pred: ^bb0
    scf.for %arg1 = %c0 to %c16 step %c1 {
      scf.for %arg2 = %c0 to %c112 step %c1 {
        memref.store %cst, %arg0[%c0, %c0, %arg1, %arg2] : memref<1x64x112x112xf32>
      }
    }
    return
  }
  func.func @forward_kernel_2(%arg0: memref<1x3x230x230xf32>, %arg1: memref<64x3x7x7xf32>, %arg2: memref<1x64x112x112xf32>, %arg3: memref<1x64x112x112xf32>) attributes {Kernel, forward_kernel_2} {
    %c2 = arith.constant 2 : index
    %c7 = arith.constant 7 : index
    %c3 = arith.constant 3 : index
    %c1 = arith.constant 1 : index
    %c8 = arith.constant 8 : index
    %c0 = arith.constant 0 : index
    cf.br ^bb1
  ^bb1:  // pred: ^bb0
    scf.for %arg4 = %c0 to %c8 step %c1 {
      scf.for %arg5 = %c0 to %c3 step %c1 {
        scf.for %arg6 = %c0 to %c7 step %c1 {
          scf.for %arg7 = %c0 to %c7 step %c1 {
            %0 = arith.muli %arg4, %c2 : index
            %1 = arith.addi %0, %arg7 : index
            %2 = memref.load %arg0[%c0, %arg5, %arg6, %1] : memref<1x3x230x230xf32>
            %3 = memref.load %arg1[%c0, %arg5, %arg6, %arg7] : memref<64x3x7x7xf32>
            %4 = memref.load %arg2[%c0, %c0, %c0, %arg4] : memref<1x64x112x112xf32>
            %5 = arith.mulf %2, %3 : f32
            %6 = arith.addf %4, %5 : f32
            memref.store %6, %arg3[%c0, %c0, %c0, %arg4] : memref<1x64x112x112xf32>
          }
        }
      }
    }
    return
  }
  func.func @forward_kernel_3(%arg0: memref<1x64x112x112xf32>, %arg1: memref<64xf32>, %arg2: memref<64xf32>, %arg3: memref<64xf32>, %arg4: memref<64xf32>, %arg5: memref<1x64x112x112xf32>) attributes {Kernel, forward_kernel_3} {
    %c112 = arith.constant 112 : index
    %c1 = arith.constant 1 : index
    %c16 = arith.constant 16 : index
    %c0 = arith.constant 0 : index
    %cst = arith.constant 1.500000e+00 : f32
    %c1597463007_i32 = arith.constant 1597463007 : i32
    %c1_i32 = arith.constant 1 : i32
    %cst_0 = arith.constant 5.000000e-01 : f32
    %cst_1 = arith.constant 1.000000e-05 : f64
    cf.br ^bb1
  ^bb1:  // pred: ^bb0
    scf.for %arg6 = %c0 to %c16 step %c1 {
      scf.for %arg7 = %c0 to %c112 step %c1 {
        %0 = memref.load %arg0[%c0, %c0, %arg6, %arg7] : memref<1x64x112x112xf32>
        %1 = memref.load %arg1[%c0] : memref<64xf32>
        %2 = memref.load %arg2[%c0] : memref<64xf32>
        %3 = memref.load %arg3[%c0] : memref<64xf32>
        %4 = memref.load %arg4[%c0] : memref<64xf32>
        %5 = arith.truncf %cst_1 : f64 to f32
        %6 = arith.addf %4, %5 : f32
        %7 = arith.mulf %6, %cst_0 : f32
        %8 = arith.bitcast %6 : f32 to i32
        %9 = arith.shrui %8, %c1_i32 : i32
        %10 = arith.subi %c1597463007_i32, %9 : i32
        %11 = arith.bitcast %10 : i32 to f32
        %12 = arith.mulf %11, %11 : f32
        %13 = arith.mulf %12, %7 : f32
        %14 = arith.subf %cst, %13 : f32
        %15 = arith.mulf %14, %12 : f32
        %16 = arith.subf %0, %3 : f32
        %17 = arith.mulf %16, %15 : f32
        %18 = arith.mulf %17, %1 : f32
        %19 = arith.addf %18, %2 : f32
        memref.store %19, %arg5[%c0, %c0, %arg6, %arg7] : memref<1x64x112x112xf32>
      }
    }
    return
  }
  func.func @forward_kernel_4(%arg0: memref<1x64x112x112xf32>, %arg1: memref<1x64x112x112xf32>) attributes {Kernel, forward_kernel_4} {
    %c112 = arith.constant 112 : index
    %c1 = arith.constant 1 : index
    %c16 = arith.constant 16 : index
    %c0 = arith.constant 0 : index
    %cst = arith.constant 0.000000e+00 : f32
    cf.br ^bb1
  ^bb1:  // pred: ^bb0
    scf.for %arg2 = %c0 to %c16 step %c1 {
      scf.for %arg3 = %c0 to %c112 step %c1 {
        %0 = memref.load %arg0[%c0, %c0, %arg2, %arg3] : memref<1x64x112x112xf32>
        %1 = arith.cmpf ugt, %0, %cst : f32
        %2 = arith.select %1, %0, %cst : f32
        memref.store %2, %arg1[%c0, %c0, %arg2, %arg3] : memref<1x64x112x112xf32>
      }
    }
    return
  }
  func.func @forward_kernel_5(%arg0: memref<1x64x114x114xf32>) attributes {Kernel, forward_kernel_5} {
    %c114 = arith.constant 114 : index
    %c1 = arith.constant 1 : index
    %c6 = arith.constant 6 : index
    %c0 = arith.constant 0 : index
    %cst = arith.constant 0xFF800000 : f32
    cf.br ^bb1
  ^bb1:  // pred: ^bb0
    scf.for %arg1 = %c0 to %c6 step %c1 {
      scf.for %arg2 = %c0 to %c114 step %c1 {
        memref.store %cst, %arg0[%c0, %c0, %arg1, %arg2] : memref<1x64x114x114xf32>
      }
    }
    return
  }
  func.func @forward_kernel_6(%arg0: memref<1x64x56x56xf32>) attributes {Kernel, forward_kernel_6} {
    %c56 = arith.constant 56 : index
    %c1 = arith.constant 1 : index
    %c28 = arith.constant 28 : index
    %c0 = arith.constant 0 : index
    %cst = arith.constant 0xFF800000 : f32
    cf.br ^bb1
  ^bb1:  // pred: ^bb0
    scf.for %arg1 = %c0 to %c28 step %c1 {
      scf.for %arg2 = %c0 to %c56 step %c1 {
        memref.store %cst, %arg0[%c0, %c0, %arg1, %arg2] : memref<1x64x56x56xf32>
      }
    }
    return
  }
  func.func @forward_kernel_7(%arg0: memref<1x64x114x114xf32>, %arg1: memref<1x64x56x56xf32>, %arg2: memref<1x64x56x56xf32>) attributes {Kernel, forward_kernel_7} {
    %c2 = arith.constant 2 : index
    %c3 = arith.constant 3 : index
    %c56 = arith.constant 56 : index
    %c1 = arith.constant 1 : index
    %c4 = arith.constant 4 : index
    %c0 = arith.constant 0 : index
    cf.br ^bb1
  ^bb1:  // pred: ^bb0
    scf.for %arg3 = %c0 to %c4 step %c1 {
      scf.for %arg4 = %c0 to %c56 step %c1 {
        scf.for %arg5 = %c0 to %c3 step %c1 {
          scf.for %arg6 = %c0 to %c3 step %c1 {
            %0 = arith.muli %arg3, %c2 : index
            %1 = arith.addi %0, %arg5 : index
            %2 = arith.muli %arg4, %c2 : index
            %3 = arith.addi %2, %arg6 : index
            %4 = memref.load %arg0[%c0, %c0, %1, %3] : memref<1x64x114x114xf32>
            %5 = memref.load %arg1[%c0, %c0, %arg3, %arg4] : memref<1x64x56x56xf32>
            %6 = arith.cmpf ugt, %5, %4 : f32
            %7 = arith.select %6, %5, %4 : f32
            %8 = arith.cmpf uno, %4, %4 : f32
            %9 = arith.select %8, %4, %7 : f32
            memref.store %9, %arg2[%c0, %c0, %arg3, %arg4] : memref<1x64x56x56xf32>
          }
        }
      }
    }
    return
  }
}


// -----// IR Dump After SCFToControlFlow (convert-scf-to-cf) //----- //
module attributes {torch.debug_module_name = "ResNet"} {
  memref.global "private" constant @__constant_64xf32_2 : memref<64xf32> = dense<[… >
  memref.global "private" constant @__constant_64xf32_1 : memref<64xf32> = dense<[… >
  memref.global "private" constant @__constant_64xf32_0 : memref<64xf32> = dense<[… >
  memref.global "private" constant @__constant_64xf32 : memref<64xf32> = dense<[… >
  memref.global "private" constant @__constant_64x3x7x7xf32 : memref<64x3x7x7xf32> = dense<"…">
  ml_program.global private mutable @global_seed(dense<0> : tensor<i64>) : tensor<i64>
  func.func @forward(%arg0: memref<1x3x224x224xf32>) -> memref<1x64x56x56xf32> {
    %c4 = arith.constant 4 : index
    %c28 = arith.constant 28 : index
    %c56 = arith.constant 56 : index
    %c6 = arith.constant 6 : index
    %c114 = arith.constant 114 : index
    %c8 = arith.constant 8 : index
    %c16 = arith.constant 16 : index
    %c112 = arith.constant 112 : index
    %c64 = arith.constant 64 : index
    %c5 = arith.constant 5 : index
    %c230 = arith.constant 230 : index
    %c3 = arith.constant 3 : index
    %c1 = arith.constant 1 : index
    %c0 = arith.constant 0 : index
    %0 = memref.get_global @__constant_64x3x7x7xf32 : memref<64x3x7x7xf32>
    %1 = memref.get_global @__constant_64xf32 : memref<64xf32>
    %2 = memref.get_global @__constant_64xf32_0 : memref<64xf32>
    %3 = memref.get_global @__constant_64xf32_1 : memref<64xf32>
    %4 = memref.get_global @__constant_64xf32_2 : memref<64xf32>
    %alloc = memref.alloc() {alignment = 64 : i64} : memref<1x3x230x230xf32>
    cf.br ^bb1(%c0 : index)
  ^bb1(%5: index):  // 2 preds: ^bb0, ^bb8
    %6 = arith.cmpi slt, %5, %c1 : index
    cf.cond_br %6, ^bb2, ^bb9
  ^bb2:  // pred: ^bb1
    cf.br ^bb3(%c0 : index)
  ^bb3(%7: index):  // 2 preds: ^bb2, ^bb7
    %8 = arith.cmpi slt, %7, %c3 : index
    cf.cond_br %8, ^bb4, ^bb8
  ^bb4:  // pred: ^bb3
    cf.br ^bb5(%c0 : index)
  ^bb5(%9: index):  // 2 preds: ^bb4, ^bb6
    %10 = arith.cmpi slt, %9, %c230 : index
    cf.cond_br %10, ^bb6, ^bb7
  ^bb6:  // pred: ^bb5
    %11 = FDRA.BlockLoad %alloc [0, %7, %9, 0] : memref<1x3x230x230xf32> -> memref<1x3x230x230xf32> {"forward_kernel_0"}
    FDRA.KernelCall @forward_kernel_0(%11) : (memref<1x3x230x230xf32>) -> ()
    FDRA.BlockStore %11,  %alloc [0, %7, %9, 0] : memref<1x3x230x230xf32> -> memref<1x3x230x230xf32> {"forward_kernel_0"}
    %12 = arith.addi %9, %c5 : index
    cf.br ^bb5(%12 : index)
  ^bb7:  // pred: ^bb5
    %13 = arith.addi %7, %c1 : index
    cf.br ^bb3(%13 : index)
  ^bb8:  // pred: ^bb3
    %14 = arith.addi %5, %c1 : index
    cf.br ^bb1(%14 : index)
  ^bb9:  // pred: ^bb1
    %alloc_0 = memref.alloc() {alignment = 64 : i64} : memref<1x3x230x230xf32>
    memref.copy %alloc, %alloc_0 : memref<1x3x230x230xf32> to memref<1x3x230x230xf32>
    %reinterpret_cast = memref.reinterpret_cast %alloc_0 to offset: [693], sizes: [1, 3, 224, 224], strides: [158700, 52900, 230, 1] : memref<1x3x230x230xf32> to memref<1x3x224x224xf32, strided<[158700, 52900, 230, 1], offset: 693>>
    memref.copy %arg0, %reinterpret_cast : memref<1x3x224x224xf32> to memref<1x3x224x224xf32, strided<[158700, 52900, 230, 1], offset: 693>>
    %alloc_1 = memref.alloc() {alignment = 64 : i64} : memref<1x64x112x112xf32>
    cf.br ^bb10(%c0 : index)
  ^bb10(%15: index):  // 2 preds: ^bb9, ^bb17
    %16 = arith.cmpi slt, %15, %c1 : index
    cf.cond_br %16, ^bb11, ^bb18
  ^bb11:  // pred: ^bb10
    cf.br ^bb12(%c0 : index)
  ^bb12(%17: index):  // 2 preds: ^bb11, ^bb16
    %18 = arith.cmpi slt, %17, %c64 : index
    cf.cond_br %18, ^bb13, ^bb17
  ^bb13:  // pred: ^bb12
    cf.br ^bb14(%c0 : index)
  ^bb14(%19: index):  // 2 preds: ^bb13, ^bb15
    %20 = arith.cmpi slt, %19, %c112 : index
    cf.cond_br %20, ^bb15, ^bb16
  ^bb15:  // pred: ^bb14
    %21 = FDRA.BlockLoad %alloc_1 [0, %17, %19, 0] : memref<1x64x112x112xf32> -> memref<1x64x112x112xf32> {"forward_kernel_1"}
    FDRA.KernelCall @forward_kernel_1(%21) : (memref<1x64x112x112xf32>) -> ()
    FDRA.BlockStore %21,  %alloc_1 [0, %17, %19, 0] : memref<1x64x112x112xf32> -> memref<1x64x112x112xf32> {"forward_kernel_1"}
    %22 = arith.addi %19, %c16 : index
    cf.br ^bb14(%22 : index)
  ^bb16:  // pred: ^bb14
    %23 = arith.addi %17, %c1 : index
    cf.br ^bb12(%23 : index)
  ^bb17:  // pred: ^bb12
    %24 = arith.addi %15, %c1 : index
    cf.br ^bb10(%24 : index)
  ^bb18:  // pred: ^bb10
    %alloc_2 = memref.alloc() {alignment = 64 : i64} : memref<1x64x112x112xf32>
    memref.copy %alloc_1, %alloc_2 : memref<1x64x112x112xf32> to memref<1x64x112x112xf32>
    cf.br ^bb19(%c0 : index)
  ^bb19(%25: index):  // 2 preds: ^bb18, ^bb29
    %26 = arith.cmpi slt, %25, %c1 : index
    cf.cond_br %26, ^bb20, ^bb30
  ^bb20:  // pred: ^bb19
    cf.br ^bb21(%c0 : index)
  ^bb21(%27: index):  // 2 preds: ^bb20, ^bb28
    %28 = arith.cmpi slt, %27, %c64 : index
    cf.cond_br %28, ^bb22, ^bb29
  ^bb22:  // pred: ^bb21
    cf.br ^bb23(%c0 : index)
  ^bb23(%29: index):  // 2 preds: ^bb22, ^bb27
    %30 = arith.cmpi slt, %29, %c112 : index
    cf.cond_br %30, ^bb24, ^bb28
  ^bb24:  // pred: ^bb23
    cf.br ^bb25(%c0 : index)
  ^bb25(%31: index):  // 2 preds: ^bb24, ^bb26
    %32 = arith.cmpi slt, %31, %c112 : index
    cf.cond_br %32, ^bb26, ^bb27
  ^bb26:  // pred: ^bb25
    %33 = FDRA.BlockLoad %alloc_0 [0, 0, %29 * 2, %31 * 2] : memref<1x3x230x230xf32> -> memref<1x3x230x230xf32> {"forward_kernel_2"}
    %34 = FDRA.BlockLoad %0 [%27, 0, 0, 0] : memref<64x3x7x7xf32> -> memref<64x3x7x7xf32> {"forward_kernel_2"}
    %35 = FDRA.BlockLoad %alloc_2 [0, %27, %29, %31] : memref<1x64x112x112xf32> -> memref<1x64x112x112xf32> {"forward_kernel_2"}
    %36 = FDRA.BlockLoad %alloc_2 [0, %27, %29, %31] : memref<1x64x112x112xf32> -> memref<1x64x112x112xf32> {"forward_kernel_2"}
    FDRA.KernelCall @forward_kernel_2(%33, %34, %35, %36) : (memref<1x3x230x230xf32>, memref<64x3x7x7xf32>, memref<1x64x112x112xf32>, memref<1x64x112x112xf32>) -> ()
    FDRA.BlockStore %36,  %alloc_2 [0, %27, %29, %31] : memref<1x64x112x112xf32> -> memref<1x64x112x112xf32> {"forward_kernel_2"}
    %37 = arith.addi %31, %c8 : index
    cf.br ^bb25(%37 : index)
  ^bb27:  // pred: ^bb25
    %38 = arith.addi %29, %c1 : index
    cf.br ^bb23(%38 : index)
  ^bb28:  // pred: ^bb23
    %39 = arith.addi %27, %c1 : index
    cf.br ^bb21(%39 : index)
  ^bb29:  // pred: ^bb21
    %40 = arith.addi %25, %c1 : index
    cf.br ^bb19(%40 : index)
  ^bb30:  // pred: ^bb19
    %alloc_3 = memref.alloc() {alignment = 64 : i64} : memref<1x64x112x112xf32>
    cf.br ^bb31(%c0 : index)
  ^bb31(%41: index):  // 2 preds: ^bb30, ^bb38
    %42 = arith.cmpi slt, %41, %c1 : index
    cf.cond_br %42, ^bb32, ^bb39
  ^bb32:  // pred: ^bb31
    cf.br ^bb33(%c0 : index)
  ^bb33(%43: index):  // 2 preds: ^bb32, ^bb37
    %44 = arith.cmpi slt, %43, %c64 : index
    cf.cond_br %44, ^bb34, ^bb38
  ^bb34:  // pred: ^bb33
    cf.br ^bb35(%c0 : index)
  ^bb35(%45: index):  // 2 preds: ^bb34, ^bb36
    %46 = arith.cmpi slt, %45, %c112 : index
    cf.cond_br %46, ^bb36, ^bb37
  ^bb36:  // pred: ^bb35
    %47 = FDRA.BlockLoad %alloc_2 [0, %43, %45, 0] : memref<1x64x112x112xf32> -> memref<1x64x112x112xf32> {"forward_kernel_3"}
    %48 = FDRA.BlockLoad %3 [%43] : memref<64xf32> -> memref<64xf32> {"forward_kernel_3"}
    %49 = FDRA.BlockLoad %4 [%43] : memref<64xf32> -> memref<64xf32> {"forward_kernel_3"}
    %50 = FDRA.BlockLoad %1 [%43] : memref<64xf32> -> memref<64xf32> {"forward_kernel_3"}
    %51 = FDRA.BlockLoad %2 [%43] : memref<64xf32> -> memref<64xf32> {"forward_kernel_3"}
    %52 = FDRA.BlockLoad %alloc_3 [0, %43, %45, 0] : memref<1x64x112x112xf32> -> memref<1x64x112x112xf32> {"forward_kernel_3"}
    FDRA.KernelCall @forward_kernel_3(%47, %48, %49, %50, %51, %52) : (memref<1x64x112x112xf32>, memref<64xf32>, memref<64xf32>, memref<64xf32>, memref<64xf32>, memref<1x64x112x112xf32>) -> ()
    FDRA.BlockStore %52,  %alloc_3 [0, %43, %45, 0] : memref<1x64x112x112xf32> -> memref<1x64x112x112xf32> {"forward_kernel_3"}
    %53 = arith.addi %45, %c16 : index
    cf.br ^bb35(%53 : index)
  ^bb37:  // pred: ^bb35
    %54 = arith.addi %43, %c1 : index
    cf.br ^bb33(%54 : index)
  ^bb38:  // pred: ^bb33
    %55 = arith.addi %41, %c1 : index
    cf.br ^bb31(%55 : index)
  ^bb39:  // pred: ^bb31
    %alloc_4 = memref.alloc() {alignment = 64 : i64} : memref<1x64x112x112xf32>
    cf.br ^bb40(%c0 : index)
  ^bb40(%56: index):  // 2 preds: ^bb39, ^bb47
    %57 = arith.cmpi slt, %56, %c1 : index
    cf.cond_br %57, ^bb41, ^bb48
  ^bb41:  // pred: ^bb40
    cf.br ^bb42(%c0 : index)
  ^bb42(%58: index):  // 2 preds: ^bb41, ^bb46
    %59 = arith.cmpi slt, %58, %c64 : index
    cf.cond_br %59, ^bb43, ^bb47
  ^bb43:  // pred: ^bb42
    cf.br ^bb44(%c0 : index)
  ^bb44(%60: index):  // 2 preds: ^bb43, ^bb45
    %61 = arith.cmpi slt, %60, %c112 : index
    cf.cond_br %61, ^bb45, ^bb46
  ^bb45:  // pred: ^bb44
    %62 = FDRA.BlockLoad %alloc_3 [0, %58, %60, 0] : memref<1x64x112x112xf32> -> memref<1x64x112x112xf32> {"forward_kernel_4"}
    %63 = FDRA.BlockLoad %alloc_4 [0, %58, %60, 0] : memref<1x64x112x112xf32> -> memref<1x64x112x112xf32> {"forward_kernel_4"}
    FDRA.KernelCall @forward_kernel_4(%62, %63) : (memref<1x64x112x112xf32>, memref<1x64x112x112xf32>) -> ()
    FDRA.BlockStore %63,  %alloc_4 [0, %58, %60, 0] : memref<1x64x112x112xf32> -> memref<1x64x112x112xf32> {"forward_kernel_4"}
    %64 = arith.addi %60, %c16 : index
    cf.br ^bb44(%64 : index)
  ^bb46:  // pred: ^bb44
    %65 = arith.addi %58, %c1 : index
    cf.br ^bb42(%65 : index)
  ^bb47:  // pred: ^bb42
    %66 = arith.addi %56, %c1 : index
    cf.br ^bb40(%66 : index)
  ^bb48:  // pred: ^bb40
    %alloc_5 = memref.alloc() {alignment = 64 : i64} : memref<1x64x114x114xf32>
    cf.br ^bb49(%c0 : index)
  ^bb49(%67: index):  // 2 preds: ^bb48, ^bb56
    %68 = arith.cmpi slt, %67, %c1 : index
    cf.cond_br %68, ^bb50, ^bb57
  ^bb50:  // pred: ^bb49
    cf.br ^bb51(%c0 : index)
  ^bb51(%69: index):  // 2 preds: ^bb50, ^bb55
    %70 = arith.cmpi slt, %69, %c64 : index
    cf.cond_br %70, ^bb52, ^bb56
  ^bb52:  // pred: ^bb51
    cf.br ^bb53(%c0 : index)
  ^bb53(%71: index):  // 2 preds: ^bb52, ^bb54
    %72 = arith.cmpi slt, %71, %c114 : index
    cf.cond_br %72, ^bb54, ^bb55
  ^bb54:  // pred: ^bb53
    %73 = FDRA.BlockLoad %alloc_5 [0, %69, %71, 0] : memref<1x64x114x114xf32> -> memref<1x64x114x114xf32> {"forward_kernel_5"}
    FDRA.KernelCall @forward_kernel_5(%73) : (memref<1x64x114x114xf32>) -> ()
    FDRA.BlockStore %73,  %alloc_5 [0, %69, %71, 0] : memref<1x64x114x114xf32> -> memref<1x64x114x114xf32> {"forward_kernel_5"}
    %74 = arith.addi %71, %c6 : index
    cf.br ^bb53(%74 : index)
  ^bb55:  // pred: ^bb53
    %75 = arith.addi %69, %c1 : index
    cf.br ^bb51(%75 : index)
  ^bb56:  // pred: ^bb51
    %76 = arith.addi %67, %c1 : index
    cf.br ^bb49(%76 : index)
  ^bb57:  // pred: ^bb49
    %alloc_6 = memref.alloc() {alignment = 64 : i64} : memref<1x64x114x114xf32>
    memref.copy %alloc_5, %alloc_6 : memref<1x64x114x114xf32> to memref<1x64x114x114xf32>
    %reinterpret_cast_7 = memref.reinterpret_cast %alloc_6 to offset: [115], sizes: [1, 64, 112, 112], strides: [831744, 12996, 114, 1] : memref<1x64x114x114xf32> to memref<1x64x112x112xf32, strided<[831744, 12996, 114, 1], offset: 115>>
    memref.copy %alloc_4, %reinterpret_cast_7 : memref<1x64x112x112xf32> to memref<1x64x112x112xf32, strided<[831744, 12996, 114, 1], offset: 115>>
    %alloc_8 = memref.alloc() {alignment = 64 : i64} : memref<1x64x56x56xf32>
    cf.br ^bb58(%c0 : index)
  ^bb58(%77: index):  // 2 preds: ^bb57, ^bb65
    %78 = arith.cmpi slt, %77, %c1 : index
    cf.cond_br %78, ^bb59, ^bb66
  ^bb59:  // pred: ^bb58
    cf.br ^bb60(%c0 : index)
  ^bb60(%79: index):  // 2 preds: ^bb59, ^bb64
    %80 = arith.cmpi slt, %79, %c64 : index
    cf.cond_br %80, ^bb61, ^bb65
  ^bb61:  // pred: ^bb60
    cf.br ^bb62(%c0 : index)
  ^bb62(%81: index):  // 2 preds: ^bb61, ^bb63
    %82 = arith.cmpi slt, %81, %c56 : index
    cf.cond_br %82, ^bb63, ^bb64
  ^bb63:  // pred: ^bb62
    %83 = FDRA.BlockLoad %alloc_8 [0, %79, %81, 0] : memref<1x64x56x56xf32> -> memref<1x64x56x56xf32> {"forward_kernel_6"}
    FDRA.KernelCall @forward_kernel_6(%83) : (memref<1x64x56x56xf32>) -> ()
    FDRA.BlockStore %83,  %alloc_8 [0, %79, %81, 0] : memref<1x64x56x56xf32> -> memref<1x64x56x56xf32> {"forward_kernel_6"}
    %84 = arith.addi %81, %c28 : index
    cf.br ^bb62(%84 : index)
  ^bb64:  // pred: ^bb62
    %85 = arith.addi %79, %c1 : index
    cf.br ^bb60(%85 : index)
  ^bb65:  // pred: ^bb60
    %86 = arith.addi %77, %c1 : index
    cf.br ^bb58(%86 : index)
  ^bb66:  // pred: ^bb58
    %alloc_9 = memref.alloc() {alignment = 64 : i64} : memref<1x64x56x56xf32>
    memref.copy %alloc_8, %alloc_9 : memref<1x64x56x56xf32> to memref<1x64x56x56xf32>
    cf.br ^bb67(%c0 : index)
  ^bb67(%87: index):  // 2 preds: ^bb66, ^bb74
    %88 = arith.cmpi slt, %87, %c1 : index
    cf.cond_br %88, ^bb68, ^bb75
  ^bb68:  // pred: ^bb67
    cf.br ^bb69(%c0 : index)
  ^bb69(%89: index):  // 2 preds: ^bb68, ^bb73
    %90 = arith.cmpi slt, %89, %c64 : index
    cf.cond_br %90, ^bb70, ^bb74
  ^bb70:  // pred: ^bb69
    cf.br ^bb71(%c0 : index)
  ^bb71(%91: index):  // 2 preds: ^bb70, ^bb72
    %92 = arith.cmpi slt, %91, %c56 : index
    cf.cond_br %92, ^bb72, ^bb73
  ^bb72:  // pred: ^bb71
    %93 = FDRA.BlockLoad %alloc_6 [0, %89, %91 * 2, 0] : memref<1x64x114x114xf32> -> memref<1x64x114x114xf32> {"forward_kernel_7"}
    %94 = FDRA.BlockLoad %alloc_9 [0, %89, %91, 0] : memref<1x64x56x56xf32> -> memref<1x64x56x56xf32> {"forward_kernel_7"}
    %95 = FDRA.BlockLoad %alloc_9 [0, %89, %91, 0] : memref<1x64x56x56xf32> -> memref<1x64x56x56xf32> {"forward_kernel_7"}
    FDRA.KernelCall @forward_kernel_7(%93, %94, %95) : (memref<1x64x114x114xf32>, memref<1x64x56x56xf32>, memref<1x64x56x56xf32>) -> ()
    FDRA.BlockStore %95,  %alloc_9 [0, %89, %91, 0] : memref<1x64x56x56xf32> -> memref<1x64x56x56xf32> {"forward_kernel_7"}
    %96 = arith.addi %91, %c4 : index
    cf.br ^bb71(%96 : index)
  ^bb73:  // pred: ^bb71
    %97 = arith.addi %89, %c1 : index
    cf.br ^bb69(%97 : index)
  ^bb74:  // pred: ^bb69
    %98 = arith.addi %87, %c1 : index
    cf.br ^bb67(%98 : index)
  ^bb75:  // pred: ^bb67
    return %alloc_9 : memref<1x64x56x56xf32>
  }
  func.func @forward_kernel_0(%arg0: memref<1x3x230x230xf32>) attributes {Kernel, forward_kernel_0} {
    %c230 = arith.constant 230 : index
    %c1 = arith.constant 1 : index
    %c5 = arith.constant 5 : index
    %c0 = arith.constant 0 : index
    %cst = arith.constant 0.000000e+00 : f32
    cf.br ^bb1
  ^bb1:  // pred: ^bb0
    cf.br ^bb2(%c0 : index)
  ^bb2(%0: index):  // 2 preds: ^bb1, ^bb6
    %1 = arith.cmpi slt, %0, %c5 : index
    cf.cond_br %1, ^bb3, ^bb7
  ^bb3:  // pred: ^bb2
    cf.br ^bb4(%c0 : index)
  ^bb4(%2: index):  // 2 preds: ^bb3, ^bb5
    %3 = arith.cmpi slt, %2, %c230 : index
    cf.cond_br %3, ^bb5, ^bb6
  ^bb5:  // pred: ^bb4
    memref.store %cst, %arg0[%c0, %c0, %0, %2] : memref<1x3x230x230xf32>
    %4 = arith.addi %2, %c1 : index
    cf.br ^bb4(%4 : index)
  ^bb6:  // pred: ^bb4
    %5 = arith.addi %0, %c1 : index
    cf.br ^bb2(%5 : index)
  ^bb7:  // pred: ^bb2
    return
  }
  func.func @forward_kernel_1(%arg0: memref<1x64x112x112xf32>) attributes {Kernel, forward_kernel_1} {
    %c112 = arith.constant 112 : index
    %c1 = arith.constant 1 : index
    %c16 = arith.constant 16 : index
    %c0 = arith.constant 0 : index
    %cst = arith.constant 0.000000e+00 : f32
    cf.br ^bb1
  ^bb1:  // pred: ^bb0
    cf.br ^bb2(%c0 : index)
  ^bb2(%0: index):  // 2 preds: ^bb1, ^bb6
    %1 = arith.cmpi slt, %0, %c16 : index
    cf.cond_br %1, ^bb3, ^bb7
  ^bb3:  // pred: ^bb2
    cf.br ^bb4(%c0 : index)
  ^bb4(%2: index):  // 2 preds: ^bb3, ^bb5
    %3 = arith.cmpi slt, %2, %c112 : index
    cf.cond_br %3, ^bb5, ^bb6
  ^bb5:  // pred: ^bb4
    memref.store %cst, %arg0[%c0, %c0, %0, %2] : memref<1x64x112x112xf32>
    %4 = arith.addi %2, %c1 : index
    cf.br ^bb4(%4 : index)
  ^bb6:  // pred: ^bb4
    %5 = arith.addi %0, %c1 : index
    cf.br ^bb2(%5 : index)
  ^bb7:  // pred: ^bb2
    return
  }
  func.func @forward_kernel_2(%arg0: memref<1x3x230x230xf32>, %arg1: memref<64x3x7x7xf32>, %arg2: memref<1x64x112x112xf32>, %arg3: memref<1x64x112x112xf32>) attributes {Kernel, forward_kernel_2} {
    %c2 = arith.constant 2 : index
    %c7 = arith.constant 7 : index
    %c3 = arith.constant 3 : index
    %c1 = arith.constant 1 : index
    %c8 = arith.constant 8 : index
    %c0 = arith.constant 0 : index
    cf.br ^bb1
  ^bb1:  // pred: ^bb0
    cf.br ^bb2(%c0 : index)
  ^bb2(%0: index):  // 2 preds: ^bb1, ^bb12
    %1 = arith.cmpi slt, %0, %c8 : index
    cf.cond_br %1, ^bb3, ^bb13
  ^bb3:  // pred: ^bb2
    cf.br ^bb4(%c0 : index)
  ^bb4(%2: index):  // 2 preds: ^bb3, ^bb11
    %3 = arith.cmpi slt, %2, %c3 : index
    cf.cond_br %3, ^bb5, ^bb12
  ^bb5:  // pred: ^bb4
    cf.br ^bb6(%c0 : index)
  ^bb6(%4: index):  // 2 preds: ^bb5, ^bb10
    %5 = arith.cmpi slt, %4, %c7 : index
    cf.cond_br %5, ^bb7, ^bb11
  ^bb7:  // pred: ^bb6
    cf.br ^bb8(%c0 : index)
  ^bb8(%6: index):  // 2 preds: ^bb7, ^bb9
    %7 = arith.cmpi slt, %6, %c7 : index
    cf.cond_br %7, ^bb9, ^bb10
  ^bb9:  // pred: ^bb8
    %8 = arith.muli %0, %c2 : index
    %9 = arith.addi %8, %6 : index
    %10 = memref.load %arg0[%c0, %2, %4, %9] : memref<1x3x230x230xf32>
    %11 = memref.load %arg1[%c0, %2, %4, %6] : memref<64x3x7x7xf32>
    %12 = memref.load %arg2[%c0, %c0, %c0, %0] : memref<1x64x112x112xf32>
    %13 = arith.mulf %10, %11 : f32
    %14 = arith.addf %12, %13 : f32
    memref.store %14, %arg3[%c0, %c0, %c0, %0] : memref<1x64x112x112xf32>
    %15 = arith.addi %6, %c1 : index
    cf.br ^bb8(%15 : index)
  ^bb10:  // pred: ^bb8
    %16 = arith.addi %4, %c1 : index
    cf.br ^bb6(%16 : index)
  ^bb11:  // pred: ^bb6
    %17 = arith.addi %2, %c1 : index
    cf.br ^bb4(%17 : index)
  ^bb12:  // pred: ^bb4
    %18 = arith.addi %0, %c1 : index
    cf.br ^bb2(%18 : index)
  ^bb13:  // pred: ^bb2
    return
  }
  func.func @forward_kernel_3(%arg0: memref<1x64x112x112xf32>, %arg1: memref<64xf32>, %arg2: memref<64xf32>, %arg3: memref<64xf32>, %arg4: memref<64xf32>, %arg5: memref<1x64x112x112xf32>) attributes {Kernel, forward_kernel_3} {
    %c112 = arith.constant 112 : index
    %c1 = arith.constant 1 : index
    %c16 = arith.constant 16 : index
    %c0 = arith.constant 0 : index
    %cst = arith.constant 1.500000e+00 : f32
    %c1597463007_i32 = arith.constant 1597463007 : i32
    %c1_i32 = arith.constant 1 : i32
    %cst_0 = arith.constant 5.000000e-01 : f32
    %cst_1 = arith.constant 1.000000e-05 : f64
    cf.br ^bb1
  ^bb1:  // pred: ^bb0
    cf.br ^bb2(%c0 : index)
  ^bb2(%0: index):  // 2 preds: ^bb1, ^bb6
    %1 = arith.cmpi slt, %0, %c16 : index
    cf.cond_br %1, ^bb3, ^bb7
  ^bb3:  // pred: ^bb2
    cf.br ^bb4(%c0 : index)
  ^bb4(%2: index):  // 2 preds: ^bb3, ^bb5
    %3 = arith.cmpi slt, %2, %c112 : index
    cf.cond_br %3, ^bb5, ^bb6
  ^bb5:  // pred: ^bb4
    %4 = memref.load %arg0[%c0, %c0, %0, %2] : memref<1x64x112x112xf32>
    %5 = memref.load %arg1[%c0] : memref<64xf32>
    %6 = memref.load %arg2[%c0] : memref<64xf32>
    %7 = memref.load %arg3[%c0] : memref<64xf32>
    %8 = memref.load %arg4[%c0] : memref<64xf32>
    %9 = arith.truncf %cst_1 : f64 to f32
    %10 = arith.addf %8, %9 : f32
    %11 = arith.mulf %10, %cst_0 : f32
    %12 = arith.bitcast %10 : f32 to i32
    %13 = arith.shrui %12, %c1_i32 : i32
    %14 = arith.subi %c1597463007_i32, %13 : i32
    %15 = arith.bitcast %14 : i32 to f32
    %16 = arith.mulf %15, %15 : f32
    %17 = arith.mulf %16, %11 : f32
    %18 = arith.subf %cst, %17 : f32
    %19 = arith.mulf %18, %16 : f32
    %20 = arith.subf %4, %7 : f32
    %21 = arith.mulf %20, %19 : f32
    %22 = arith.mulf %21, %5 : f32
    %23 = arith.addf %22, %6 : f32
    memref.store %23, %arg5[%c0, %c0, %0, %2] : memref<1x64x112x112xf32>
    %24 = arith.addi %2, %c1 : index
    cf.br ^bb4(%24 : index)
  ^bb6:  // pred: ^bb4
    %25 = arith.addi %0, %c1 : index
    cf.br ^bb2(%25 : index)
  ^bb7:  // pred: ^bb2
    return
  }
  func.func @forward_kernel_4(%arg0: memref<1x64x112x112xf32>, %arg1: memref<1x64x112x112xf32>) attributes {Kernel, forward_kernel_4} {
    %c112 = arith.constant 112 : index
    %c1 = arith.constant 1 : index
    %c16 = arith.constant 16 : index
    %c0 = arith.constant 0 : index
    %cst = arith.constant 0.000000e+00 : f32
    cf.br ^bb1
  ^bb1:  // pred: ^bb0
    cf.br ^bb2(%c0 : index)
  ^bb2(%0: index):  // 2 preds: ^bb1, ^bb6
    %1 = arith.cmpi slt, %0, %c16 : index
    cf.cond_br %1, ^bb3, ^bb7
  ^bb3:  // pred: ^bb2
    cf.br ^bb4(%c0 : index)
  ^bb4(%2: index):  // 2 preds: ^bb3, ^bb5
    %3 = arith.cmpi slt, %2, %c112 : index
    cf.cond_br %3, ^bb5, ^bb6
  ^bb5:  // pred: ^bb4
    %4 = memref.load %arg0[%c0, %c0, %0, %2] : memref<1x64x112x112xf32>
    %5 = arith.cmpf ugt, %4, %cst : f32
    %6 = arith.select %5, %4, %cst : f32
    memref.store %6, %arg1[%c0, %c0, %0, %2] : memref<1x64x112x112xf32>
    %7 = arith.addi %2, %c1 : index
    cf.br ^bb4(%7 : index)
  ^bb6:  // pred: ^bb4
    %8 = arith.addi %0, %c1 : index
    cf.br ^bb2(%8 : index)
  ^bb7:  // pred: ^bb2
    return
  }
  func.func @forward_kernel_5(%arg0: memref<1x64x114x114xf32>) attributes {Kernel, forward_kernel_5} {
    %c114 = arith.constant 114 : index
    %c1 = arith.constant 1 : index
    %c6 = arith.constant 6 : index
    %c0 = arith.constant 0 : index
    %cst = arith.constant 0xFF800000 : f32
    cf.br ^bb1
  ^bb1:  // pred: ^bb0
    cf.br ^bb2(%c0 : index)
  ^bb2(%0: index):  // 2 preds: ^bb1, ^bb6
    %1 = arith.cmpi slt, %0, %c6 : index
    cf.cond_br %1, ^bb3, ^bb7
  ^bb3:  // pred: ^bb2
    cf.br ^bb4(%c0 : index)
  ^bb4(%2: index):  // 2 preds: ^bb3, ^bb5
    %3 = arith.cmpi slt, %2, %c114 : index
    cf.cond_br %3, ^bb5, ^bb6
  ^bb5:  // pred: ^bb4
    memref.store %cst, %arg0[%c0, %c0, %0, %2] : memref<1x64x114x114xf32>
    %4 = arith.addi %2, %c1 : index
    cf.br ^bb4(%4 : index)
  ^bb6:  // pred: ^bb4
    %5 = arith.addi %0, %c1 : index
    cf.br ^bb2(%5 : index)
  ^bb7:  // pred: ^bb2
    return
  }
  func.func @forward_kernel_6(%arg0: memref<1x64x56x56xf32>) attributes {Kernel, forward_kernel_6} {
    %c56 = arith.constant 56 : index
    %c1 = arith.constant 1 : index
    %c28 = arith.constant 28 : index
    %c0 = arith.constant 0 : index
    %cst = arith.constant 0xFF800000 : f32
    cf.br ^bb1
  ^bb1:  // pred: ^bb0
    cf.br ^bb2(%c0 : index)
  ^bb2(%0: index):  // 2 preds: ^bb1, ^bb6
    %1 = arith.cmpi slt, %0, %c28 : index
    cf.cond_br %1, ^bb3, ^bb7
  ^bb3:  // pred: ^bb2
    cf.br ^bb4(%c0 : index)
  ^bb4(%2: index):  // 2 preds: ^bb3, ^bb5
    %3 = arith.cmpi slt, %2, %c56 : index
    cf.cond_br %3, ^bb5, ^bb6
  ^bb5:  // pred: ^bb4
    memref.store %cst, %arg0[%c0, %c0, %0, %2] : memref<1x64x56x56xf32>
    %4 = arith.addi %2, %c1 : index
    cf.br ^bb4(%4 : index)
  ^bb6:  // pred: ^bb4
    %5 = arith.addi %0, %c1 : index
    cf.br ^bb2(%5 : index)
  ^bb7:  // pred: ^bb2
    return
  }
  func.func @forward_kernel_7(%arg0: memref<1x64x114x114xf32>, %arg1: memref<1x64x56x56xf32>, %arg2: memref<1x64x56x56xf32>) attributes {Kernel, forward_kernel_7} {
    %c2 = arith.constant 2 : index
    %c3 = arith.constant 3 : index
    %c56 = arith.constant 56 : index
    %c1 = arith.constant 1 : index
    %c4 = arith.constant 4 : index
    %c0 = arith.constant 0 : index
    cf.br ^bb1
  ^bb1:  // pred: ^bb0
    cf.br ^bb2(%c0 : index)
  ^bb2(%0: index):  // 2 preds: ^bb1, ^bb12
    %1 = arith.cmpi slt, %0, %c4 : index
    cf.cond_br %1, ^bb3, ^bb13
  ^bb3:  // pred: ^bb2
    cf.br ^bb4(%c0 : index)
  ^bb4(%2: index):  // 2 preds: ^bb3, ^bb11
    %3 = arith.cmpi slt, %2, %c56 : index
    cf.cond_br %3, ^bb5, ^bb12
  ^bb5:  // pred: ^bb4
    cf.br ^bb6(%c0 : index)
  ^bb6(%4: index):  // 2 preds: ^bb5, ^bb10
    %5 = arith.cmpi slt, %4, %c3 : index
    cf.cond_br %5, ^bb7, ^bb11
  ^bb7:  // pred: ^bb6
    cf.br ^bb8(%c0 : index)
  ^bb8(%6: index):  // 2 preds: ^bb7, ^bb9
    %7 = arith.cmpi slt, %6, %c3 : index
    cf.cond_br %7, ^bb9, ^bb10
  ^bb9:  // pred: ^bb8
    %8 = arith.muli %0, %c2 : index
    %9 = arith.addi %8, %4 : index
    %10 = arith.muli %2, %c2 : index
    %11 = arith.addi %10, %6 : index
    %12 = memref.load %arg0[%c0, %c0, %9, %11] : memref<1x64x114x114xf32>
    %13 = memref.load %arg1[%c0, %c0, %0, %2] : memref<1x64x56x56xf32>
    %14 = arith.cmpf ugt, %13, %12 : f32
    %15 = arith.select %14, %13, %12 : f32
    %16 = arith.cmpf uno, %12, %12 : f32
    %17 = arith.select %16, %12, %15 : f32
    memref.store %17, %arg2[%c0, %c0, %0, %2] : memref<1x64x56x56xf32>
    %18 = arith.addi %6, %c1 : index
    cf.br ^bb8(%18 : index)
  ^bb10:  // pred: ^bb8
    %19 = arith.addi %4, %c1 : index
    cf.br ^bb6(%19 : index)
  ^bb11:  // pred: ^bb6
    %20 = arith.addi %2, %c1 : index
    cf.br ^bb4(%20 : index)
  ^bb12:  // pred: ^bb4
    %21 = arith.addi %0, %c1 : index
    cf.br ^bb2(%21 : index)
  ^bb13:  // pred: ^bb2
    return
  }
}


// -----// IR Dump After ConvertMathToLLVMPass (convert-math-to-llvm) //----- //
module attributes {torch.debug_module_name = "ResNet"} {
  memref.global "private" constant @__constant_64xf32_2 : memref<64xf32> = dense<[… >
  memref.global "private" constant @__constant_64xf32_1 : memref<64xf32> = dense<[… >
  memref.global "private" constant @__constant_64xf32_0 : memref<64xf32> = dense<[… >
  memref.global "private" constant @__constant_64xf32 : memref<64xf32> = dense<[… >
  memref.global "private" constant @__constant_64x3x7x7xf32 : memref<64x3x7x7xf32> = dense<"…">
  ml_program.global private mutable @global_seed(dense<0> : tensor<i64>) : tensor<i64>
  func.func @forward(%arg0: memref<1x3x224x224xf32>) -> memref<1x64x56x56xf32> {
    %c4 = arith.constant 4 : index
    %c28 = arith.constant 28 : index
    %c56 = arith.constant 56 : index
    %c6 = arith.constant 6 : index
    %c114 = arith.constant 114 : index
    %c8 = arith.constant 8 : index
    %c16 = arith.constant 16 : index
    %c112 = arith.constant 112 : index
    %c64 = arith.constant 64 : index
    %c5 = arith.constant 5 : index
    %c230 = arith.constant 230 : index
    %c3 = arith.constant 3 : index
    %c1 = arith.constant 1 : index
    %c0 = arith.constant 0 : index
    %0 = memref.get_global @__constant_64x3x7x7xf32 : memref<64x3x7x7xf32>
    %1 = memref.get_global @__constant_64xf32 : memref<64xf32>
    %2 = memref.get_global @__constant_64xf32_0 : memref<64xf32>
    %3 = memref.get_global @__constant_64xf32_1 : memref<64xf32>
    %4 = memref.get_global @__constant_64xf32_2 : memref<64xf32>
    %alloc = memref.alloc() {alignment = 64 : i64} : memref<1x3x230x230xf32>
    cf.br ^bb1(%c0 : index)
  ^bb1(%5: index):  // 2 preds: ^bb0, ^bb8
    %6 = arith.cmpi slt, %5, %c1 : index
    cf.cond_br %6, ^bb2, ^bb9
  ^bb2:  // pred: ^bb1
    cf.br ^bb3(%c0 : index)
  ^bb3(%7: index):  // 2 preds: ^bb2, ^bb7
    %8 = arith.cmpi slt, %7, %c3 : index
    cf.cond_br %8, ^bb4, ^bb8
  ^bb4:  // pred: ^bb3
    cf.br ^bb5(%c0 : index)
  ^bb5(%9: index):  // 2 preds: ^bb4, ^bb6
    %10 = arith.cmpi slt, %9, %c230 : index
    cf.cond_br %10, ^bb6, ^bb7
  ^bb6:  // pred: ^bb5
    %11 = FDRA.BlockLoad %alloc [0, %7, %9, 0] : memref<1x3x230x230xf32> -> memref<1x3x230x230xf32> {"forward_kernel_0"}
    FDRA.KernelCall @forward_kernel_0(%11) : (memref<1x3x230x230xf32>) -> ()
    FDRA.BlockStore %11,  %alloc [0, %7, %9, 0] : memref<1x3x230x230xf32> -> memref<1x3x230x230xf32> {"forward_kernel_0"}
    %12 = arith.addi %9, %c5 : index
    cf.br ^bb5(%12 : index)
  ^bb7:  // pred: ^bb5
    %13 = arith.addi %7, %c1 : index
    cf.br ^bb3(%13 : index)
  ^bb8:  // pred: ^bb3
    %14 = arith.addi %5, %c1 : index
    cf.br ^bb1(%14 : index)
  ^bb9:  // pred: ^bb1
    %alloc_0 = memref.alloc() {alignment = 64 : i64} : memref<1x3x230x230xf32>
    memref.copy %alloc, %alloc_0 : memref<1x3x230x230xf32> to memref<1x3x230x230xf32>
    %reinterpret_cast = memref.reinterpret_cast %alloc_0 to offset: [693], sizes: [1, 3, 224, 224], strides: [158700, 52900, 230, 1] : memref<1x3x230x230xf32> to memref<1x3x224x224xf32, strided<[158700, 52900, 230, 1], offset: 693>>
    memref.copy %arg0, %reinterpret_cast : memref<1x3x224x224xf32> to memref<1x3x224x224xf32, strided<[158700, 52900, 230, 1], offset: 693>>
    %alloc_1 = memref.alloc() {alignment = 64 : i64} : memref<1x64x112x112xf32>
    cf.br ^bb10(%c0 : index)
  ^bb10(%15: index):  // 2 preds: ^bb9, ^bb17
    %16 = arith.cmpi slt, %15, %c1 : index
    cf.cond_br %16, ^bb11, ^bb18
  ^bb11:  // pred: ^bb10
    cf.br ^bb12(%c0 : index)
  ^bb12(%17: index):  // 2 preds: ^bb11, ^bb16
    %18 = arith.cmpi slt, %17, %c64 : index
    cf.cond_br %18, ^bb13, ^bb17
  ^bb13:  // pred: ^bb12
    cf.br ^bb14(%c0 : index)
  ^bb14(%19: index):  // 2 preds: ^bb13, ^bb15
…
    llvm.br ^bb44(%432 : i64)
  ^bb46:  // pred: ^bb44
    %433 = llvm.add %410, %5  : i64
    llvm.br ^bb42(%433 : i64)
  ^bb47:  // pred: ^bb42
    %434 = llvm.add %406, %5  : i64
    llvm.br ^bb40(%434 : i64)
  ^bb48:  // pred: ^bb40
    %435 = llvm.mlir.constant(12996 : index) : i64
    %436 = llvm.mlir.constant(831744 : index) : i64
    %437 = llvm.getelementptr %35[%436] : (!llvm.ptr, i64) -> !llvm.ptr, f32
    %438 = llvm.ptrtoint %437 : !llvm.ptr to i64
    %439 = llvm.add %438, %28  : i64
    %440 = llvm.call @malloc(%439) : (i64) -> !llvm.ptr
    %441 = llvm.ptrtoint %440 : !llvm.ptr to i64
    %442 = llvm.add %441, %86  : i64
    %443 = llvm.urem %442, %28  : i64
    %444 = llvm.sub %442, %443  : i64
    %445 = llvm.inttoptr %444 : i64 to !llvm.ptr
    %446 = llvm.insertvalue %440, %0[0] : !llvm.struct<(ptr, ptr, i64, array<4 x i64>, array<4 x i64>)> 
    %447 = llvm.insertvalue %445, %446[1] : !llvm.struct<(ptr, ptr, i64, array<4 x i64>, array<4 x i64>)> 
    %448 = llvm.insertvalue %3, %447[2] : !llvm.struct<(ptr, ptr, i64, array<4 x i64>, array<4 x i64>)> 
    %449 = llvm.insertvalue %5, %448[3, 0] : !llvm.struct<(ptr, ptr, i64, array<4 x i64>, array<4 x i64>)> 
    %450 = llvm.insertvalue %28, %449[3, 1] : !llvm.struct<(ptr, ptr, i64, array<4 x i64>, array<4 x i64>)> 
    %451 = llvm.insertvalue %24, %450[3, 2] : !llvm.struct<(ptr, ptr, i64, array<4 x i64>, array<4 x i64>)> 
    %452 = llvm.insertvalue %24, %451[3, 3] : !llvm.struct<(ptr, ptr, i64, array<4 x i64>, array<4 x i64>)> 
    %453 = llvm.insertvalue %436, %452[4, 0] : !llvm.struct<(ptr, ptr, i64, array<4 x i64>, array<4 x i64>)> 
    %454 = llvm.insertvalue %435, %453[4, 1] : !llvm.struct<(ptr, ptr, i64, array<4 x i64>, array<4 x i64>)> 
    %455 = llvm.insertvalue %24, %454[4, 2] : !llvm.struct<(ptr, ptr, i64, array<4 x i64>, array<4 x i64>)> 
    %456 = llvm.insertvalue %5, %455[4, 3] : !llvm.struct<(ptr, ptr, i64, array<4 x i64>, array<4 x i64>)> 
    llvm.br ^bb49(%3 : i64)
  ^bb49(%457: i64):  // 2 preds: ^bb48, ^bb56
    %458 = builtin.unrealized_conversion_cast %457 : i64 to index
    %459 = builtin.unrealized_conversion_cast %458 : index to i64
    %460 = llvm.icmp "slt" %459, %5 : i64
    llvm.cond_br %460, ^bb50, ^bb57
  ^bb50:  // pred: ^bb49
    llvm.br ^bb51(%3 : i64)
  ^bb51(%461: i64):  // 2 preds: ^bb50, ^bb55
    %462 = builtin.unrealized_conversion_cast %461 : i64 to index
    %463 = builtin.unrealized_conversion_cast %462 : index to i64
    %464 = llvm.icmp "slt" %463, %28 : i64
    llvm.cond_br %464, ^bb52, ^bb56
  ^bb52:  // pred: ^bb51
    llvm.br ^bb53(%3 : i64)
  ^bb53(%465: i64):  // 2 preds: ^bb52, ^bb54
    %466 = builtin.unrealized_conversion_cast %465 : i64 to index
    %467 = builtin.unrealized_conversion_cast %466 : index to i64
    %468 = llvm.icmp "slt" %467, %24 : i64
    llvm.cond_br %468, ^bb54, ^bb55
  ^bb54:  // pred: ^bb53
    %469 = builtin.unrealized_conversion_cast %3 : i64 to index
    %470 = llvm.extractvalue %456[1] : !llvm.struct<(ptr, ptr, i64, array<4 x i64>, array<4 x i64>)> 
    %471 = builtin.unrealized_conversion_cast %469 : index to i64
    %472 = llvm.mul %471, %436  : i64
    %473 = llvm.mul %463, %435  : i64
    %474 = llvm.add %472, %473  : i64
    %475 = llvm.mul %467, %24  : i64
    %476 = llvm.add %474, %475  : i64
    %477 = llvm.add %476, %471  : i64
    %478 = llvm.getelementptr %470[%477] : (!llvm.ptr, i64) -> !llvm.ptr, f32
    %479 = builtin.unrealized_conversion_cast %478 : !llvm.ptr to !llvm.struct<(ptr, ptr, i64, array<4 x i64>, array<4 x i64>)>
    %480 = llvm.extractvalue %479[1] : !llvm.struct<(ptr, ptr, i64, array<4 x i64>, array<4 x i64>)> 
    llvm.call @forward_kernel_5(%480) : (!llvm.ptr) -> ()
    %481 = llvm.add %467, %23  : i64
    llvm.br ^bb53(%481 : i64)
  ^bb55:  // pred: ^bb53
    %482 = llvm.add %463, %5  : i64
    llvm.br ^bb51(%482 : i64)
  ^bb56:  // pred: ^bb51
    %483 = llvm.add %459, %5  : i64
    llvm.br ^bb49(%483 : i64)
  ^bb57:  // pred: ^bb49
    %484 = llvm.call @malloc(%439) : (i64) -> !llvm.ptr
    %485 = llvm.ptrtoint %484 : !llvm.ptr to i64
    %486 = llvm.add %485, %86  : i64
    %487 = llvm.urem %486, %28  : i64
    %488 = llvm.sub %486, %487  : i64
    %489 = llvm.inttoptr %488 : i64 to !llvm.ptr
    %490 = llvm.insertvalue %484, %0[0] : !llvm.struct<(ptr, ptr, i64, array<4 x i64>, array<4 x i64>)> 
    %491 = llvm.insertvalue %489, %490[1] : !llvm.struct<(ptr, ptr, i64, array<4 x i64>, array<4 x i64>)> 
    %492 = llvm.insertvalue %3, %491[2] : !llvm.struct<(ptr, ptr, i64, array<4 x i64>, array<4 x i64>)> 
    %493 = llvm.insertvalue %5, %492[3, 0] : !llvm.struct<(ptr, ptr, i64, array<4 x i64>, array<4 x i64>)> 
    %494 = llvm.insertvalue %28, %493[3, 1] : !llvm.struct<(ptr, ptr, i64, array<4 x i64>, array<4 x i64>)> 
    %495 = llvm.insertvalue %24, %494[3, 2] : !llvm.struct<(ptr, ptr, i64, array<4 x i64>, array<4 x i64>)> 
    %496 = llvm.insertvalue %24, %495[3, 3] : !llvm.struct<(ptr, ptr, i64, array<4 x i64>, array<4 x i64>)> 
    %497 = llvm.insertvalue %436, %496[4, 0] : !llvm.struct<(ptr, ptr, i64, array<4 x i64>, array<4 x i64>)> 
    %498 = llvm.insertvalue %435, %497[4, 1] : !llvm.struct<(ptr, ptr, i64, array<4 x i64>, array<4 x i64>)> 
    %499 = llvm.insertvalue %24, %498[4, 2] : !llvm.struct<(ptr, ptr, i64, array<4 x i64>, array<4 x i64>)> 
    %500 = llvm.insertvalue %5, %499[4, 3] : !llvm.struct<(ptr, ptr, i64, array<4 x i64>, array<4 x i64>)> 
    %501 = llvm.extractvalue %456[3, 0] : !llvm.struct<(ptr, ptr, i64, array<4 x i64>, array<4 x i64>)> 
    %502 = llvm.mul %5, %501  : i64
    %503 = llvm.extractvalue %456[3, 1] : !llvm.struct<(ptr, ptr, i64, array<4 x i64>, array<4 x i64>)> 
    %504 = llvm.mul %502, %503  : i64
    %505 = llvm.extractvalue %456[3, 2] : !llvm.struct<(ptr, ptr, i64, array<4 x i64>, array<4 x i64>)> 
    %506 = llvm.mul %504, %505  : i64
    %507 = llvm.extractvalue %456[3, 3] : !llvm.struct<(ptr, ptr, i64, array<4 x i64>, array<4 x i64>)> 
    %508 = llvm.mul %506, %507  : i64
    %509 = llvm.mul %508, %155  : i64
    %510 = llvm.extractvalue %456[1] : !llvm.struct<(ptr, ptr, i64, array<4 x i64>, array<4 x i64>)> 
    %511 = llvm.extractvalue %456[2] : !llvm.struct<(ptr, ptr, i64, array<4 x i64>, array<4 x i64>)> 
    %512 = llvm.getelementptr %510[%511] : (!llvm.ptr, i64) -> !llvm.ptr, f32
    %513 = llvm.extractvalue %500[1] : !llvm.struct<(ptr, ptr, i64, array<4 x i64>, array<4 x i64>)> 
    %514 = llvm.extractvalue %500[2] : !llvm.struct<(ptr, ptr, i64, array<4 x i64>, array<4 x i64>)> 
    %515 = llvm.getelementptr %513[%514] : (!llvm.ptr, i64) -> !llvm.ptr, f32
    "llvm.intr.memcpy"(%515, %512, %509) <{isVolatile = false}> : (!llvm.ptr, !llvm.ptr, i64) -> ()
    %516 = llvm.extractvalue %500[0] : !llvm.struct<(ptr, ptr, i64, array<4 x i64>, array<4 x i64>)> 
    %517 = llvm.insertvalue %516, %0[0] : !llvm.struct<(ptr, ptr, i64, array<4 x i64>, array<4 x i64>)> 
    %518 = llvm.insertvalue %513, %517[1] : !llvm.struct<(ptr, ptr, i64, array<4 x i64>, array<4 x i64>)> 
    %519 = llvm.mlir.constant(115 : index) : i64
    %520 = llvm.insertvalue %519, %518[2] : !llvm.struct<(ptr, ptr, i64, array<4 x i64>, array<4 x i64>)> 
    %521 = llvm.insertvalue %5, %520[3, 0] : !llvm.struct<(ptr, ptr, i64, array<4 x i64>, array<4 x i64>)> 
    %522 = llvm.insertvalue %436, %521[4, 0] : !llvm.struct<(ptr, ptr, i64, array<4 x i64>, array<4 x i64>)> 
    %523 = llvm.insertvalue %28, %522[3, 1] : !llvm.struct<(ptr, ptr, i64, array<4 x i64>, array<4 x i64>)> 
    %524 = llvm.insertvalue %435, %523[4, 1] : !llvm.struct<(ptr, ptr, i64, array<4 x i64>, array<4 x i64>)> 
    %525 = llvm.insertvalue %27, %524[3, 2] : !llvm.struct<(ptr, ptr, i64, array<4 x i64>, array<4 x i64>)> 
    %526 = llvm.insertvalue %24, %525[4, 2] : !llvm.struct<(ptr, ptr, i64, array<4 x i64>, array<4 x i64>)> 
    %527 = llvm.insertvalue %27, %526[3, 3] : !llvm.struct<(ptr, ptr, i64, array<4 x i64>, array<4 x i64>)> 
    %528 = llvm.insertvalue %5, %527[4, 3] : !llvm.struct<(ptr, ptr, i64, array<4 x i64>, array<4 x i64>)> 
    %529 = llvm.intr.stacksave : !llvm.ptr
    %530 = llvm.alloca %5 x !llvm.struct<(ptr, ptr, i64, array<4 x i64>, array<4 x i64>)> : (i64) -> !llvm.ptr
    llvm.store %403, %530 : !llvm.struct<(ptr, ptr, i64, array<4 x i64>, array<4 x i64>)>, !llvm.ptr
    %531 = llvm.insertvalue %530, %180[1] : !llvm.struct<(i64, ptr)> 
    %532 = llvm.alloca %5 x !llvm.struct<(ptr, ptr, i64, array<4 x i64>, array<4 x i64>)> : (i64) -> !llvm.ptr
    llvm.store %528, %532 : !llvm.struct<(ptr, ptr, i64, array<4 x i64>, array<4 x i64>)>, !llvm.ptr
    %533 = llvm.insertvalue %532, %180[1] : !llvm.struct<(i64, ptr)> 
    %534 = llvm.alloca %5 x !llvm.struct<(i64, ptr)> : (i64) -> !llvm.ptr
    llvm.store %531, %534 : !llvm.struct<(i64, ptr)>, !llvm.ptr
    %535 = llvm.alloca %5 x !llvm.struct<(i64, ptr)> : (i64) -> !llvm.ptr
    llvm.store %533, %535 : !llvm.struct<(i64, ptr)>, !llvm.ptr
    llvm.call @memrefCopy(%20, %534, %535) : (i64, !llvm.ptr, !llvm.ptr) -> ()
    llvm.intr.stackrestore %529 : !llvm.ptr
    %536 = llvm.mlir.constant(3136 : index) : i64
    %537 = llvm.mlir.constant(200704 : index) : i64
    %538 = llvm.getelementptr %35[%537] : (!llvm.ptr, i64) -> !llvm.ptr, f32
    %539 = llvm.ptrtoint %538 : !llvm.ptr to i64
    %540 = llvm.add %539, %28  : i64
    %541 = llvm.call @malloc(%540) : (i64) -> !llvm.ptr
    %542 = llvm.ptrtoint %541 : !llvm.ptr to i64
    %543 = llvm.add %542, %86  : i64
    %544 = llvm.urem %543, %28  : i64
    %545 = llvm.sub %543, %544  : i64
    %546 = llvm.inttoptr %545 : i64 to !llvm.ptr
    %547 = llvm.insertvalue %541, %0[0] : !llvm.struct<(ptr, ptr, i64, array<4 x i64>, array<4 x i64>)> 
    %548 = llvm.insertvalue %546, %547[1] : !llvm.struct<(ptr, ptr, i64, array<4 x i64>, array<4 x i64>)> 
    %549 = llvm.insertvalue %3, %548[2] : !llvm.struct<(ptr, ptr, i64, array<4 x i64>, array<4 x i64>)> 
    %550 = llvm.insertvalue %5, %549[3, 0] : !llvm.struct<(ptr, ptr, i64, array<4 x i64>, array<4 x i64>)> 
    %551 = llvm.insertvalue %28, %550[3, 1] : !llvm.struct<(ptr, ptr, i64, array<4 x i64>, array<4 x i64>)> 
    %552 = llvm.insertvalue %22, %551[3, 2] : !llvm.struct<(ptr, ptr, i64, array<4 x i64>, array<4 x i64>)> 
    %553 = llvm.insertvalue %22, %552[3, 3] : !llvm.struct<(ptr, ptr, i64, array<4 x i64>, array<4 x i64>)> 
    %554 = llvm.insertvalue %537, %553[4, 0] : !llvm.struct<(ptr, ptr, i64, array<4 x i64>, array<4 x i64>)> 
    %555 = llvm.insertvalue %536, %554[4, 1] : !llvm.struct<(ptr, ptr, i64, array<4 x i64>, array<4 x i64>)> 
    %556 = llvm.insertvalue %22, %555[4, 2] : !llvm.struct<(ptr, ptr, i64, array<4 x i64>, array<4 x i64>)> 
    %557 = llvm.insertvalue %5, %556[4, 3] : !llvm.struct<(ptr, ptr, i64, array<4 x i64>, array<4 x i64>)> 
    llvm.br ^bb58(%3 : i64)
  ^bb58(%558: i64):  // 2 preds: ^bb57, ^bb65
    %559 = builtin.unrealized_conversion_cast %558 : i64 to index
    %560 = builtin.unrealized_conversion_cast %559 : index to i64
    %561 = llvm.icmp "slt" %560, %5 : i64
    llvm.cond_br %561, ^bb59, ^bb66
  ^bb59:  // pred: ^bb58
    llvm.br ^bb60(%3 : i64)
  ^bb60(%562: i64):  // 2 preds: ^bb59, ^bb64
    %563 = builtin.unrealized_conversion_cast %562 : i64 to index
    %564 = builtin.unrealized_conversion_cast %563 : index to i64
    %565 = llvm.icmp "slt" %564, %28 : i64
    llvm.cond_br %565, ^bb61, ^bb65
  ^bb61:  // pred: ^bb60
    llvm.br ^bb62(%3 : i64)
  ^bb62(%566: i64):  // 2 preds: ^bb61, ^bb63
    %567 = builtin.unrealized_conversion_cast %566 : i64 to index
    %568 = builtin.unrealized_conversion_cast %567 : index to i64
    %569 = llvm.icmp "slt" %568, %22 : i64
    llvm.cond_br %569, ^bb63, ^bb64
  ^bb63:  // pred: ^bb62
    %570 = builtin.unrealized_conversion_cast %3 : i64 to index
    %571 = llvm.extractvalue %557[1] : !llvm.struct<(ptr, ptr, i64, array<4 x i64>, array<4 x i64>)> 
    %572 = builtin.unrealized_conversion_cast %570 : index to i64
    %573 = llvm.mul %572, %537  : i64
    %574 = llvm.mul %564, %536  : i64
    %575 = llvm.add %573, %574  : i64
    %576 = llvm.mul %568, %22  : i64
    %577 = llvm.add %575, %576  : i64
    %578 = llvm.add %577, %572  : i64
    %579 = llvm.getelementptr %571[%578] : (!llvm.ptr, i64) -> !llvm.ptr, f32
    %580 = builtin.unrealized_conversion_cast %579 : !llvm.ptr to !llvm.struct<(ptr, ptr, i64, array<4 x i64>, array<4 x i64>)>
    %581 = llvm.extractvalue %580[1] : !llvm.struct<(ptr, ptr, i64, array<4 x i64>, array<4 x i64>)> 
    llvm.call @forward_kernel_6(%581) : (!llvm.ptr) -> ()
    %582 = llvm.add %568, %21  : i64
    llvm.br ^bb62(%582 : i64)
  ^bb64:  // pred: ^bb62
    %583 = llvm.add %564, %5  : i64
    llvm.br ^bb60(%583 : i64)
  ^bb65:  // pred: ^bb60
    %584 = llvm.add %560, %5  : i64
    llvm.br ^bb58(%584 : i64)
  ^bb66:  // pred: ^bb58
    %585 = llvm.call @malloc(%540) : (i64) -> !llvm.ptr
    %586 = llvm.ptrtoint %585 : !llvm.ptr to i64
    %587 = llvm.add %586, %86  : i64
    %588 = llvm.urem %587, %28  : i64
    %589 = llvm.sub %587, %588  : i64
    %590 = llvm.inttoptr %589 : i64 to !llvm.ptr
    %591 = llvm.insertvalue %585, %0[0] : !llvm.struct<(ptr, ptr, i64, array<4 x i64>, array<4 x i64>)> 
    %592 = llvm.insertvalue %590, %591[1] : !llvm.struct<(ptr, ptr, i64, array<4 x i64>, array<4 x i64>)> 
    %593 = llvm.insertvalue %3, %592[2] : !llvm.struct<(ptr, ptr, i64, array<4 x i64>, array<4 x i64>)> 
    %594 = llvm.insertvalue %5, %593[3, 0] : !llvm.struct<(ptr, ptr, i64, array<4 x i64>, array<4 x i64>)> 
    %595 = llvm.insertvalue %28, %594[3, 1] : !llvm.struct<(ptr, ptr, i64, array<4 x i64>, array<4 x i64>)> 
    %596 = llvm.insertvalue %22, %595[3, 2] : !llvm.struct<(ptr, ptr, i64, array<4 x i64>, array<4 x i64>)> 
    %597 = llvm.insertvalue %22, %596[3, 3] : !llvm.struct<(ptr, ptr, i64, array<4 x i64>, array<4 x i64>)> 
    %598 = llvm.insertvalue %537, %597[4, 0] : !llvm.struct<(ptr, ptr, i64, array<4 x i64>, array<4 x i64>)> 
    %599 = llvm.insertvalue %536, %598[4, 1] : !llvm.struct<(ptr, ptr, i64, array<4 x i64>, array<4 x i64>)> 
    %600 = llvm.insertvalue %22, %599[4, 2] : !llvm.struct<(ptr, ptr, i64, array<4 x i64>, array<4 x i64>)> 
    %601 = llvm.insertvalue %5, %600[4, 3] : !llvm.struct<(ptr, ptr, i64, array<4 x i64>, array<4 x i64>)> 
    %602 = llvm.extractvalue %557[3, 0] : !llvm.struct<(ptr, ptr, i64, array<4 x i64>, array<4 x i64>)> 
    %603 = llvm.mul %5, %602  : i64
    %604 = llvm.extractvalue %557[3, 1] : !llvm.struct<(ptr, ptr, i64, array<4 x i64>, array<4 x i64>)> 
    %605 = llvm.mul %603, %604  : i64
    %606 = llvm.extractvalue %557[3, 2] : !llvm.struct<(ptr, ptr, i64, array<4 x i64>, array<4 x i64>)> 
    %607 = llvm.mul %605, %606  : i64
    %608 = llvm.extractvalue %557[3, 3] : !llvm.struct<(ptr, ptr, i64, array<4 x i64>, array<4 x i64>)> 
    %609 = llvm.mul %607, %608  : i64
    %610 = llvm.mul %609, %155  : i64
    %611 = llvm.extractvalue %557[1] : !llvm.struct<(ptr, ptr, i64, array<4 x i64>, array<4 x i64>)> 
    %612 = llvm.extractvalue %557[2] : !llvm.struct<(ptr, ptr, i64, array<4 x i64>, array<4 x i64>)> 
    %613 = llvm.getelementptr %611[%612] : (!llvm.ptr, i64) -> !llvm.ptr, f32
    %614 = llvm.extractvalue %601[1] : !llvm.struct<(ptr, ptr, i64, array<4 x i64>, array<4 x i64>)> 
    %615 = llvm.extractvalue %601[2] : !llvm.struct<(ptr, ptr, i64, array<4 x i64>, array<4 x i64>)> 
    %616 = llvm.getelementptr %614[%615] : (!llvm.ptr, i64) -> !llvm.ptr, f32
    "llvm.intr.memcpy"(%616, %613, %610) <{isVolatile = false}> : (!llvm.ptr, !llvm.ptr, i64) -> ()
    llvm.br ^bb67(%3 : i64)
  ^bb67(%617: i64):  // 2 preds: ^bb66, ^bb74
    %618 = builtin.unrealized_conversion_cast %617 : i64 to index
    %619 = builtin.unrealized_conversion_cast %618 : index to i64
    %620 = llvm.icmp "slt" %619, %5 : i64
    llvm.cond_br %620, ^bb68, ^bb75
  ^bb68:  // pred: ^bb67
    llvm.br ^bb69(%3 : i64)
  ^bb69(%621: i64):  // 2 preds: ^bb68, ^bb73
    %622 = builtin.unrealized_conversion_cast %621 : i64 to index
    %623 = builtin.unrealized_conversion_cast %622 : index to i64
    %624 = llvm.icmp "slt" %623, %28 : i64
    llvm.cond_br %624, ^bb70, ^bb74
  ^bb70:  // pred: ^bb69
    llvm.br ^bb71(%3 : i64)
  ^bb71(%625: i64):  // 2 preds: ^bb70, ^bb72
    %626 = builtin.unrealized_conversion_cast %625 : i64 to index
    %627 = builtin.unrealized_conversion_cast %626 : index to i64
    %628 = llvm.icmp "slt" %627, %22 : i64
    llvm.cond_br %628, ^bb72, ^bb73
  ^bb72:  // pred: ^bb71
    %629 = builtin.unrealized_conversion_cast %3 : i64 to index
    %630 = llvm.mlir.constant(2 : index) : i64
    %631 = llvm.mul %625, %630  : i64
    %632 = builtin.unrealized_conversion_cast %631 : i64 to index
    %633 = builtin.unrealized_conversion_cast %629 : index to i64
    %634 = llvm.mul %633, %436  : i64
    %635 = llvm.mul %623, %435  : i64
    %636 = llvm.add %634, %635  : i64
    %637 = builtin.unrealized_conversion_cast %632 : index to i64
    %638 = llvm.mul %637, %24  : i64
    %639 = llvm.add %636, %638  : i64
    %640 = llvm.add %639, %633  : i64
    %641 = llvm.getelementptr %513[%640] : (!llvm.ptr, i64) -> !llvm.ptr, f32
    %642 = builtin.unrealized_conversion_cast %641 : !llvm.ptr to !llvm.struct<(ptr, ptr, i64, array<4 x i64>, array<4 x i64>)>
    %643 = llvm.mul %633, %537  : i64
    %644 = llvm.mul %623, %536  : i64
    %645 = llvm.add %643, %644  : i64
    %646 = llvm.mul %627, %22  : i64
    %647 = llvm.add %645, %646  : i64
    %648 = llvm.add %647, %633  : i64
    %649 = llvm.getelementptr %614[%648] : (!llvm.ptr, i64) -> !llvm.ptr, f32
    %650 = builtin.unrealized_conversion_cast %649 : !llvm.ptr to !llvm.struct<(ptr, ptr, i64, array<4 x i64>, array<4 x i64>)>
    %651 = llvm.extractvalue %642[1] : !llvm.struct<(ptr, ptr, i64, array<4 x i64>, array<4 x i64>)> 
    %652 = llvm.extractvalue %650[1] : !llvm.struct<(ptr, ptr, i64, array<4 x i64>, array<4 x i64>)> 
    llvm.call @forward_kernel_7(%651, %652, %652) : (!llvm.ptr, !llvm.ptr, !llvm.ptr) -> ()
    %653 = llvm.add %627, %20  : i64
    llvm.br ^bb71(%653 : i64)
  ^bb73:  // pred: ^bb71
    %654 = llvm.add %623, %5  : i64
    llvm.br ^bb69(%654 : i64)
  ^bb74:  // pred: ^bb69
    %655 = llvm.add %619, %5  : i64
    llvm.br ^bb67(%655 : i64)
  ^bb75:  // pred: ^bb67
    %656 = llvm.extractvalue %601[0] : !llvm.struct<(ptr, ptr, i64, array<4 x i64>, array<4 x i64>)> 
    llvm.return %656 : !llvm.ptr
  }
  llvm.func @forward_kernel_0(!llvm.ptr) attributes {Kernel, forward_kernel_0}
  llvm.func @forward_kernel_1(!llvm.ptr) attributes {Kernel, forward_kernel_1}
  llvm.func @forward_kernel_2(!llvm.ptr, !llvm.ptr, !llvm.ptr, !llvm.ptr) attributes {Kernel, forward_kernel_2}
  llvm.func @forward_kernel_3(!llvm.ptr, !llvm.ptr, !llvm.ptr, !llvm.ptr, !llvm.ptr, !llvm.ptr) attributes {Kernel, forward_kernel_3}
  llvm.func @forward_kernel_4(!llvm.ptr, !llvm.ptr) attributes {Kernel, forward_kernel_4}
  llvm.func @forward_kernel_5(!llvm.ptr) attributes {Kernel, forward_kernel_5}
  llvm.func @forward_kernel_6(!llvm.ptr) attributes {Kernel, forward_kernel_6}
  llvm.func @forward_kernel_7(!llvm.ptr, !llvm.ptr, !llvm.ptr) attributes {Kernel, forward_kernel_7}
}


// -----// IR Dump After Canonicalizer (canonicalize) //----- //
module attributes {llvm.data_layout = "", torch.debug_module_name = "ResNet"} {
  llvm.func @memrefCopy(i64, !llvm.ptr, !llvm.ptr)
  llvm.func @malloc(i64) -> !llvm.ptr
  llvm.mlir.global private constant @__constant_64xf32_2(dense<[… > : tensor<64xf32>) {addr_space = 0 : i32} : !llvm.array<64 x f32>
  llvm.mlir.global private constant @__constant_64xf32_1(dense<[… > : tensor<64xf32>) {addr_space = 0 : i32} : !llvm.array<64 x f32>
  llvm.mlir.global private constant @__constant_64xf32_0(dense<[… > : tensor<64xf32>) {addr_space = 0 : i32} : !llvm.array<64 x f32>
  llvm.mlir.global private constant @__constant_64xf32(dense<[… > : tensor<64xf32>) {addr_space = 0 : i32} : !llvm.array<64 x f32>
  llvm.mlir.global private constant @__constant_64x3x7x7xf32(dense<"…"> : tensor<64x3x7x7xf32>) {addr_space = 0 : i32} : !llvm.array<64 x array<3 x array<7 x array<7 x f32>>>>
  ml_program.global private mutable @global_seed(dense<0> : tensor<i64>) : tensor<i64>
  llvm.func @forward(%arg0: !llvm.ptr) -> !llvm.ptr {
    %0 = llvm.mlir.constant(200704 : index) : i64
    %1 = llvm.mlir.constant(3136 : index) : i64
    %2 = llvm.mlir.constant(115 : index) : i64
    %3 = llvm.mlir.constant(831744 : index) : i64
    %4 = llvm.mlir.constant(12996 : index) : i64
    %5 = llvm.mlir.constant(2 : index) : i64
    %6 = llvm.mlir.constant(802816 : index) : i64
    %7 = llvm.mlir.constant(12544 : index) : i64
    %8 = llvm.mlir.constant(4 : i64) : i64
    %9 = llvm.mlir.constant(693 : index) : i64
    %10 = llvm.mlir.constant(158700 : index) : i64
    %11 = llvm.mlir.constant(52900 : index) : i64
    %12 = llvm.mlir.constant(147 : index) : i64
    %13 = llvm.mlir.constant(49 : index) : i64
    %14 = llvm.mlir.constant(7 : index) : i64
    %15 = llvm.mlir.constant(230 : index) : i64
    %16 = llvm.mlir.constant(5 : index) : i64
    %17 = llvm.mlir.constant(64 : index) : i64
    %18 = llvm.mlir.constant(112 : index) : i64
    %19 = llvm.mlir.constant(16 : index) : i64
    %20 = llvm.mlir.constant(8 : index) : i64
    %21 = llvm.mlir.constant(114 : index) : i64
    %22 = llvm.mlir.constant(6 : index) : i64
    %23 = llvm.mlir.constant(56 : index) : i64
    %24 = llvm.mlir.constant(28 : index) : i64
    %25 = llvm.mlir.constant(4 : index) : i64
    %26 = llvm.mlir.constant(224 : index) : i64
    %27 = llvm.mlir.constant(50176 : index) : i64
    %28 = llvm.mlir.constant(3 : index) : i64
    %29 = llvm.mlir.constant(150528 : index) : i64
    %30 = llvm.mlir.constant(1 : index) : i64
    %31 = llvm.mlir.constant(0 : index) : i64
    %32 = llvm.mlir.undef : !llvm.struct<(ptr, ptr, i64, array<4 x i64>, array<4 x i64>)>
    %33 = llvm.insertvalue %arg0, %32[0] : !llvm.struct<(ptr, ptr, i64, array<4 x i64>, array<4 x i64>)> 
    %34 = llvm.insertvalue %arg0, %33[1] : !llvm.struct<(ptr, ptr, i64, array<4 x i64>, array<4 x i64>)> 
    %35 = llvm.insertvalue %31, %34[2] : !llvm.struct<(ptr, ptr, i64, array<4 x i64>, array<4 x i64>)> 
    %36 = llvm.insertvalue %30, %35[3, 0] : !llvm.struct<(ptr, ptr, i64, array<4 x i64>, array<4 x i64>)> 
    %37 = llvm.insertvalue %29, %36[4, 0] : !llvm.struct<(ptr, ptr, i64, array<4 x i64>, array<4 x i64>)> 
    %38 = llvm.insertvalue %28, %37[3, 1] : !llvm.struct<(ptr, ptr, i64, array<4 x i64>, array<4 x i64>)> 
    %39 = llvm.insertvalue %27, %38[4, 1] : !llvm.struct<(ptr, ptr, i64, array<4 x i64>, array<4 x i64>)> 
    %40 = llvm.insertvalue %26, %39[3, 2] : !llvm.struct<(ptr, ptr, i64, array<4 x i64>, array<4 x i64>)> 
    %41 = llvm.insertvalue %26, %40[4, 2] : !llvm.struct<(ptr, ptr, i64, array<4 x i64>, array<4 x i64>)> 
    %42 = llvm.insertvalue %26, %41[3, 3] : !llvm.struct<(ptr, ptr, i64, array<4 x i64>, array<4 x i64>)> 
    %43 = llvm.insertvalue %30, %42[4, 3] : !llvm.struct<(ptr, ptr, i64, array<4 x i64>, array<4 x i64>)> 
    %44 = llvm.mlir.null : !llvm.ptr
    %45 = llvm.mlir.addressof @__constant_64x3x7x7xf32 : !llvm.ptr
    %46 = llvm.getelementptr %45[0, 0, 0, 0, 0] : (!llvm.ptr) -> !llvm.ptr, !llvm.array<64 x array<3 x array<7 x array<7 x f32>>>>
    %47 = llvm.mlir.addressof @__constant_64xf32 : !llvm.ptr
    %48 = llvm.getelementptr %47[0, 0] : (!llvm.ptr) -> !llvm.ptr, !llvm.array<64 x f32>
    %49 = llvm.mlir.addressof @__constant_64xf32_0 : !llvm.ptr
    %50 = llvm.getelementptr %49[0, 0] : (!llvm.ptr) -> !llvm.ptr, !llvm.array<64 x f32>
    %51 = llvm.mlir.addressof @__constant_64xf32_1 : !llvm.ptr
    %52 = llvm.getelementptr %51[0, 0] : (!llvm.ptr) -> !llvm.ptr, !llvm.array<64 x f32>
    %53 = llvm.mlir.addressof @__constant_64xf32_2 : !llvm.ptr
    %54 = llvm.getelementptr %53[0, 0] : (!llvm.ptr) -> !llvm.ptr, !llvm.array<64 x f32>
    %55 = llvm.getelementptr %44[158700] : (!llvm.ptr) -> !llvm.ptr, f32
    %56 = llvm.ptrtoint %55 : !llvm.ptr to i64
    %57 = llvm.add %56, %17  : i64
    %58 = llvm.call @malloc(%57) : (i64) -> !llvm.ptr
    %59 = llvm.ptrtoint %58 : !llvm.ptr to i64
    %60 = llvm.sub %17, %30  : i64
    %61 = llvm.add %59, %60  : i64
    %62 = llvm.urem %61, %17  : i64
    %63 = llvm.sub %61, %62  : i64
    %64 = llvm.inttoptr %63 : i64 to !llvm.ptr
    llvm.br ^bb1(%31 : i64)
  ^bb1(%65: i64):  // 2 preds: ^bb0, ^bb8
    %66 = llvm.icmp "slt" %65, %30 : i64
    llvm.cond_br %66, ^bb2, ^bb9
  ^bb2:  // pred: ^bb1
    llvm.br ^bb3(%31 : i64)
  ^bb3(%67: i64):  // 2 preds: ^bb2, ^bb7
    %68 = llvm.icmp "slt" %67, %28 : i64
    llvm.cond_br %68, ^bb4, ^bb8
  ^bb4:  // pred: ^bb3
    llvm.br ^bb5(%31 : i64)
  ^bb5(%69: i64):  // 2 preds: ^bb4, ^bb6
    %70 = llvm.icmp "slt" %69, %15 : i64
    llvm.cond_br %70, ^bb6, ^bb7
  ^bb6:  // pred: ^bb5
    %71 = llvm.mul %31, %10  : i64
    %72 = llvm.mul %67, %11  : i64
    %73 = llvm.add %71, %72  : i64
    %74 = llvm.mul %69, %15  : i64
    %75 = llvm.add %73, %74  : i64
    %76 = llvm.add %75, %31  : i64
    %77 = llvm.getelementptr %64[%76] : (!llvm.ptr, i64) -> !llvm.ptr, f32
    %78 = builtin.unrealized_conversion_cast %77 : !llvm.ptr to !llvm.struct<(ptr, ptr, i64, array<4 x i64>, array<4 x i64>)>
    %79 = llvm.extractvalue %78[1] : !llvm.struct<(ptr, ptr, i64, array<4 x i64>, array<4 x i64>)> 
    llvm.call @forward_kernel_0(%79) : (!llvm.ptr) -> ()
    %80 = llvm.add %69, %16  : i64
    llvm.br ^bb5(%80 : i64)
  ^bb7:  // pred: ^bb5
    %81 = llvm.add %67, %30  : i64
    llvm.br ^bb3(%81 : i64)
  ^bb8:  // pred: ^bb3
    %82 = llvm.add %65, %30  : i64
    llvm.br ^bb1(%82 : i64)
  ^bb9:  // pred: ^bb1
    %83 = llvm.call @malloc(%57) : (i64) -> !llvm.ptr
    %84 = llvm.ptrtoint %83 : !llvm.ptr to i64
    %85 = llvm.add %84, %60  : i64
    %86 = llvm.urem %85, %17  : i64
    %87 = llvm.sub %85, %86  : i64
    %88 = llvm.inttoptr %87 : i64 to !llvm.ptr
    %89 = llvm.mul %30, %30  : i64
    %90 = llvm.mul %89, %28  : i64
    %91 = llvm.mul %90, %15  : i64
    %92 = llvm.mul %91, %15  : i64
    %93 = llvm.getelementptr %44[1] : (!llvm.ptr) -> !llvm.ptr, f32
    %94 = llvm.ptrtoint %93 : !llvm.ptr to i64
    %95 = llvm.mul %92, %94  : i64
    "llvm.intr.memcpy"(%88, %64, %95) <{isVolatile = false}> : (!llvm.ptr, !llvm.ptr, i64) -> ()
    %96 = llvm.insertvalue %83, %32[0] : !llvm.struct<(ptr, ptr, i64, array<4 x i64>, array<4 x i64>)> 
    %97 = llvm.insertvalue %88, %96[1] : !llvm.struct<(ptr, ptr, i64, array<4 x i64>, array<4 x i64>)> 
    %98 = llvm.insertvalue %9, %97[2] : !llvm.struct<(ptr, ptr, i64, array<4 x i64>, array<4 x i64>)> 
    %99 = llvm.insertvalue %30, %98[3, 0] : !llvm.struct<(ptr, ptr, i64, array<4 x i64>, array<4 x i64>)> 
    %100 = llvm.insertvalue %10, %99[4, 0] : !llvm.struct<(ptr, ptr, i64, array<4 x i64>, array<4 x i64>)> 
    %101 = llvm.insertvalue %28, %100[3, 1] : !llvm.struct<(ptr, ptr, i64, array<4 x i64>, array<4 x i64>)> 
    %102 = llvm.insertvalue %11, %101[4, 1] : !llvm.struct<(ptr, ptr, i64, array<4 x i64>, array<4 x i64>)> 
    %103 = llvm.insertvalue %26, %102[3, 2] : !llvm.struct<(ptr, ptr, i64, array<4 x i64>, array<4 x i64>)> 
    %104 = llvm.insertvalue %15, %103[4, 2] : !llvm.struct<(ptr, ptr, i64, array<4 x i64>, array<4 x i64>)> 
    %105 = llvm.insertvalue %26, %104[3, 3] : !llvm.struct<(ptr, ptr, i64, array<4 x i64>, array<4 x i64>)> 
    %106 = llvm.insertvalue %30, %105[4, 3] : !llvm.struct<(ptr, ptr, i64, array<4 x i64>, array<4 x i64>)> 
    %107 = llvm.intr.stacksave : !llvm.ptr
    %108 = llvm.alloca %30 x !llvm.struct<(ptr, ptr, i64, array<4 x i64>, array<4 x i64>)> : (i64) -> !llvm.ptr
    llvm.store %43, %108 : !llvm.struct<(ptr, ptr, i64, array<4 x i64>, array<4 x i64>)>, !llvm.ptr
    %109 = llvm.mlir.undef : !llvm.struct<(i64, ptr)>
    %110 = llvm.insertvalue %8, %109[0] : !llvm.struct<(i64, ptr)> 
    %111 = llvm.insertvalue %108, %110[1] : !llvm.struct<(i64, ptr)> 
    %112 = llvm.alloca %30 x !llvm.struct<(ptr, ptr, i64, array<4 x i64>, array<4 x i64>)> : (i64) -> !llvm.ptr
    llvm.store %106, %112 : !llvm.struct<(ptr, ptr, i64, array<4 x i64>, array<4 x i64>)>, !llvm.ptr
    %113 = llvm.insertvalue %112, %110[1] : !llvm.struct<(i64, ptr)> 
    %114 = llvm.alloca %30 x !llvm.struct<(i64, ptr)> : (i64) -> !llvm.ptr
    llvm.store %111, %114 : !llvm.struct<(i64, ptr)>, !llvm.ptr
    %115 = llvm.alloca %30 x !llvm.struct<(i64, ptr)> : (i64) -> !llvm.ptr
    llvm.store %113, %115 : !llvm.struct<(i64, ptr)>, !llvm.ptr
    llvm.call @memrefCopy(%25, %114, %115) : (i64, !llvm.ptr, !llvm.ptr) -> ()
    llvm.intr.stackrestore %107 : !llvm.ptr
    %116 = llvm.getelementptr %44[802816] : (!llvm.ptr) -> !llvm.ptr, f32
    %117 = llvm.ptrtoint %116 : !llvm.ptr to i64
    %118 = llvm.add %117, %17  : i64
    %119 = llvm.call @malloc(%118) : (i64) -> !llvm.ptr
    %120 = llvm.ptrtoint %119 : !llvm.ptr to i64
    %121 = llvm.add %120, %60  : i64
    %122 = llvm.urem %121, %17  : i64
    %123 = llvm.sub %121, %122  : i64
    %124 = llvm.inttoptr %123 : i64 to !llvm.ptr
    llvm.br ^bb10(%31 : i64)
  ^bb10(%125: i64):  // 2 preds: ^bb9, ^bb17
    %126 = llvm.icmp "slt" %125, %30 : i64
    llvm.cond_br %126, ^bb11, ^bb18
  ^bb11:  // pred: ^bb10
    llvm.br ^bb12(%31 : i64)
  ^bb12(%127: i64):  // 2 preds: ^bb11, ^bb16
    %128 = llvm.icmp "slt" %127, %17 : i64
    llvm.cond_br %128, ^bb13, ^bb17
  ^bb13:  // pred: ^bb12
    llvm.br ^bb14(%31 : i64)
  ^bb14(%129: i64):  // 2 preds: ^bb13, ^bb15
    %130 = llvm.icmp "slt" %129, %18 : i64
    llvm.cond_br %130, ^bb15, ^bb16
  ^bb15:  // pred: ^bb14
    %131 = llvm.mul %31, %6  : i64
    %132 = llvm.mul %127, %7  : i64
    %133 = llvm.add %131, %132  : i64
    %134 = llvm.mul %129, %18  : i64
    %135 = llvm.add %133, %134  : i64
    %136 = llvm.add %135, %31  : i64
    %137 = llvm.getelementptr %124[%136] : (!llvm.ptr, i64) -> !llvm.ptr, f32
    %138 = builtin.unrealized_conversion_cast %137 : !llvm.ptr to !llvm.struct<(ptr, ptr, i64, array<4 x i64>, array<4 x i64>)>
    %139 = llvm.extractvalue %138[1] : !llvm.struct<(ptr, ptr, i64, array<4 x i64>, array<4 x i64>)> 
    llvm.call @forward_kernel_1(%139) : (!llvm.ptr) -> ()
    %140 = llvm.add %129, %19  : i64
    llvm.br ^bb14(%140 : i64)
  ^bb16:  // pred: ^bb14
    %141 = llvm.add %127, %30  : i64
    llvm.br ^bb12(%141 : i64)
  ^bb17:  // pred: ^bb12
    %142 = llvm.add %125, %30  : i64
    llvm.br ^bb10(%142 : i64)
  ^bb18:  // pred: ^bb10
    %143 = llvm.call @malloc(%118) : (i64) -> !llvm.ptr
    %144 = llvm.ptrtoint %143 : !llvm.ptr to i64
    %145 = llvm.add %144, %60  : i64
    %146 = llvm.urem %145, %17  : i64
    %147 = llvm.sub %145, %146  : i64
    %148 = llvm.inttoptr %147 : i64 to !llvm.ptr
    %149 = llvm.mul %30, %30  : i64
    %150 = llvm.mul %149, %17  : i64
    %151 = llvm.mul %150, %18  : i64
    %152 = llvm.mul %151, %18  : i64
    %153 = llvm.mul %152, %94  : i64
    "llvm.intr.memcpy"(%148, %124, %153) <{isVolatile = false}> : (!llvm.ptr, !llvm.ptr, i64) -> ()
    llvm.br ^bb19(%31 : i64)
  ^bb19(%154: i64):  // 2 preds: ^bb18, ^bb29
    %155 = llvm.icmp "slt" %154, %30 : i64
    llvm.cond_br %155, ^bb20, ^bb30
  ^bb20:  // pred: ^bb19
    llvm.br ^bb21(%31 : i64)
  ^bb21(%156: i64):  // 2 preds: ^bb20, ^bb28
    %157 = llvm.icmp "slt" %156, %17 : i64
    llvm.cond_br %157, ^bb22, ^bb29
  ^bb22:  // pred: ^bb21
    llvm.br ^bb23(%31 : i64)
  ^bb23(%158: i64):  // 2 preds: ^bb22, ^bb27
    %159 = llvm.icmp "slt" %158, %18 : i64
    llvm.cond_br %159, ^bb24, ^bb28
  ^bb24:  // pred: ^bb23
    llvm.br ^bb25(%31 : i64)
  ^bb25(%160: i64):  // 2 preds: ^bb24, ^bb26
    %161 = llvm.icmp "slt" %160, %18 : i64
    llvm.cond_br %161, ^bb26, ^bb27
  ^bb26:  // pred: ^bb25
    %162 = llvm.mul %158, %5  : i64
    %163 = llvm.mul %160, %5  : i64
    %164 = llvm.mul %31, %10  : i64
    %165 = llvm.mul %31, %11  : i64
    %166 = llvm.add %164, %165  : i64
    %167 = llvm.mul %162, %15  : i64
    %168 = llvm.add %166, %167  : i64
    %169 = llvm.add %168, %163  : i64
    %170 = llvm.getelementptr %88[%169] : (!llvm.ptr, i64) -> !llvm.ptr, f32
    %171 = builtin.unrealized_conversion_cast %170 : !llvm.ptr to !llvm.struct<(ptr, ptr, i64, array<4 x i64>, array<4 x i64>)>
    %172 = llvm.mul %156, %12  : i64
    %173 = llvm.mul %31, %13  : i64
    %174 = llvm.add %172, %173  : i64
    %175 = llvm.mul %31, %14  : i64
    %176 = llvm.add %174, %175  : i64
    %177 = llvm.add %176, %31  : i64
    %178 = llvm.getelementptr %46[%177] : (!llvm.ptr, i64) -> !llvm.ptr, f32
    %179 = builtin.unrealized_conversion_cast %178 : !llvm.ptr to !llvm.struct<(ptr, ptr, i64, array<4 x i64>, array<4 x i64>)>
    %180 = llvm.mul %31, %6  : i64
    %181 = llvm.mul %156, %7  : i64
    %182 = llvm.add %180, %181  : i64
    %183 = llvm.mul %158, %18  : i64
    %184 = llvm.add %182, %183  : i64
    %185 = llvm.add %184, %160  : i64
    %186 = llvm.getelementptr %148[%185] : (!llvm.ptr, i64) -> !llvm.ptr, f32
    %187 = builtin.unrealized_conversion_cast %186 : !llvm.ptr to !llvm.struct<(ptr, ptr, i64, array<4 x i64>, array<4 x i64>)>
    %188 = llvm.extractvalue %171[1] : !llvm.struct<(ptr, ptr, i64, array<4 x i64>, array<4 x i64>)> 
    %189 = llvm.extractvalue %179[1] : !llvm.struct<(ptr, ptr, i64, array<4 x i64>, array<4 x i64>)> 
    %190 = llvm.extractvalue %187[1] : !llvm.struct<(ptr, ptr, i64, array<4 x i64>, array<4 x i64>)> 
    llvm.call @forward_kernel_2(%188, %189, %190, %190) : (!llvm.ptr, !llvm.ptr, !llvm.ptr, !llvm.ptr) -> ()
    %191 = llvm.add %160, %20  : i64
    llvm.br ^bb25(%191 : i64)
  ^bb27:  // pred: ^bb25
    %192 = llvm.add %158, %30  : i64
    llvm.br ^bb23(%192 : i64)
  ^bb28:  // pred: ^bb23
    %193 = llvm.add %156, %30  : i64
    llvm.br ^bb21(%193 : i64)
  ^bb29:  // pred: ^bb21
    %194 = llvm.add %154, %30  : i64
    llvm.br ^bb19(%194 : i64)
  ^bb30:  // pred: ^bb19
    %195 = llvm.call @malloc(%118) : (i64) -> !llvm.ptr
    %196 = llvm.ptrtoint %195 : !llvm.ptr to i64
    %197 = llvm.add %196, %60  : i64
    %198 = llvm.urem %197, %17  : i64
    %199 = llvm.sub %197, %198  : i64
    %200 = llvm.inttoptr %199 : i64 to !llvm.ptr
    llvm.br ^bb31(%31 : i64)
  ^bb31(%201: i64):  // 2 preds: ^bb30, ^bb38
    %202 = llvm.icmp "slt" %201, %30 : i64
    llvm.cond_br %202, ^bb32, ^bb39
  ^bb32:  // pred: ^bb31
    llvm.br ^bb33(%31 : i64)
  ^bb33(%203: i64):  // 2 preds: ^bb32, ^bb37
    %204 = llvm.icmp "slt" %203, %17 : i64
    llvm.cond_br %204, ^bb34, ^bb38
  ^bb34:  // pred: ^bb33
    llvm.br ^bb35(%31 : i64)
  ^bb35(%205: i64):  // 2 preds: ^bb34, ^bb36
    %206 = llvm.icmp "slt" %205, %18 : i64
    llvm.cond_br %206, ^bb36, ^bb37
  ^bb36:  // pred: ^bb35
    %207 = llvm.mul %31, %6  : i64
    %208 = llvm.mul %203, %7  : i64
    %209 = llvm.add %207, %208  : i64
    %210 = llvm.mul %205, %18  : i64
    %211 = llvm.add %209, %210  : i64
    %212 = llvm.add %211, %31  : i64
    %213 = llvm.getelementptr %148[%212] : (!llvm.ptr, i64) -> !llvm.ptr, f32
    %214 = builtin.unrealized_conversion_cast %213 : !llvm.ptr to !llvm.struct<(ptr, ptr, i64, array<4 x i64>, array<4 x i64>)>
    %215 = llvm.getelementptr %52[%203] : (!llvm.ptr, i64) -> !llvm.ptr, f32
    %216 = builtin.unrealized_conversion_cast %215 : !llvm.ptr to !llvm.struct<(ptr, ptr, i64, array<1 x i64>, array<1 x i64>)>
    %217 = llvm.getelementptr %54[%203] : (!llvm.ptr, i64) -> !llvm.ptr, f32
    %218 = builtin.unrealized_conversion_cast %217 : !llvm.ptr to !llvm.struct<(ptr, ptr, i64, array<1 x i64>, array<1 x i64>)>
    %219 = llvm.getelementptr %48[%203] : (!llvm.ptr, i64) -> !llvm.ptr, f32
    %220 = builtin.unrealized_conversion_cast %219 : !llvm.ptr to !llvm.struct<(ptr, ptr, i64, array<1 x i64>, array<1 x i64>)>
    %221 = llvm.getelementptr %50[%203] : (!llvm.ptr, i64) -> !llvm.ptr, f32
    %222 = builtin.unrealized_conversion_cast %221 : !llvm.ptr to !llvm.struct<(ptr, ptr, i64, array<1 x i64>, array<1 x i64>)>
    %223 = llvm.getelementptr %200[%212] : (!llvm.ptr, i64) -> !llvm.ptr, f32
    %224 = builtin.unrealized_conversion_cast %223 : !llvm.ptr to !llvm.struct<(ptr, ptr, i64, array<4 x i64>, array<4 x i64>)>
    %225 = llvm.extractvalue %214[1] : !llvm.struct<(ptr, ptr, i64, array<4 x i64>, array<4 x i64>)> 
    %226 = llvm.extractvalue %216[1] : !llvm.struct<(ptr, ptr, i64, array<1 x i64>, array<1 x i64>)> 
    %227 = llvm.extractvalue %218[1] : !llvm.struct<(ptr, ptr, i64, array<1 x i64>, array<1 x i64>)> 
    %228 = llvm.extractvalue %220[1] : !llvm.struct<(ptr, ptr, i64, array<1 x i64>, array<1 x i64>)> 
    %229 = llvm.extractvalue %222[1] : !llvm.struct<(ptr, ptr, i64, array<1 x i64>, array<1 x i64>)> 
    %230 = llvm.extractvalue %224[1] : !llvm.struct<(ptr, ptr, i64, array<4 x i64>, array<4 x i64>)> 
    llvm.call @forward_kernel_3(%225, %226, %227, %228, %229, %230) : (!llvm.ptr, !llvm.ptr, !llvm.ptr, !llvm.ptr, !llvm.ptr, !llvm.ptr) -> ()
    %231 = llvm.add %205, %19  : i64
    llvm.br ^bb35(%231 : i64)
  ^bb37:  // pred: ^bb35
    %232 = llvm.add %203, %30  : i64
    llvm.br ^bb33(%232 : i64)
  ^bb38:  // pred: ^bb33
    %233 = llvm.add %201, %30  : i64
    llvm.br ^bb31(%233 : i64)
  ^bb39:  // pred: ^bb31
    %234 = llvm.call @malloc(%118) : (i64) -> !llvm.ptr
    %235 = llvm.ptrtoint %234 : !llvm.ptr to i64
    %236 = llvm.add %235, %60  : i64
    %237 = llvm.urem %236, %17  : i64
    %238 = llvm.sub %236, %237  : i64
    %239 = llvm.inttoptr %238 : i64 to !llvm.ptr
    %240 = llvm.insertvalue %234, %32[0] : !llvm.struct<(ptr, ptr, i64, array<4 x i64>, array<4 x i64>)> 
    %241 = llvm.insertvalue %239, %240[1] : !llvm.struct<(ptr, ptr, i64, array<4 x i64>, array<4 x i64>)> 
    %242 = llvm.insertvalue %31, %241[2] : !llvm.struct<(ptr, ptr, i64, array<4 x i64>, array<4 x i64>)> 
    %243 = llvm.insertvalue %30, %242[3, 0] : !llvm.struct<(ptr, ptr, i64, array<4 x i64>, array<4 x i64>)> 
    %244 = llvm.insertvalue %17, %243[3, 1] : !llvm.struct<(ptr, ptr, i64, array<4 x i64>, array<4 x i64>)> 
    %245 = llvm.insertvalue %18, %244[3, 2] : !llvm.struct<(ptr, ptr, i64, array<4 x i64>, array<4 x i64>)> 
    %246 = llvm.insertvalue %18, %245[3, 3] : !llvm.struct<(ptr, ptr, i64, array<4 x i64>, array<4 x i64>)> 
    %247 = llvm.insertvalue %6, %246[4, 0] : !llvm.struct<(ptr, ptr, i64, array<4 x i64>, array<4 x i64>)> 
    %248 = llvm.insertvalue %7, %247[4, 1] : !llvm.struct<(ptr, ptr, i64, array<4 x i64>, array<4 x i64>)> 
    %249 = llvm.insertvalue %18, %248[4, 2] : !llvm.struct<(ptr, ptr, i64, array<4 x i64>, array<4 x i64>)> 
    %250 = llvm.insertvalue %30, %249[4, 3] : !llvm.struct<(ptr, ptr, i64, array<4 x i64>, array<4 x i64>)> 
    llvm.br ^bb40(%31 : i64)
  ^bb40(%251: i64):  // 2 preds: ^bb39, ^bb47
    %252 = llvm.icmp "slt" %251, %30 : i64
    llvm.cond_br %252, ^bb41, ^bb48
  ^bb41:  // pred: ^bb40
    llvm.br ^bb42(%31 : i64)
  ^bb42(%253: i64):  // 2 preds: ^bb41, ^bb46
    %254 = llvm.icmp "slt" %253, %17 : i64
    llvm.cond_br %254, ^bb43, ^bb47
  ^bb43:  // pred: ^bb42
    llvm.br ^bb44(%31 : i64)
  ^bb44(%255: i64):  // 2 preds: ^bb43, ^bb45
    %256 = llvm.icmp "slt" %255, %18 : i64
    llvm.cond_br %256, ^bb45, ^bb46
  ^bb45:  // pred: ^bb44
    %257 = llvm.mul %31, %6  : i64
    %258 = llvm.mul %253, %7  : i64
    %259 = llvm.add %257, %258  : i64
    %260 = llvm.mul %255, %18  : i64
    %261 = llvm.add %259, %260  : i64
    %262 = llvm.add %261, %31  : i64
    %263 = llvm.getelementptr %200[%262] : (!llvm.ptr, i64) -> !llvm.ptr, f32
    %264 = builtin.unrealized_conversion_cast %263 : !llvm.ptr to !llvm.struct<(ptr, ptr, i64, array<4 x i64>, array<4 x i64>)>
    %265 = llvm.getelementptr %239[%262] : (!llvm.ptr, i64) -> !llvm.ptr, f32
    %266 = builtin.unrealized_conversion_cast %265 : !llvm.ptr to !llvm.struct<(ptr, ptr, i64, array<4 x i64>, array<4 x i64>)>
    %267 = llvm.extractvalue %264[1] : !llvm.struct<(ptr, ptr, i64, array<4 x i64>, array<4 x i64>)> 
    %268 = llvm.extractvalue %266[1] : !llvm.struct<(ptr, ptr, i64, array<4 x i64>, array<4 x i64>)> 
    llvm.call @forward_kernel_4(%267, %268) : (!llvm.ptr, !llvm.ptr) -> ()
    %269 = llvm.add %255, %19  : i64
    llvm.br ^bb44(%269 : i64)
  ^bb46:  // pred: ^bb44
    %270 = llvm.add %253, %30  : i64
    llvm.br ^bb42(%270 : i64)
  ^bb47:  // pred: ^bb42
    %271 = llvm.add %251, %30  : i64
    llvm.br ^bb40(%271 : i64)
  ^bb48:  // pred: ^bb40
    %272 = llvm.getelementptr %44[831744] : (!llvm.ptr) -> !llvm.ptr, f32
    %273 = llvm.ptrtoint %272 : !llvm.ptr to i64
    %274 = llvm.add %273, %17  : i64
    %275 = llvm.call @malloc(%274) : (i64) -> !llvm.ptr
    %276 = llvm.ptrtoint %275 : !llvm.ptr to i64
    %277 = llvm.add %276, %60  : i64
    %278 = llvm.urem %277, %17  : i64
    %279 = llvm.sub %277, %278  : i64
    %280 = llvm.inttoptr %279 : i64 to !llvm.ptr
    llvm.br ^bb49(%31 : i64)
  ^bb49(%281: i64):  // 2 preds: ^bb48, ^bb56
    %282 = llvm.icmp "slt" %281, %30 : i64
    llvm.cond_br %282, ^bb50, ^bb57
  ^bb50:  // pred: ^bb49
    llvm.br ^bb51(%31 : i64)
  ^bb51(%283: i64):  // 2 preds: ^bb50, ^bb55
    %284 = llvm.icmp "slt" %283, %17 : i64
    llvm.cond_br %284, ^bb52, ^bb56
  ^bb52:  // pred: ^bb51
    llvm.br ^bb53(%31 : i64)
  ^bb53(%285: i64):  // 2 preds: ^bb52, ^bb54
    %286 = llvm.icmp "slt" %285, %21 : i64
    llvm.cond_br %286, ^bb54, ^bb55
  ^bb54:  // pred: ^bb53
    %287 = llvm.mul %31, %3  : i64
    %288 = llvm.mul %283, %4  : i64
    %289 = llvm.add %287, %288  : i64
    %290 = llvm.mul %285, %21  : i64
    %291 = llvm.add %289, %290  : i64
    %292 = llvm.add %291, %31  : i64
    %293 = llvm.getelementptr %280[%292] : (!llvm.ptr, i64) -> !llvm.ptr, f32
    %294 = builtin.unrealized_conversion_cast %293 : !llvm.ptr to !llvm.struct<(ptr, ptr, i64, array<4 x i64>, array<4 x i64>)>
    %295 = llvm.extractvalue %294[1] : !llvm.struct<(ptr, ptr, i64, array<4 x i64>, array<4 x i64>)> 
    llvm.call @forward_kernel_5(%295) : (!llvm.ptr) -> ()
    %296 = llvm.add %285, %22  : i64
    llvm.br ^bb53(%296 : i64)
  ^bb55:  // pred: ^bb53
    %297 = llvm.add %283, %30  : i64
    llvm.br ^bb51(%297 : i64)
  ^bb56:  // pred: ^bb51
    %298 = llvm.add %281, %30  : i64
    llvm.br ^bb49(%298 : i64)
  ^bb57:  // pred: ^bb49
    %299 = llvm.call @malloc(%274) : (i64) -> !llvm.ptr
    %300 = llvm.ptrtoint %299 : !llvm.ptr to i64
    %301 = llvm.add %300, %60  : i64
    %302 = llvm.urem %301, %17  : i64
    %303 = llvm.sub %301, %302  : i64
    %304 = llvm.inttoptr %303 : i64 to !llvm.ptr
    %305 = llvm.mul %30, %30  : i64
    %306 = llvm.mul %305, %17  : i64
    %307 = llvm.mul %306, %21  : i64
    %308 = llvm.mul %307, %21  : i64
    %309 = llvm.mul %308, %94  : i64
    "llvm.intr.memcpy"(%304, %280, %309) <{isVolatile = false}> : (!llvm.ptr, !llvm.ptr, i64) -> ()
    %310 = llvm.insertvalue %299, %32[0] : !llvm.struct<(ptr, ptr, i64, array<4 x i64>, array<4 x i64>)> 
    %311 = llvm.insertvalue %304, %310[1] : !llvm.struct<(ptr, ptr, i64, array<4 x i64>, array<4 x i64>)> 
    %312 = llvm.insertvalue %2, %311[2] : !llvm.struct<(ptr, ptr, i64, array<4 x i64>, array<4 x i64>)> 
    %313 = llvm.insertvalue %30, %312[3, 0] : !llvm.struct<(ptr, ptr, i64, array<4 x i64>, array<4 x i64>)> 
    %314 = llvm.insertvalue %3, %313[4, 0] : !llvm.struct<(ptr, ptr, i64, array<4 x i64>, array<4 x i64>)> 
    %315 = llvm.insertvalue %17, %314[3, 1] : !llvm.struct<(ptr, ptr, i64, array<4 x i64>, array<4 x i64>)> 
    %316 = llvm.insertvalue %4, %315[4, 1] : !llvm.struct<(ptr, ptr, i64, array<4 x i64>, array<4 x i64>)> 
    %317 = llvm.insertvalue %18, %316[3, 2] : !llvm.struct<(ptr, ptr, i64, array<4 x i64>, array<4 x i64>)> 
    %318 = llvm.insertvalue %21, %317[4, 2] : !llvm.struct<(ptr, ptr, i64, array<4 x i64>, array<4 x i64>)> 
    %319 = llvm.insertvalue %18, %318[3, 3] : !llvm.struct<(ptr, ptr, i64, array<4 x i64>, array<4 x i64>)> 
    %320 = llvm.insertvalue %30, %319[4, 3] : !llvm.struct<(ptr, ptr, i64, array<4 x i64>, array<4 x i64>)> 
    %321 = llvm.intr.stacksave : !llvm.ptr
    %322 = llvm.alloca %30 x !llvm.struct<(ptr, ptr, i64, array<4 x i64>, array<4 x i64>)> : (i64) -> !llvm.ptr
    llvm.store %250, %322 : !llvm.struct<(ptr, ptr, i64, array<4 x i64>, array<4 x i64>)>, !llvm.ptr
    %323 = llvm.insertvalue %322, %110[1] : !llvm.struct<(i64, ptr)> 
    %324 = llvm.alloca %30 x !llvm.struct<(ptr, ptr, i64, array<4 x i64>, array<4 x i64>)> : (i64) -> !llvm.ptr
    llvm.store %320, %324 : !llvm.struct<(ptr, ptr, i64, array<4 x i64>, array<4 x i64>)>, !llvm.ptr
    %325 = llvm.insertvalue %324, %110[1] : !llvm.struct<(i64, ptr)> 
    %326 = llvm.alloca %30 x !llvm.struct<(i64, ptr)> : (i64) -> !llvm.ptr
    llvm.store %323, %326 : !llvm.struct<(i64, ptr)>, !llvm.ptr
    %327 = llvm.alloca %30 x !llvm.struct<(i64, ptr)> : (i64) -> !llvm.ptr
    llvm.store %325, %327 : !llvm.struct<(i64, ptr)>, !llvm.ptr
    llvm.call @memrefCopy(%25, %326, %327) : (i64, !llvm.ptr, !llvm.ptr) -> ()
    llvm.intr.stackrestore %321 : !llvm.ptr
    %328 = llvm.getelementptr %44[200704] : (!llvm.ptr) -> !llvm.ptr, f32
    %329 = llvm.ptrtoint %328 : !llvm.ptr to i64
    %330 = llvm.add %329, %17  : i64
    %331 = llvm.call @malloc(%330) : (i64) -> !llvm.ptr
    %332 = llvm.ptrtoint %331 : !llvm.ptr to i64
    %333 = llvm.add %332, %60  : i64
    %334 = llvm.urem %333, %17  : i64
    %335 = llvm.sub %333, %334  : i64
    %336 = llvm.inttoptr %335 : i64 to !llvm.ptr
    llvm.br ^bb58(%31 : i64)
  ^bb58(%337: i64):  // 2 preds: ^bb57, ^bb65
    %338 = llvm.icmp "slt" %337, %30 : i64
    llvm.cond_br %338, ^bb59, ^bb66
  ^bb59:  // pred: ^bb58
    llvm.br ^bb60(%31 : i64)
  ^bb60(%339: i64):  // 2 preds: ^bb59, ^bb64
    %340 = llvm.icmp "slt" %339, %17 : i64
    llvm.cond_br %340, ^bb61, ^bb65
  ^bb61:  // pred: ^bb60
    llvm.br ^bb62(%31 : i64)
  ^bb62(%341: i64):  // 2 preds: ^bb61, ^bb63
    %342 = llvm.icmp "slt" %341, %23 : i64
    llvm.cond_br %342, ^bb63, ^bb64
  ^bb63:  // pred: ^bb62
    %343 = llvm.mul %31, %0  : i64
    %344 = llvm.mul %339, %1  : i64
    %345 = llvm.add %343, %344  : i64
    %346 = llvm.mul %341, %23  : i64
    %347 = llvm.add %345, %346  : i64
    %348 = llvm.add %347, %31  : i64
    %349 = llvm.getelementptr %336[%348] : (!llvm.ptr, i64) -> !llvm.ptr, f32
    %350 = builtin.unrealized_conversion_cast %349 : !llvm.ptr to !llvm.struct<(ptr, ptr, i64, array<4 x i64>, array<4 x i64>)>
    %351 = llvm.extractvalue %350[1] : !llvm.struct<(ptr, ptr, i64, array<4 x i64>, array<4 x i64>)> 
    llvm.call @forward_kernel_6(%351) : (!llvm.ptr) -> ()
    %352 = llvm.add %341, %24  : i64
    llvm.br ^bb62(%352 : i64)
  ^bb64:  // pred: ^bb62
    %353 = llvm.add %339, %30  : i64
    llvm.br ^bb60(%353 : i64)
  ^bb65:  // pred: ^bb60
    %354 = llvm.add %337, %30  : i64
    llvm.br ^bb58(%354 : i64)
  ^bb66:  // pred: ^bb58
    %355 = llvm.call @malloc(%330) : (i64) -> !llvm.ptr
    %356 = llvm.ptrtoint %355 : !llvm.ptr to i64
    %357 = llvm.add %356, %60  : i64
    %358 = llvm.urem %357, %17  : i64
    %359 = llvm.sub %357, %358  : i64
    %360 = llvm.inttoptr %359 : i64 to !llvm.ptr
    %361 = llvm.mul %30, %30  : i64
    %362 = llvm.mul %361, %17  : i64
    %363 = llvm.mul %362, %23  : i64
    %364 = llvm.mul %363, %23  : i64
    %365 = llvm.mul %364, %94  : i64
    "llvm.intr.memcpy"(%360, %336, %365) <{isVolatile = false}> : (!llvm.ptr, !llvm.ptr, i64) -> ()
    llvm.br ^bb67(%31 : i64)
  ^bb67(%366: i64):  // 2 preds: ^bb66, ^bb74
    %367 = llvm.icmp "slt" %366, %30 : i64
    llvm.cond_br %367, ^bb68, ^bb75
  ^bb68:  // pred: ^bb67
    llvm.br ^bb69(%31 : i64)
  ^bb69(%368: i64):  // 2 preds: ^bb68, ^bb73
    %369 = llvm.icmp "slt" %368, %17 : i64
    llvm.cond_br %369, ^bb70, ^bb74
  ^bb70:  // pred: ^bb69
    llvm.br ^bb71(%31 : i64)
  ^bb71(%370: i64):  // 2 preds: ^bb70, ^bb72
    %371 = llvm.icmp "slt" %370, %23 : i64
    llvm.cond_br %371, ^bb72, ^bb73
  ^bb72:  // pred: ^bb71
    %372 = llvm.mul %370, %5  : i64
    %373 = llvm.mul %31, %3  : i64
    %374 = llvm.mul %368, %4  : i64
    %375 = llvm.add %373, %374  : i64
    %376 = llvm.mul %372, %21  : i64
    %377 = llvm.add %375, %376  : i64
    %378 = llvm.add %377, %31  : i64
    %379 = llvm.getelementptr %304[%378] : (!llvm.ptr, i64) -> !llvm.ptr, f32
    %380 = builtin.unrealized_conversion_cast %379 : !llvm.ptr to !llvm.struct<(ptr, ptr, i64, array<4 x i64>, array<4 x i64>)>
    %381 = llvm.mul %31, %0  : i64
    %382 = llvm.mul %368, %1  : i64
    %383 = llvm.add %381, %382  : i64
    %384 = llvm.mul %370, %23  : i64
    %385 = llvm.add %383, %384  : i64
    %386 = llvm.add %385, %31  : i64
    %387 = llvm.getelementptr %360[%386] : (!llvm.ptr, i64) -> !llvm.ptr, f32
    %388 = builtin.unrealized_conversion_cast %387 : !llvm.ptr to !llvm.struct<(ptr, ptr, i64, array<4 x i64>, array<4 x i64>)>
    %389 = llvm.extractvalue %380[1] : !llvm.struct<(ptr, ptr, i64, array<4 x i64>, array<4 x i64>)> 
    %390 = llvm.extractvalue %388[1] : !llvm.struct<(ptr, ptr, i64, array<4 x i64>, array<4 x i64>)> 
    llvm.call @forward_kernel_7(%389, %390, %390) : (!llvm.ptr, !llvm.ptr, !llvm.ptr) -> ()
    %391 = llvm.add %370, %25  : i64
    llvm.br ^bb71(%391 : i64)
  ^bb73:  // pred: ^bb71
    %392 = llvm.add %368, %30  : i64
    llvm.br ^bb69(%392 : i64)
  ^bb74:  // pred: ^bb69
    %393 = llvm.add %366, %30  : i64
    llvm.br ^bb67(%393 : i64)
  ^bb75:  // pred: ^bb67
    llvm.return %355 : !llvm.ptr
  }
  llvm.func @forward_kernel_0(!llvm.ptr) attributes {Kernel, forward_kernel_0}
  llvm.func @forward_kernel_1(!llvm.ptr) attributes {Kernel, forward_kernel_1}
  llvm.func @forward_kernel_2(!llvm.ptr, !llvm.ptr, !llvm.ptr, !llvm.ptr) attributes {Kernel, forward_kernel_2}
  llvm.func @forward_kernel_3(!llvm.ptr, !llvm.ptr, !llvm.ptr, !llvm.ptr, !llvm.ptr, !llvm.ptr) attributes {Kernel, forward_kernel_3}
  llvm.func @forward_kernel_4(!llvm.ptr, !llvm.ptr) attributes {Kernel, forward_kernel_4}
  llvm.func @forward_kernel_5(!llvm.ptr) attributes {Kernel, forward_kernel_5}
  llvm.func @forward_kernel_6(!llvm.ptr) attributes {Kernel, forward_kernel_6}
  llvm.func @forward_kernel_7(!llvm.ptr, !llvm.ptr, !llvm.ptr) attributes {Kernel, forward_kernel_7}
}


