module attributes {torch.debug_module_name = "L"} {
  memref.global "private" constant @__constant_12x3xf32 : memref<12x3xf32> = dense<[[… >
  memref.global "private" constant @__constant_3x12xf32 : memref<3x12xf32> = dense<[[… >
  func.func @forward(%arg0: memref<4x3xf32>) -> memref<4x3xf32> {
    %cst = arith.constant 0.000000e+00 : f32
    %0 = memref.get_global @__constant_3x12xf32 : memref<3x12xf32>
    %1 = memref.get_global @__constant_12x3xf32 : memref<12x3xf32>
    %alloca = memref.alloca() {alignment = 64 : i64} : memref<3x12xf32>
    affine.for %arg1 = 0 to 12 {
      affine.for %arg2 = 0 to 3 {
        %2 = affine.load %1[%arg1, %arg2] : memref<12x3xf32>
        affine.store %2, %alloca[%arg2, %arg1] : memref<3x12xf32>
      }
    }
    %alloc = memref.alloc() {alignment = 64 : i64} : memref<4x12xf32>
    affine.for %arg1 = 0 to 4 {
      affine.for %arg2 = 0 to 12 {
        affine.store %cst, %alloc[%arg1, %arg2] : memref<4x12xf32>
      }
    }
    %alloc_0 = memref.alloc() {alignment = 64 : i64} : memref<4x12xf32>
    memref.copy %alloc, %alloc_0 : memref<4x12xf32> to memref<4x12xf32>
    affine.for %arg1 = 0 to 4 {
      affine.for %arg2 = 0 to 12 {
        affine.for %arg3 = 0 to 3 {
          %2 = affine.load %arg0[%arg1, %arg3] : memref<4x3xf32>
          %3 = affine.load %alloca[%arg3, %arg2] : memref<3x12xf32>
          %4 = affine.load %alloc_0[%arg1, %arg2] : memref<4x12xf32>
          %5 = arith.mulf %2, %3 : f32
          %6 = arith.addf %4, %5 : f32
          affine.store %6, %alloc_0[%arg1, %arg2] : memref<4x12xf32>
        }
      }
    }
    %alloca_1 = memref.alloca() {alignment = 64 : i64} : memref<12x3xf32>
    affine.for %arg1 = 0 to 3 {
      affine.for %arg2 = 0 to 12 {
        %2 = affine.load %0[%arg1, %arg2] : memref<3x12xf32>
        affine.store %2, %alloca_1[%arg2, %arg1] : memref<12x3xf32>
      }
    }
    %alloc_2 = memref.alloc() {alignment = 64 : i64} : memref<4x3xf32>
    affine.for %arg1 = 0 to 4 {
      affine.for %arg2 = 0 to 3 {
        affine.store %cst, %alloc_2[%arg1, %arg2] : memref<4x3xf32>
      }
    }
    %alloc_3 = memref.alloc() {alignment = 64 : i64} : memref<4x3xf32>
    memref.copy %alloc_2, %alloc_3 : memref<4x3xf32> to memref<4x3xf32>
    affine.for %arg1 = 0 to 4 {
      affine.for %arg2 = 0 to 3 {
        affine.for %arg3 = 0 to 12 {
          %2 = affine.load %alloc_0[%arg1, %arg3] : memref<4x12xf32>
          %3 = affine.load %alloca_1[%arg3, %arg2] : memref<12x3xf32>
          %4 = affine.load %alloc_3[%arg1, %arg2] : memref<4x3xf32>
          %5 = arith.mulf %2, %3 : f32
          %6 = arith.addf %4, %5 : f32
          affine.store %6, %alloc_3[%arg1, %arg2] : memref<4x3xf32>
        }
      }
    }
    return %alloc_3 : memref<4x3xf32>
  }
}

