module attributes {torch.debug_module_name = "L"} {
  memref.global "private" constant @__constant_12x3xf32 : memref<12x3xf32> = dense<[[… >
  memref.global "private" constant @__constant_3x12xf32 : memref<3x12xf32> = dense<[[… >
  func.func @forward(%arg0: memref<4x3xf32>) -> memref<4x3xf32> {
    %cst = arith.constant 0.000000e+00 : f32
    %0 = memref.get_global @__constant_3x12xf32 : memref<3x12xf32>
    %1 = memref.get_global @__constant_12x3xf32 : memref<12x3xf32>
    %2 = memref.alloca() {alignment = 64 : i64} : memref<3x12xf32>
    FDRA.kernel {
      affine.for %arg1 = 0 to 12 {
        affine.for %arg2 = 0 to 3 {
          %8 = affine.load %1[%arg1, %arg2] : memref<12x3xf32>
          affine.store %8, %2[%arg2, %arg1] : memref<3x12xf32>
        }
      }
      FDRA.terminator
    }
    %3 = memref.alloc() {alignment = 64 : i64} : memref<4x12xf32>
    FDRA.kernel {
      affine.for %arg1 = 0 to 4 {
        affine.for %arg2 = 0 to 12 {
          affine.store %cst, %3[%arg1, %arg2] : memref<4x12xf32>
        }
      }
      FDRA.terminator
    }
    %4 = memref.alloc() {alignment = 64 : i64} : memref<4x12xf32>
    memref.copy %3, %4 : memref<4x12xf32> to memref<4x12xf32>
    FDRA.kernel {
      affine.for %arg1 = 0 to 4 {
        affine.for %arg2 = 0 to 12 {
          affine.for %arg3 = 0 to 3 {
            %8 = affine.load %arg0[%arg1, %arg3] : memref<4x3xf32>
            %9 = affine.load %2[%arg3, %arg2] : memref<3x12xf32>
            %10 = affine.load %4[%arg1, %arg2] : memref<4x12xf32>
            %11 = arith.mulf %8, %9 : f32
            %12 = arith.addf %10, %11 : f32
            affine.store %12, %4[%arg1, %arg2] : memref<4x12xf32>
          }
        }
      }
      FDRA.terminator
    }
    %5 = memref.alloca() {alignment = 64 : i64} : memref<12x3xf32>
    FDRA.kernel {
      affine.for %arg1 = 0 to 3 {
        affine.for %arg2 = 0 to 12 {
          %8 = affine.load %0[%arg1, %arg2] : memref<3x12xf32>
          affine.store %8, %5[%arg2, %arg1] : memref<12x3xf32>
        }
      }
      FDRA.terminator
    }
    %6 = memref.alloc() {alignment = 64 : i64} : memref<4x3xf32>
    FDRA.kernel {
      affine.for %arg1 = 0 to 4 {
        affine.for %arg2 = 0 to 3 {
          affine.store %cst, %6[%arg1, %arg2] : memref<4x3xf32>
        }
      }
      FDRA.terminator
    }
    %7 = memref.alloc() {alignment = 64 : i64} : memref<4x3xf32>
    memref.copy %6, %7 : memref<4x3xf32> to memref<4x3xf32>
    FDRA.kernel {
      affine.for %arg1 = 0 to 4 {
        affine.for %arg2 = 0 to 3 {
          affine.for %arg3 = 0 to 12 {
            %8 = affine.load %4[%arg1, %arg3] : memref<4x12xf32>
            %9 = affine.load %5[%arg3, %arg2] : memref<12x3xf32>
            %10 = affine.load %7[%arg1, %arg2] : memref<4x3xf32>
            %11 = arith.mulf %8, %9 : f32
            %12 = arith.addf %10, %11 : f32
            affine.store %12, %7[%arg1, %arg2] : memref<4x3xf32>
          }
        }
      }
      FDRA.terminator
    }
    return %7 : memref<4x3xf32>
  }
}

